onnx_model/hiragana.onnx (onnx, 564196 bytes, 10 tensors)

conv1.weight f4 [32, 3, 3, 3]
0	0x3f2b0844	0.6680949
1	0xbf79d0f5	-0.9758447
2	0x3efef918	0.49799418
3	0xbfd2cd1e	-1.6468847
4	0x3fd1112b	1.6333364
5	0x3f92809f	1.1445502
6	0x3f97e7db	1.1867632
7	0xbfe32676	-1.7746112
8	0xbfbfc326	-1.498143
9	0xbf031665	-0.51206046
10	0x3eca0698	0.39458156
11	0x3ee00922	0.43756968
12	0x3fec24e2	1.8448756
13	0x400ad908	2.1694965
14	0x3f91b23f	1.1382521
15	0x3f0c63ab	0.5483958
16	0x3ef50e25	0.47862354
17	0x3e31ba25	0.17356165
18	0xc01848d6	-2.3794456
19	0x3dc1cf12	0.09463324
20	0xbdfe8e44	-0.12429479
21	0xbed90d07	-0.42392752
22	0xbebefd0b	-0.3730243
23	0xbeb6f7d6	-0.3573596
24	0x40000823	2.0004966
25	0xbf85717a	-1.0425255
26	0xc004fc7a	-2.07791
27	0x3fb5f536	1.4215457
28	0xbf8e55b3	-1.1119903
29	0x3f45a600	0.7720642
30	0xbf32fa47	-0.6991314
31	0xbf97ef01	-1.1869813
32	0xbeb58e38	-0.35460067
33	0x3bb289b3	0.005448544
34	0xbe933b2d	-0.28756085
35	0xbf22a00a	-0.6352545
36	0xbfac241d	-1.3448521
37	0xbf785895	-0.97010165
38	0x3fc00ae2	1.5003321
39	0xbf819a5d	-1.0125233
40	0xbd95196f	-0.07280242
41	0x3f71fd44	0.9452708
42	0x3f8e61b4	1.1123567
43	0xbf148717	-0.5801863
44	0xbf46b8fa	-0.77626
45	0x3f4ed1b2	0.8078872
46	0xbd63c21b	-0.055605035
47	0x3fa21eec	1.2665687
48	0x3f15417a	0.58303034
49	0x3ef4c147	0.4780371
50	0xbe76d87b	-0.24106018
51	0xbf2a5484	-0.6653521
52	0x3c5a7763	0.013334128
53	0xbfb1fbaa	-1.3904927
54	0xbec5adda	-0.386092
55	0xbf0aac74	-0.5416939
56	0xbf10b55a	-0.5652672
57	0xbf467192	-0.77517045
58	0x3e99be81	0.30028155
59	0xbf1f2a99	-0.62174374
60	0x3e2280d5	0.15869458
61	0x3f5b9eb4	0.85789037
62	0xbde76e12	-0.11300291
63	0x3f80ce1f	1.0062903
64	0x3f6e115b	0.9299523
65	0xbe90a4f2	-0.28250843
66	0x3f5ba86c	0.85803866
67	0x3ed8b9be	0.4232921
68	0xbf9d625c	-1.2295642
69	0x3e5a1a57	0.2129911
70	0x3f2ac4cd	0.66706544
71	0xbf07c084	-0.5302813
72	0x3fa3e6cd	1.280481
73	0xbebcee74	-0.36900675
74	0xbf597133	-0.84938353
75	0x3f95deff	1.1708678
76	0x3f33459f	0.7002811
77	0xbf3b478a	-0.73156035
78	0x3ef83566	0.4847824
79	0x3ec1a442	0.3782063
80	0xbf37b663	-0.71762675
81	0x3eab513b	0.3346041
82	0x3f820f07	1.0160836
83	0x3e9c3b93	0.30514202
84	0x3e4201db	0.1894602
85	0xbd9d90ef	-0.076936595
86	0xbea19d45	-0.315653
87	0xbe22ee1d	-0.15911146
88	0xbea68085	-0.32519928
89	0x3e937778	0.28802085
90	0x3e95d790	0.29266024
91	0x3f755a8b	0.9584128
92	0xbec714c6	-0.38883036
93	0xbe307b26	-0.17234477
94	0x3ca28cd5	0.019842545
95	0xbb414d52	-0.002949555
96	0xbe1219c4	-0.14267641
97	0x3e5c8eff	0.21538924
98	0xbeb0bb8b	-0.34518084
99	0xbc06c08e	-0.00822462
100	0x3f8333c4	1.0250173
101	0x3e88f4b9	0.2674921
102	0xbe59eaac	-0.21280926
103	0x3eb9b0dc	0.36267745
104	0x3e8b9268	0.27260137
105	0xbe090d9d	-0.133841
106	0x3dad3470	0.08457267
107	0xbca45725	-0.020061085
108	0xbf38027a	-0.7187878
109	0x3f2ad5d8	0.6673255
110	0xbf51152f	-0.8167295
111	0x3eecc742	0.46245772
112	0x3e02ab49	0.12760653
113	0xbec0ba34	-0.37642062
114	0xbf555cee	-0.83344924
115	0xbf26eddf	-0.6520671
116	0x3fd3858a	1.6525128
117	0xbf6303be	-0.88677585
118	0xbf9d2bce	-1.2278993
119	0xbf5509e3	-0.8321821
120	0xbfa3376b	-1.2751287
121	0x3f2e7708	0.6815038
122	0x3f7ee6b2	0.99570763
123	0x3f5c6747	0.8609509
124	0x3cee3aec	0.02908083
125	0x3f0e7b9c	0.5565736
126	0xbe1253c3	-0.14289765
127	0xbe7f10d2	-0.2490876
128	0x3e1b6315	0.15174516
129	0xbf3c2fad	-0.7351025
130	0xbf339e2f	-0.70163244
131	0x3f9b454d	1.2130524
132	0xbfb74dae	-1.4320581
133	0xbe12600e	-0.14294454
134	0x3fc48709	1.535371
135	0xbc056426	-0.008141553
136	0xbf469780	-0.7757492
137	0x3d8693a3	0.06571128
138	0x3f75f939	0.9608341
139	0xbf0cd3d2	-0.5501071
140	0xbe16fdcc	-0.14745253
141	0x3f434c2f	0.7628812
142	0xbea3f5eb	-0.32023558
143	0x3e1f6eac	0.15569562
144	0xbf47783c	-0.7791784
145	0xbf9e1625	-1.2350508
146	0xbfac1e69	-1.344678
147	0xbe2d3e65	-0.16918333
148	0xbf0f3d16	-0.55952585
149	0x3ee326f1	0.44365647
150	0x3f815efe	1.0107114
151	0x3f994e6b	1.1977056
152	0x3f4dd241	0.80398947
153	0xbe4037ff	-0.18771361
154	0xbf855825	-1.0417525
155	0xbf41b737	-0.7567019
156	0xbe8533a7	-0.2601597
157	0x3d2af8a2	0.04174102
158	0x3f183749	0.5945936
159	0x3f13d406	0.577454
160	0x3f8f6469	1.1202518
161	0x3f039f8f	0.5141534
162	0xbfe672ff	-1.8003844
163	0xbf14a2be	-0.58060825
164	0x3f89ba87	1.0760049
165	0xbdb3f46a	-0.08786853
166	0x3ff1f5a4	1.8903089
167	0x3e2f40fb	0.17114632
168	0xbf786a1a	-0.970369
169	0x3fc7983b	1.5593332
170	0xbf9062d2	-1.1280158
171	0xbfe319eb	-1.7742285
172	0xbdafe9a9	-0.08589489
173	0xbf0d4fd6	-0.55199945
174	0xbc7d90e9	-0.015476444
175	0x3fa7c39a	1.3106568
176	0x3f33f805	0.7030032
177	0x3f6c0b7d	0.9220503
178	0xbf4008a9	-0.75013214
179	0x3f84e65f	1.0382804
180	0xbed0c0dd	-0.40772143
181	0xbe1a383f	-0.15060519
182	0xbe6e3441	-0.23262121
183	0xbf51e1e7	-0.81985325
184	0x3ed00bc5	0.4063398
185	0x3fe2afce	1.7709901
186	0xbfb44b7b	-1.4085535
187	0xbf66619f	-0.8999271
188	0xbf8249f3	-1.0178818
189	0x3ed64cf4	0.41855586
190	0xbdcaefdb	-0.0990903
191	0xbb6e3b71	-0.0036351348
192	0xbd8fcc05	-0.070213355
193	0x3e938aa6	0.28816718
194	0x3d1d1971	0.03835434
195	0x3f5223ff	0.82086176
196	0x3e97e8e8	0.2966988
197	0xbeccabad	-0.39974728
198	0xbd18e459	-0.037327144
199	0x3e14a3f1	0.14515664
200	0x3ed929b1	0.4241462
201	0x3e468606	0.19387063
202	0x3ecd4c9e	0.40097517
203	0xbdb3125c	-0.08743736
204	0x3f66c981	0.9015122
205	0xbdd13708	-0.102155745
206	0x3eecd16b	0.46253523
207	0xbead7835	-0.33880773
208	0x3e1f29ea	0.15543333
209	0xbeadc5d1	-0.33939984
210	0xbe16be76	-0.14721093
211	0x3eb4d544	0.3531896
212	0x3d20cb59	0.039256427
213	0x3ea01c31	0.31271508
214	0xbe08eb5d	-0.13371034
215	0x3d81e850	0.06343138
216	0x4000d06d	2.0127213
217	0xbf8e7de0	-1.1132164
218	0xbe962f86	-0.29333133
219	0x3f9a9356	1.2076213
220	0xbbb39b97	-0.0054811942
221	0x3f30871c	0.6895616
222	0x3faf1c3c	1.3680491
223	0x3f1b8a0f	0.60757536
224	0xbf5f54ea	-0.87238944
225	0x3e980987	0.2969477
226	0xbe908615	-0.28227296
227	0x3e29db37	0.1658753
228	0xbf8d552f	-1.1041621
229	0xbf90ca01	-1.1311647
230	0xbed8de0f	-0.42356917
231	0x3f1bfcf5	0.60932857
232	0x3e9dd42f	0.30825946
233	0xbf99fa80	-1.2029572
234	0x3f860f57	1.0473431
235	0x4001c126	2.0274138
236	0xbf879fc5	-1.0595633
237	0x3e87ea7a	0.2654608
238	0xbe74afb2	-0.23895147
239	0xc0064eb4	-2.0985537
240	0x3f1e4ef0	0.618392
241	0xbfa20c3f	-1.2659987
242	0xbf0810bf	-0.5315055
243	0x3d8b730c	0.06809053
244	0x3f879fbd	1.0595623
245	0x3fa0a597	1.2550534
246	0xbf915851	-1.1355077
247	0x3f5248cd	0.82142335
248	0xbdd925eb	-0.106029354
249	0xbf91fd46	-1.1405418
250	0xbf8584aa	-1.0431111
251	0x3f90f387	1.1324319
252	0xbecdaaa4	-0.4016925
253	0x3f18d711	0.59703165
254	0x3f6b3ced	0.9188984
255	0x3f823f41	1.0175554

conv1.bias f4 [32]
0	0xbee0802a	-0.4384778
1	0x3f0da9bc	0.5533712
2	0xbf2a8f56	-0.66624963
3	0xbf6136b5	-0.879741
4	0x3e4c1a43	0.19931893
5	0xbe516bba	-0.2045125
6	0x3e2f56e8	0.17122996
7	0xbf6de71e	-0.9293078
8	0xbd0258d6	-0.031823
9	0xbe80cea2	-0.25157648
10	0xbedd2fda	-0.4320057
11	0xbe2b88ef	-0.16751455
12	0x3f3b150d	0.73078996
13	0xbf97c6ca	-1.1857541
14	0x3eb7891a	0.35846788
15	0xbdf4b4a6	-0.119485185
16	0xbe487bc8	-0.19578469
17	0xbe8ef9b3	-0.2792488
18	0xbf498328	-0.78715754
19	0xbdf1938c	-0.117957205
20	0x3e75403b	0.23950283
21	0x3f414ee8	0.75511026
22	0x3f1de886	0.6168293
23	0x3f2f2191	0.68410593
24	0xbf8eade7	-1.1146821
25	0xbec45340	-0.38344765
26	0xbc6616e0	-0.01404354
27	0xbc08c434	-0.00834756
28	0x3d338f2c	0.04383771
29	0xbe94bc4f	-0.29049918
30	0xbf45b529	-0.77229553
31	0xbf5b8419	-0.8574844

conv2.bias f4 [64]
0	0xbf66a5e2	-0.9009687
1	0x3f0bef13	0.54661673
2	0x3e0f4fdb	0.13995306
3	0x3f0f7865	0.5604308
4	0x3ea44d58	0.3209026
5	0xbed3c258	-0.4135921
6	0x3f3f7be2	0.74798405
7	0xbf31ebdc	-0.6950052
8	0x3e1685db	0.146995
9	0x3f4737bc	0.7781942
10	0x3ee6c93e	0.4507541
11	0x3f0260c7	0.5092892
12	0x3eec9d33	0.46213683
13	0x3edd6ba4	0.43246186
14	0x3ed80cf6	0.42197388
15	0x3f0385d0	0.51376057
16	0x3f46e97c	0.7770002
17	0xbee959f9	-0.45576456
18	0x3ebce256	0.3689143
19	0x3f6dec9c	0.9293916
20	0x3fa0eaf4	1.2571702
21	0xbe400ccd	-0.18754883
22	0x3f036dd5	0.51339465
23	0x3ed6cf56	0.4195506
24	0x3f196ac8	0.5992856
25	0x3da9eae8	0.08296758
26	0xbf3b7d99	-0.7323852
27	0xbe09c7e8	-0.13455164
28	0x3f33c7e0	0.7022686
29	0x3f0ccd50	0.5500078
30	0x3f0b1d85	0.5434192
31	0xbe7d73f2	-0.24751261
32	0x3ec381f2	0.38185078
33	0x3e7707e3	0.24124102
34	0x3f0e507e	0.5559157
35	0x3f0e892f	0.55678076
36	0xbf345df4	-0.7045586
37	0x3e296836	0.1654366
38	0xbd1d23d4	-0.038364246
39	0x3eac294e	0.33625263
40	0x3f057217	0.5212721
41	0x3ee4771a	0.44622117
42	0x3eb3e157	0.35132858
43	0x3ea86f60	0.32897472
44	0xbd84732a	-0.06467278
45	0x3e3d4fbd	0.18487449
46	0x3f3e33e2	0.74297917
47	0x3f43eb53	0.7653095
48	0xbe724fb7	-0.23663221
49	0xbf9dba68	-1.2322512
50	0xbf96e732	-1.1789305
51	0x3f1db767	0.61607975
52	0x3d53e088	0.0517278
53	0x3e81d9a3	0.25361356
54	0xbeda5580	-0.42643356
55	0xbe056370	-0.13026214
56	0x3f1e52a3	0.61844844
57	0xbd822538	-0.06354755
58	0xbdd8996c	-0.10576138
59	0x3f4c4b24	0.79802155
60	0x3f720c92	0.9455043
61	0x3f04c5e3	0.5186445
62	0xbf166406	-0.58746374
63	0x3f440c79	0.7658153

conv3.bias f4 [128]
0	0xbe002082	-0.12512401
1	0xbdcccd10	-0.1000005
2	0xbd8a95c8	-0.0676685
3	0x3d5d4e60	0.054029822
4	0xbe72d2b4	-0.2371319
5	0xbdaa42d0	-0.08313525
6	0xbd6ffc00	-0.058589935
7	0xbe6352fe	-0.22199628
8	0xbcc853e0	-0.024454057
9	0xbd2c3bc0	-0.04204917
10	0x3c79e100	0.015251398
11	0xbd119420	-0.035541654
12	0xbe495eb8	-0.19665039
13	0xbe2857d8	-0.1643976
14	0x3e173074	0.14764577
15	0x3c3147c0	0.010820329
16	0x3c04c180	0.008102775
17	0xbd28b050	-0.04118377
18	0xbe8925e3	-0.26786718
19	0x3c740280	0.014893174
20	0xbe3cfede	-0.18456599
21	0xbd37ecf0	-0.044903696
22	0xbd2b13c0	-0.041766882
23	0xbdb13c38	-0.08654064
24	0xbe3a6a82	-0.18204692
25	0xbdd5b460	-0.104347944
26	0x3cd5c9c0	0.026097178
27	0xbe97f86b	-0.29681715
28	0xbdb59280	-0.08865833
29	0xbd47d210	-0.048784316
30	0xbdf6dd18	-0.12053889
31	0x3d17ae70	0.03703159
32	0x3c0dfc40	0.008666098
33	0xbcc1e5c0	-0.023669124
34	0x3e054b4c	0.13017005
35	0x3d581060	0.05274999
36	0xbe0fd468	-0.1404587
37	0x3dba9d78	0.09112066
38	0xbd8fd7d8	-0.07023591
39	0xbe3a72ba	-0.18207827
40	0xbcdc0520	-0.026857913
41	0x3da07e40	0.0783658
42	0xbda3f720	-0.0800612
43	0xbe83202e	-0.2561049
44	0xbde81830	-0.113327384
45	0x3dd572c8	0.104222834
46	0xbe204e82	-0.15654948
47	0x3e130e74	0.14360982
48	0xbd1a5740	-0.037680864
49	0xbe5b8de8	-0.21440852
50	0xbd1a4730	-0.037665546
51	0xbd8280c0	-0.06372213
52	0xbe923c07	-0.28561422
53	0xbdee3c38	-0.116325796
54	0x3cf5c660	0.03000182
55	0xbda28f50	-0.07937491
56	0xbc01e5c0	-0.007928312
57	0xbd0848e0	-0.033272624
58	0xbc029d40	-0.007972062
59	0x3d23ad40	0.039960146
60	0x3def58e0	0.116868734
61	0x3d643f20	0.055724263
62	0x3daa71a0	0.083224535
63	0xbce69c80	-0.028150797
64	0xbd6f58e0	-0.058434367
65	0xbdc198f8	-0.094530046
66	0x3ddf2d98	0.10897368
67	0x3cb81f60	0.022475898
68	0x3c84cc80	0.016210794
69	0x3cb618e0	0.022228658
70	0x3dd76a78	0.10518354
71	0xbd8b19c0	-0.06792021
72	0xbd9d9748	-0.0769487
73	0x3da37a08	0.0798226
74	0x3d348df0	0.044080675
75	0xbe84e039	-0.25952318
76	0xbe27e6a8	-0.16396582
77	0xbdad0d68	-0.08449823
78	0xbe490926	-0.19632396
79	0xbd9f4e30	-0.07778585
80	0xbde066f8	-0.1095714
81	0xbde25098	-0.11050528
82	0xbd20f0d0	-0.039292157
83	0xbded3010	-0.11581433
84	0x3d94bfe8	0.07263166
85	0xbe172de4	-0.147636
86	0x3baf6c80	0.0053535104
87	0xbe30bf96	-0.17260584
88	0xbdc74b60	-0.097311735
89	0xbe074458	-0.13209665
90	0xbe8388d3	-0.25690326
91	0xbe348f30	-0.17632747
92	0xbd554340	-0.052066088
93	0x3b525400	0.0032093525
94	0x3c49d240	0.012318194
95	0xbdad4ab0	-0.08461511
96	0xbd964b5c	-0.073385924
97	0xbcd68740	-0.02618754
98	0xbe5aa9ba	-0.21353808
99	0xbb88ae80	-0.0041711926
100	0xbda7ca68	-0.08192903
101	0xbe52efa8	-0.20599234
102	0x3d068f00	0.03285122
103	0xbdb9c5d0	-0.09070933
104	0xbdcd85dc	-0.10035297
105	0xbe68078e	-0.22659132
106	0x3d26bbc0	0.040706396
107	0xbea20688	-0.31645608
108	0xbe82a08b	-0.2551311
109	0xbe1c20b4	-0.1524685
110	0xbe53863c	-0.20656675
111	0xbd3f3e90	-0.046690524
112	0x3d962860	0.0733192
113	0xbed6f368	-0.4198258
114	0xbb15ab00	-0.002283752
115	0xbe320b64	-0.17387158
116	0x3d8eca98	0.069722354
117	0xbd3303d0	-0.043704808
118	0x3dda8b78	0.10671133
119	0xbe2d5a84	-0.1692906
120	0xbdd58560	-0.1042583
121	0xbdd31470	-0.103066325
122	0xbe0a45c4	-0.13503176
123	0x3d9afce8	0.07567769
124	0xbdc9ee48	-0.09859902
125	0xbd021860	-0.031761527
126	0xbdad4974	-0.08461276
127	0xbd027c60	-0.031856894

fc1.bias f4 [256]
0	0x3f40b89f	0.7528171
1	0x3e4345e6	0.19069633
2	0x3fd32df1	1.6498395
3	0x3f02f202	0.51150525
4	0x3dcba9bc	0.09944484
5	0x3f941a70	1.1570568
6	0x3f214f11	0.6301127
7	0x3efbf220	0.49208164
8	0x3f0cbf31	0.54979235
9	0x3fa5e700	1.2961121
10	0x3fcc492c	1.595983
11	0x3fee2b08	1.8606882
12	0xbd999af0	-0.07500255
13	0x4017dbcc	2.3727903
14	0x3f0f152c	0.5589168
15	0x3f8b1027	1.0864304
16	0x3f28da60	0.65958214
17	0xbf08890a	-0.53334105
18	0x3fde77a3	1.738026
19	0xbf569245	-0.8381694
20	0x403262d0	2.787281
21	0x3fa93d47	1.3221825
22	0x3f47ccba	0.7804676
23	0x400697eb	2.1030223
24	0x3f611a06	0.87930334
25	0xc0224688	-2.535555
26	0x3fd0225e	1.6260488
27	0x4020235a	2.5021577
28	0xbeca755a	-0.39542657
29	0x401de09b	2.4668338
30	0x3ffc5562	1.9713557
31	0x3fa85782	1.3151705
32	0xbf5791da	-0.84206927
33	0xbf20ea47	-0.6285748
34	0xbf8ee471	-1.1163465
35	0x3c6deae0	0.014521331
36	0x3f126804	0.57189965
37	0x3fa1f519	1.2652923
38	0x4001bf52	2.0273023
39	0xbc8336b0	-0.016017288
40	0xbf3649ae	-0.71206176
41	0x3fa7d0af	1.311056
42	0xbfdcaaf5	-1.7239672
43	0x3f85d07b	1.0454248
44	0x3fa7036f	1.3047923
45	0x3f62c148	0.88576174
46	0x3f9e6986	1.2375953
47	0x3e877ef2	0.2646404
48	0xc006fffa	-2.1093736
49	0x3e560ac8	0.2090255
50	0x4044f290	3.0773048
51	0x3c119f60	0.008888096
52	0x400c9091	2.1963236
53	0xbd2fdea8	-0.04293695
54	0x3f401a9f	0.7504062
55	0xbdae86e6	-0.085218236
56	0x3ec58c45	0.3858358
57	0x3fa0e88e	1.257097
58	0xbeb300d8	-0.3496158
59	0xc016c314	-2.3556566
60	0x3fa5919a	1.2935059
61	0x400059a8	2.0054722
62	0xbeab3e5c	-0.33446014
63	0xbec27269	-0.37977913
64	0xbe82c076	-0.2553746
65	0x3fbd55b6	1.4791782
66	0x3fc44e58	1.5336409
67	0x4016cc1f	2.3562086
68	0x3f810961	1.0080987
69	0x3f819f74	1.0126786
70	0xbfb45759	-1.4089156
71	0xbf5e4a12	-0.8683177
72	0x3f30f528	0.6912408
73	0x3fa26e7e	1.268997
74	0xbf84ab7b	-1.0364832
75	0x3fd6fb03	1.6795353
76	0x3f8fa4e0	1.1222191
77	0x3fc6099f	1.5471686
78	0xbec8b498	-0.39200282
79	0xbb6b4200	-0.0035897493
80	0x3f399476	0.7249216
81	0x401b3926	2.425363
82	0x3fd27ee6	1.6444976
83	0x3f2b6830	0.6695585
84	0xbe780786	-0.2422162
85	0x3f1676f3	0.5877525
86	0x400d6def	2.2098348
87	0x3f8458de	1.033962
88	0x3f306494	0.6890347
89	0xbf2b7d04	-0.66987634
90	0x3fb69c36	1.4266422
91	0x3e3f4645	0.1867915
92	0xbfe4ab88	-1.7864847
93	0x3f9447f7	1.1584462
94	0x3fa1b2da	1.2632706
95	0x3f9c84a2	1.2227976
96	0x3fcee1d4	1.6162667
97	0x3fb5ee8e	1.4213426
98	0x3f6be2c6	0.92142904
99	0x3ed32afe	0.41243738
100	0x3d830354	0.06397119
101	0x3f60a89a	0.87757266
102	0x3fa511ed	1.2896096
103	0x3f2cc146	0.6748241
104	0x3feb6626	1.8390548
105	0x3ff15682	1.8854525
106	0x3fcc36f6	1.5954273
107	0x3fb819f5	1.4382921
108	0x4032bc2c	2.792735
109	0x3fa0c547	1.2560204
110	0x3faad61c	1.3346591
111	0x3f734bf0	0.95037746
112	0x3fb9e206	1.4522102
113	0x40024fec	2.036128
114	0x400b00bd	2.17192
115	0x3fb95c91	1.4481374
116	0x3e91a942	0.28449446
117	0x3fcecc5d	1.6156117
118	0x3fdb9d0c	1.7157302
119	0x40007b3d	2.0075219
120	0xbf8ad90e	-1.084749
121	0x3f5c9600	0.8616638
122	0x3fcb8a74	1.5901628
123	0x3fbba4d8	1.4659681
124	0x3f36ed1e	0.7145556
125	0x3e9f267f	0.31084058
126	0x3ff2f4ca	1.8980954
127	0x4002a499	2.0412962
128	0x3ff77993	1.9333977
129	0x3ff004d5	1.8751475
130	0xbe74b3de	-0.23896739
131	0x3f475ad4	0.7787297
132	0xbe193e35	-0.14965136
133	0x3f87f569	1.0621768
134	0x4013e1be	2.3106532
135	0x3f0cfd1c	0.55073714
136	0x3f1d4675	0.61435634
137	0xbe37cfc8	-0.17950356
138	0x40151125	2.3291714
139	0x3f8d7e89	1.105424
140	0xbc6d8700	-0.014497519
141	0x3d313814	0.04326637
142	0x3ef9986f	0.4874911
143	0xbe2557fc	-0.16146845
144	0xbed2243d	-0.41043273
145	0x3fe20b42	1.7659686
146	0x3f19de70	0.6010504
147	0x3fca7d40	1.5819473
148	0x3ffc5b00	1.9715271
149	0xbee57e36	-0.44822854
150	0x3f6f7bcf	0.9354829
151	0x3ef7dc18	0.48410106
152	0xbdc96820	-0.098343134
153	0xbd9c8690	-0.07642853
154	0xbf851db4	-1.039969
155	0x40011a4a	2.0172296
156	0x3f8edfd2	1.1162055
157	0xbe3fc71c	-0.18728298
158	0xbdea3784	-0.1143637
159	0x3f9a35b0	1.2047634
160	0x3f7f9e24	0.9985068
161	0x3f054acd	0.5206726
162	0x3f682462	0.90680516
163	0x3efe9d60	0.49729443
164	0x400a9798	2.1655025
165	0x3fdd0f53	1.7270302
166	0x3ffce19e	1.9756353
167	0x3f531fd2	0.8247043
168	0xbf5e9180	-0.86940765
169	0x40232acd	2.5494874
170	0x3f8494a1	1.0357858
171	0x3fbb103d	1.461433
172	0x401f42d6	2.4884543
173	0xbdb0e068	-0.08636552
174	0x3de6cd60	0.11269641
175	0xbfd60b92	-1.6722281
176	0x3fe300eb	1.7734655
177	0x3fb4fd9a	1.4139893
178	0x3f864cde	1.0492208
179	0x3fa1792e	1.2615106
180	0x3fbbaf76	1.4662921
181	0x403c8523	2.945626
182	0xbf4a2888	-0.78968096
183	0x3fe305ba	1.7736123
184	0xbfab2121	-1.3369485
185	0x3f382b3f	0.7194099
186	0xc0087534	-2.1321535
187	0x3fd3a5a8	1.6534929
188	0x3fe2505d	1.7680775
189	0x3fb3a336	1.4034183
190	0x4023cf84	2.5595407
191	0x3f99c3ca	1.2012875
192	0x3eba18cd	0.36347046
193	0x4000c540	2.0120392
194	0xbf1142e8	-0.56742716
195	0xbfb061fa	-1.37799
196	0x3ee8f79a	0.45501405
197	0x3ff693a2	1.9263804
198	0x400cc723	2.1996543
199	0x3f614b3d	0.8800543
200	0x3f1a892e	0.6036557
201	0x3f5a9431	0.8538237
202	0x3d10dc0c	0.035366103
203	0x3ecd55d6	0.4010455
204	0xc00888f1	-2.1333582
205	0x3ea54d0c	0.32285345
206	0x3f66bd47	0.90132564
207	0x3f5a1f38	0.85203886
208	0x402b0d01	2.6726687
209	0x3f8e080e	1.1096208
210	0xbdf808f0	-0.1211108
211	0x3e83c95c	0.25739563
212	0x3f90b10f	1.1304034
213	0x3f69277a	0.9107586
214	0xbf6a47a0	-0.9151554
215	0xbf072056	-0.52783716
216	0x403488f9	2.8208601
217	0xbe0ff250	-0.14057279
218	0x3faff0a8	1.3745317
219	0x3f335c72	0.70062935
220	0x3f4e598e	0.806054
221	0xbec4b4e0	-0.38419247
222	0x40363620	2.8470535
223	0x3ff72a87	1.9309853
224	0x3ffe1f61	1.9853326
225	0x3e8d1c0a	0.27560455
226	0x3ffa3e83	1.9550327
227	0x40338ffe	2.8056636
228	0x3fd77c52	1.6834815
229	0xbee920e4	-0.45532906
230	0x3fcaf0bc	1.5854716
231	0xbfaa55f5	-1.3307482
232	0x3ff11508	1.8834543
233	0x3f9d9f54	1.2314248
234	0x3f77290a	0.96546996
235	0x3fb21adc	1.3914447
236	0xbf75c0c0	-0.9599724
237	0x3c23da90	0.01000084
238	0xbea98d4d	-0.33115616
239	0xbe9428fe	-0.28937525
240	0x3f4de924	0.8043387
241	0x3f52ac78	0.82294416
242	0x3fe3afe1	1.7788049
243	0x40174fae	2.3642383
244	0x3eeb27d6	0.4592883
245	0xc0219eec	-2.5253248
246	0x4014deeb	2.3261058
247	0x3e9878fc	0.29779804
248	0xbfa764a2	-1.3077586
249	0x3ee59751	0.44842008
250	0x3fe48f70	1.7856274
251	0x3fb9b1f2	1.450743
252	0x3fac51f0	1.3462505
253	0x3ea1d43b	0.31607231
254	0x3ed0e1a5	0.40797153
255	0x3fbab374	1.4586015

fc2.bias f4 [46]
0	0x3cc930fd	0.024559492
1	0xbde3ebfd	-0.111289956
2	0xbdbc7ca1	-0.092034586
3	0xbcd103c5	-0.025514493
4	0x3d5c3176	0.053758107
5	0x3b6b4e0a	0.003590467
6	0xbd2289a4	-0.039682046
7	0xbdb0b291	-0.08627809
8	0x3d9659ff	0.07341384
9	0xbdd08836	-0.1018223
10	0xbd478e93	-0.048719954
11	0xbe16d92c	-0.14731282
12	0x3d0abe4e	0.033872895
13	0xbb79f1bb	-0.0038138467
14	0x3d964fbf	0.07339429
15	0x3cea8ec6	0.028632533
16	0x3d9563b9	0.07294411
17	0xbd845a2d	-0.06462512
18	0x3d66fbfa	0.056392647
19	0x3d6ffadc	0.058588848
20	0x3d0c8854	0.0343097
21	0xbd15ebf7	-0.036601987
22	0xbd269843	-0.04067255
23	0x3c085bf1	0.008322702
24	0xbcb0135a	-0.021493603
25	0xbc2f089d	-0.010683206
26	0x3e03beea	0.12865797
27	0x3ca29308	0.0198455
28	0x3c9287b3	0.017886972
29	0xbca065e2	-0.019579832
30	0xbd05694a	-0.032571115
31	0x3a771a90	0.00094262604
32	0x3e032f5c	0.12811035
33	0xbc15bdc9	-0.009139487
34	0xbc19fc64	-0.0093985535
35	0x3cf482b3	0.029847478
36	0xbca4db7d	-0.020124191
37	0x3d0352ff	0.032061573
38	0x3e06d13c	0.13165754
39	0xbe05de61	-0.13073112
40	0xbb06e291	-0.0020581821
41	0x3c4692c8	0.012119956
42	0x3b466b4b	0.0030276354
43	0x3de0f74c	0.10984668
44	0xbd9fbc1f	-0.07799553
45	0xb9e419d1	-0.00043506784

conv2.weight f4 [64, 32, 3, 3]
0	0x3c2e39c1	0.010633887
1	0x3c8317ed	0.01600262
2	0xbcd9a245	-0.026566634
3	0xbcb48487	-0.02203585
4	0xbc4f4bae	-0.012652321
5	0xbb7024c5	-0.003664301
6	0xbd9074ac	-0.070535034
7	0xbd57bf98	-0.052672952
8	0xbc016e4a	-0.00789983
9	0x3c988b21	0.01862103
10	0x3a8200d7	0.0009918463
11	0xbbab95f5	-0.005236382
12	0xbc3be100	-0.011467218
13	0x3caee94b	0.021351477
14	0xbca1759a	-0.019709397
15	0x3c3f8cf1	0.011691318
16	0x3d2d115d	0.042252887
17	0xbcc0096b	-0.02344199
18	0x3d0b7c82	0.034054287
19	0x3d78e536	0.060765468
20	0x3d354a89	0.044260535
21	0x3d421505	0.047383327
22	0xb993a896	-0.0002816363
23	0x3b81c99a	0.0039608004
24	0x3d50002a	0.050781406
25	0x3c9eb18e	0.019371774
26	0x3bb7bbde	0.0056071123
27	0x3d7d2786	0.06180527
28	0x3d2932a7	0.04130807
29	0x3c87cb44	0.016576417
30	0x3d001be7	0.03127661
31	0x3b1d38d6	0.0023990176
32	0xb9b0ba6d	-0.00033708234
33	0x3d72ac8f	0.059246596
34	0xb9e3baf8	-0.00043436117
35	0x3ce30be7	0.027715636
36	0xbd67aef7	-0.056563344
37	0x3d0fdad8	0.035120815
38	0x3cc9031f	0.024537621
39	0xbd16e560	-0.036839843
40	0x3ce900b5	0.02844272
41	0x3cecc2ee	0.028901543
42	0xbd20f4bd	-0.0392959
43	0xbb105369	-0.0022022373
44	0x3cac06cb	0.020999333
45	0xbc8c2398	-0.017106816
46	0xbaf24423	-0.0018483441
47	0x3d0b79fa	0.034051873
48	0xbd0352ac	-0.032061264
49	0x3d140a41	0.03614259
50	0x3cda0287	0.026612533
51	0xbd074302	-0.033022888
52	0x3cfe81aa	0.031067688
53	0x3d6a636b	0.05722372
54	0x3c8dbe15	0.017302552
55	0x3ce33747	0.02773632
56	0xbc6ecdc3	-0.014575425
57	0xbd099aca	-0.033594884
58	0xbc05fac0	-0.008177459
59	0x3babeff9	0.005247113
60	0x3c1133c5	0.0088624405
61	0xbc4c8ac1	-0.012484253
62	0xbc67bdf4	-0.014144409
63	0x3d15b0a6	0.03654542
64	0x3d0aa102	0.033844955
65	0xbcbcd0c5	-0.023048768
66	0x3b8853ed	0.0041603954
67	0xbc646147	-0.013939208
68	0x3ceda64a	0.029009957
69	0x3cbb77f5	0.022884348
70	0xbbd0d490	-0.0063729957
71	0x3c08f474	0.008359063
72	0x3d344706	0.044013046
73	0x3d85844d	0.06519375
74	0x3d5269de	0.051370494
75	0x3c911005	0.017707834
76	0x3d38d072	0.045120664
77	0x3ca37b7d	0.019956345
78	0xbca56700	-0.020190716
79	0x3d101310	0.03517443
80	0x3d2fa24a	0.04287938
81	0x3d15773e	0.03649067
82	0xbd531806	-0.051536582
83	0xbc8a7d34	-0.016905405
84	0x3d0a3422	0.033741124
85	0xbb2ce325	-0.0026380506
86	0xbc183089	-0.009288915
87	0x3d09966f	0.03359073
88	0xbb207f24	-0.0024489844
89	0x3c4c95a9	0.012486854
90	0x3d61336e	0.054980688
91	0x3d3eaa1e	0.046548955
92	0x3d111041	0.03541589
93	0x3d4aff01	0.049559597
94	0x3d49fcd4	0.04931338
95	0xbc62d924	-0.013845716
96	0x3beb7e00	0.007186651
97	0x3ceeb732	0.029140089
98	0xbd02d2b2	-0.031939216
99	0xbd4f517e	-0.050614826
100	0xbb8ae315	-0.004238496
101	0x3c85068a	0.01623847
102	0xbd2b33a8	-0.04179731
103	0x3ce4830b	0.027894517
104	0x3d38131d	0.044940103
105	0xbd580b2c	-0.05274503
106	0xbc682cf9	-0.014170879
107	0x3c900e74	0.017585017
108	0xbc3448b5	-0.011003663
109	0x3bd8f3b3	0.006620848
110	0xbbd1da93	-0.00640423
111	0xbd27a702	-0.040930755
112	0xbce57152	-0.028008137
113	0x3c405be0	0.011740655
114	0xbcf3b694	-0.029750146
115	0x3bfe8bc3	0.0077681257
116	0x3ce852e8	0.028359845
117	0xbbc9db59	-0.0061601815
118	0x3d2904e9	0.04126445
119	0xbad175aa	-0.0015980501
120	0x3ba4a94b	0.005025064
121	0x3c8b824d	0.017029906
122	0x3bf6b1ea	0.007528533
123	0x3c9489d5	0.01813213
124	0x3c80a288	0.015702501
125	0x3d5fed57	0.054669704
126	0x3be58312	0.00700415
127	0x3d3ddafb	0.046351414
128	0x3c4206fd	0.011842486
129	0x3d39bff9	0.045349095
130	0x3cd25cdd	0.025679046
131	0x3cc8703c	0.02446758
132	0xbcbb463c	-0.022860639
133	0x3c7d18dd	0.015447822
134	0xbc025341	-0.00795442
135	0xbd5e7ea8	-0.054320008
136	0xbcba87b3	-0.022769785
137	0x3bd9fd3e	0.0066525033
138	0xbd08d76f	-0.03340858
139	0xbd3c4269	-0.04596177
140	0x3be9012f	0.007110737
141	0xbc683904	-0.01417375
142	0xbd6ede74	-0.058317617
143	0x3cade914	0.021229304
144	0xbd76c59d	-0.060247052
145	0xbd4a4bce	-0.0493887
146	0xbbb2b976	-0.0054542376
147	0xbc1f7eb4	-0.009734798
148	0xbca35b72	-0.019941065
149	0x3d1215cd	0.035665322
150	0xbcdfbd8a	-0.027312059
151	0xbcc9940f	-0.024606733
152	0x3bb0abeb	0.005391588
153	0xbbb44acc	-0.0055020805
154	0x3cb99987	0.022656215
155	0x3cacab9d	0.021077925
156	0xbc7b0de7	-0.015323139
157	0x3c1d7c3d	0.00961214
158	0x3d332ff2	0.043746896
159	0x3c068ae5	0.008211826
160	0xbb825829	-0.0039777947
161	0x3d2009d0	0.039071858
162	0xbb016776	-0.0019745505
163	0xbba1cf6e	-0.0049380576
164	0x3cbc8c97	0.023016257
165	0x3d20ed4c	0.039288804
166	0x3d193460	0.037403464
167	0x3cfee16b	0.031113347
168	0x3c7e04e6	0.015504098
169	0x398227d0	0.00024825195
170	0x3c7bc99e	0.0153678935
171	0xbcf09db1	-0.029372068
172	0xbd12c7f0	-0.035835207
173	0x3c799243	0.015232625
174	0xbd119338	-0.03554079
175	0xb96baf3f	-0.0002247663
176	0x3d67fea4	0.05663933
177	0xbd0cb469	-0.03435174
178	0xbc4bcf63	-0.012439582
179	0x3d68d5af	0.05684441
180	0x3bd6e2ae	0.006557784
181	0x3c29f61c	0.010373618
182	0xbaeec13a	-0.0018215545
183	0x3cd30f6a	0.025764186
184	0x3c568bd5	0.013094862
185	0xbcb16e0d	-0.021658922
186	0x3cc8d399	0.02451496
187	0x3c09c8ff	0.008409738
188	0xbb83949c	-0.0040155184
189	0xbd15b19f	-0.036546346
190	0xbc57d32b	-0.013172905
191	0x3bc961ce	0.0061456924
192	0xbbf16d45	-0.0073677623
193	0xb8a980af	-8.082517e-05
194	0xbc18a6ca	-0.009317109
195	0xbaa3ef7a	-0.0012507283
196	0xbaec6e73	-0.0018038288
197	0xbd0da993	-0.034585547
198	0x3cd468c6	0.025928866
199	0x3cfadfcc	0.030624293
200	0x3bdf102d	0.006807348
201	0x3c087983	0.008329752
202	0x3d5143b0	0.051089942
203	0x3ce3fb24	0.027829714
204	0x3cf9f695	0.030513087
205	0x3ca03c48	0.019559994
206	0x3c625686	0.013814574
207	0x3cc8056f	0.024416653
208	0x3c6d121c	0.01446965
209	0xbaa4b755	-0.0012566844
210	0x3c99bf75	0.018768052
211	0x3c238dd4	0.009982545
212	0xba656cb0	-0.00087518524
213	0xbbd23d32	-0.0064159865
214	0x3d136482	0.035984524
215	0x3ae1da95	0.001723128
216	0x3d427aca	0.047480382
217	0x3d8081ab	0.06274732
218	0x3cc6096d	0.024174416
219	0x3d620852	0.055183716
220	0x3c213bf8	0.009840958
221	0x3cad0cc3	0.02112425
222	0x3d0b2aa2	0.033976205
223	0x3d210dfe	0.039319985
224	0x3c600330	0.013672635
225	0x3913f7f0	0.00014111376
226	0x3b4de8a7	0.003141919
227	0xbba0adbc	-0.0049035233
228	0xbd2074ea	-0.039173998
229	0xbcf4d9e7	-0.02988906
230	0x3d17d79c	0.037070855
231	0xbc9b4f43	-0.018958693
232	0xbca4383e	-0.02004635
233	0x3d654afe	0.05597972
234	0xbb26929c	-0.0025416976
235	0x3c7cd20e	0.01543094
236	0x3c743a2b	0.014906446
237	0x38cba85e	9.711155e-05
238	0x3c914771	0.017734261
239	0x3b9616f0	0.004580371
240	0x3b17c435	0.002315772
241	0x3d76f08f	0.06028801
242	0x39b4cb54	0.00034483767
243	0x3c12ee23	0.008967909
244	0x3c629f87	0.01383198
245	0xbca605bd	-0.020266408
246	0x3b7fc2e1	0.003902607
247	0x3c046113	0.008079785
248	0xba6324c4	-0.00086648413
249	0x3cd62b67	0.026143743
250	0x3da48dea	0.080348805
251	0x3d0f3448	0.03496197
252	0xbc1f308e	-0.009716166
253	0xbc7acbbf	-0.015307366
254	0xbb9819af	-0.0046417336
255	0xbc744ac8	-0.014910407

conv3.weight f4 [128, 64, 3, 3]
0	0x3b259fcf	0.0025272255
1	0xbc5b69e0	-0.013391942
2	0xbc58d1fd	-0.013233659
3	0xbb8a637e	-0.004223286
4	0xbbf98862	-0.007615135
5	0x3b210ae2	0.0024573137
6	0xbc803dea	-0.015654523
7	0xbc2cde03	-0.010550979
8	0xbbd332dc	-0.006445272
9	0xbcb9282a	-0.02260216
10	0x3a02f550	0.0004995661
11	0xbc1a1997	-0.009405515
12	0xbcfa25aa	-0.030535538
13	0xbbf2128b	-0.0073874644
14	0xbb78b3c7	-0.0037948953
15	0xbccaa272	-0.024735663
16	0xba97022d	-0.0011521034
17	0x3bc248b3	0.0059290766
18	0xbc7c910b	-0.01541544
19	0x3a82e6a0	0.0009986944
20	0xbc4e61e4	-0.012596581
21	0xbc2d360f	-0.010571971
22	0xbbaf4163	-0.005348371
23	0x3c4e4dcd	0.012591791
24	0x3c43a72d	0.011941713
25	0xb9100254	-0.00013733777
26	0x3cd7b9f5	0.026333788
27	0x3c93e8cf	0.018055348
28	0xbbdcc823	-0.0067377253
29	0xbc9280a9	-0.017883616
30	0x3ce81ae0	0.028333127
31	0xbb5cb050	-0.0033674426
32	0xbc211c33	-0.009833383
33	0x3d127db5	0.035764415
34	0x3c3bf5d3	0.011472183
35	0xbc2e0db4	-0.010623384
36	0x3c111191	0.008854286
37	0xbd0ef855	-0.034904797
38	0xbc91102c	-0.017707907
39	0x3bbbb86f	0.0057287733
40	0xbbdb870f	-0.00669945
41	0xbc2a18a3	-0.01038185
42	0xbc8af11a	-0.01696067
43	0xbbffc227	-0.007805127
44	0xbb51d513	-0.0032017871
45	0xbce0610b	-0.027390024
46	0xbd0400a5	-0.032227177
47	0xbcbd6a2b	-0.023121914
48	0xbaf1666f	-0.0018417368
49	0xbd066bed	-0.03281777
50	0xbc23124a	-0.009953091
51	0xbc4f832e	-0.012665553
52	0xbd01adce	-0.031659894
53	0xbcaa8034	-0.020813085
54	0xbca028a0	-0.019550622
55	0xbcc2c3c7	-0.023774995
56	0xbba3f450	-0.0050034896
57	0x3beb1ceb	0.007175078
58	0xbc9a493f	-0.018833755
59	0xbd136bc6	-0.035991453
60	0xbbfc121c	-0.0076925885
61	0xbc0e947e	-0.0087023955
62	0xbcbe9922	-0.023266379
63	0xbb70ddad	-0.0036753223
64	0xbcf4ba24	-0.029873915
65	0xbb4720ea	-0.0030384609
66	0xbc382a44	-0.011240546
67	0xbc1a4eea	-0.009418229
68	0xbc4eb7b1	-0.012617038
69	0xbcc4b5ae	-0.024012413
70	0xbbbbd817	-0.005732547
71	0x3b0bb12e	0.0021315324
72	0x3b83bcde	0.0040203175
73	0xbc032e26	-0.008006608
74	0xbac6cb5a	-0.0015166805
75	0x3c8e7e93	0.01739434
76	0x3c7f54ef	0.015584215
77	0xbc9b12eb	-0.01892992
78	0x3c6deeee	0.014522297
79	0x3d03ff86	0.032226108
80	0x3c2b3e14	0.010451812
81	0x3a86aa9f	0.0010274238
82	0xbc23240f	-0.0099573275
83	0xbc99d2a8	-0.018777207
84	0x3d0fc35b	0.035098415
85	0x3c9889a5	0.018620322
86	0xbc3052cd	-0.010761929
87	0x3bea4b2a	0.0071500735
88	0xbc434386	-0.011917954
89	0xbccd45f5	-0.025057772
90	0xbbed1ccb	-0.0072360984
91	0x3b13a747	0.0022530125
92	0xba44d992	-0.0007509227
93	0xbc2cdbbd	-0.010550437
94	0xbb79a4f0	-0.0038092695
95	0x3c503fb3	0.0127105
96	0x3cf32e7e	0.029685255
97	0xbbccb058	-0.0062466078
98	0xbc75a90a	-0.014993915
99	0x3c66949b	0.014073516
100	0x3c69aae2	0.014261933
101	0x3cd1512c	0.025551401
102	0x3b93da11	0.0045120795
103	0xbc26cff5	-0.010181417
104	0x3cc227ac	0.023700558
105	0xbc008c12	-0.007845895
106	0x3c9303fa	0.017946232
107	0x3d1a25b9	0.03763363
108	0x3c0129d0	0.007883504
109	0xbab117cf	-0.0013511124
110	0x3bafcd37	0.0053650397
111	0x3c95fb63	0.018308347
112	0x3d336597	0.043798055
113	0xbaf8abc9	-0.0018972094
114	0x3c0c5040	0.008564055
115	0x3ca25fa8	0.019821003
116	0xbab2a519	-0.0013629525
117	0xbcf69132	-0.030098531
118	0x3b52dff8	0.0032176953
119	0xbad13be2	-0.0015963281
120	0x3bee5be8	0.0072741397
121	0x3c9e78f6	0.019344788
122	0x3c65c6e3	0.014024469
123	0xbc109c41	-0.008826316
124	0xbba93a7d	-0.005164443
125	0x3b59c84a	0.0033230954
126	0x3baa0b23	0.005189316
127	0xbbe85ccd	-0.007091141
128	0xbc821055	-0.015876928
129	0xbc865d37	-0.01640187
130	0xbbf1cb8d	-0.0073790015
131	0xbba0f6eb	-0.0049122474
132	0xbceae56e	-0.028673854
133	0xbc19264e	-0.009347511
134	0xbb63294b	-0.0034662064
135	0xbbc4b6c9	-0.006003235
136	0x3b018172	0.0019760993
137	0x3cdefa2b	0.027218899
138	0xbcb4c36f	-0.022065846
139	0x3c49dcee	0.01232074
140	0x3c9c2cea	0.019064385
141	0xbd17cf2c	-0.03706281
142	0x3a3b860f	0.000715346
143	0x3cd7a6c6	0.026324641
144	0xbca224dd	-0.019792968
145	0xbc7b11a6	-0.015324032
146	0x3b5e9fa4	0.0033969665
147	0xbb7de34e	-0.003874022
148	0xbc674e88	-0.014117844
149	0xbbb2f0c3	-0.00546083
150	0xbc444288	-0.011978753
151	0xbbfb3797	-0.007666539
152	0xb8bdd8ca	-9.0526024e-05
153	0xbc4b004b	-0.012390207
154	0xbc504597	-0.012711904
155	0xbb9e89b3	-0.0048381924
156	0xbb75a2d0	-0.0037481077
157	0xbc8bb4f0	-0.017054051
158	0xbc71c713	-0.014756936
159	0xbcc27be6	-0.02374072
160	0xbcab5147	-0.02091278
161	0xbcd9b9b9	-0.026577817
162	0xbca7a3f7	-0.020463927
163	0x3c085893	0.008321899
164	0x3c85d4bd	0.016336793
165	0xbc857af3	-0.016293978
166	0xbab1a863	-0.0013554211
167	0xbb6f0b7b	-0.0036475349
168	0xba136477	-0.00056225754
169	0xba186911	-0.0005813996
170	0xb9a43690	-0.0003132117
171	0x3b2eb68c	0.00266591
172	0x3c68d1e8	0.014210202
173	0xbbb2d901	-0.005457998
174	0xbbea1826	-0.007143992
175	0x3b99cda1	0.0046937023
176	0xbd03eba2	-0.03220714
177	0xbcec4a76	-0.0288441
178	0xbc67d6de	-0.014150349
179	0xbce59931	-0.028027149
180	0x3be740c4	0.007057281
181	0x3bd570b4	0.0065136794
182	0xbb069253	-0.0020533993
183	0x3a52ea11	0.0008045743
184	0xbc0107d5	-0.007875402
185	0x3b1f2ccb	0.0024288173
186	0xbb8c4c5d	-0.004281564
187	0x3bbee94d	0.0058261515
188	0x3b9cf6db	0.0047901697
189	0xbb39bac6	-0.0028340085
190	0x3c1ad718	0.009450696
191	0xbbd26dba	-0.006421772
192	0x3bf32e89	0.007421319
193	0x3ce75657	0.028239412
194	0x3c5722c9	0.013130852
195	0xbc3d400b	-0.011550914
196	0xbc09b7e4	-0.008405659
197	0x3c5369f7	0.012903682
198	0x3bbe2920	0.0058032423
199	0xbcaf18f3	-0.021374201
200	0xbc079bb6	-0.0082768705
201	0x3c5f5bf7	0.013632766
202	0xba57e096	-0.0008235065
203	0x3b007b2f	0.0019604673
204	0xbb36d976	-0.0027900613
205	0xbc0a7fc3	-0.008453312
206	0x3c6c0092	0.014404433
207	0xbb4d798c	-0.0031352965
208	0xb93fa48f	-0.00018276482
209	0xbc1adeec	-0.009452563
210	0xbc79db5a	-0.015250051
211	0xbba20675	-0.0049446174
212	0xbc8bb873	-0.017055726
213	0xbc10b312	-0.008831756
214	0xbbcd5838	-0.00626662
215	0x3b10f02c	0.002211581
216	0x3c4f1a1e	0.012640504
217	0x3c911484	0.017709978
218	0x3b7782e4	0.0037767226
219	0x3c69ed02	0.0142776985
220	0x3c94b9b8	0.018154964
221	0xbb7b6781	-0.0038361254
222	0x3c20e440	0.009820044
223	0x3b0e1eb2	0.0021685776
224	0xbcc3e411	-0.023912461
225	0x3bd3a6bd	0.0064590857
226	0xbb2ca121	-0.0026341157
227	0xbbd93b52	-0.006629386
228	0x3caa3770	0.020778388
229	0xbb9eedf1	-0.004850142
230	0x3b55be20	0.0032614544
231	0xb8e67cd1	-0.000109905035
232	0xbc1366fd	-0.008996722
233	0x3c5db7ba	0.013532573
234	0xbc9075b6	-0.017634254
235	0xbc81b888	-0.015835062
236	0x3a931626	0.0011221811
237	0xbc86b103	-0.016441828
238	0xbc39c40b	-0.011338244
239	0x3c36a836	0.011148503
240	0xbc6680b6	-0.014068773
241	0xbc2188b9	-0.009859257
242	0xbc339250	-0.010960177
243	0xbba85cd9	-0.0051380214
244	0xbbeb4a0f	-0.0071804593
245	0x3b734bf0	0.003712412
246	0xbc81ff9c	-0.015868954
247	0xbc41036b	-0.0117806
248	0x3b6e984f	0.00364067
249	0xbc581659	-0.013188922
250	0xbc55809c	-0.013031151
251	0x3b6f0be0	0.0036475584
252	0xbb6a57a9	-0.0035757816
253	0xbc975130	-0.01847133
254	0xbbec0564	-0.007202791
255	0xbc55f449	-0.01305873

fc1.weight f4 [256, 128]
0	0x40113010	2.2685585
1	0x408cb65c	4.3972607
2	0xc10ce74d	-8.80647
3	0x3f661aae	0.8988446
4	0x407d2e4a	3.9559503
5	0xc0a40bf1	-5.1264577
6	0x400534ea	2.0813546
7	0x40bd462d	5.9148164
8	0xc0884159	-4.257977
9	0xc106690f	-8.400649
10	0x4135ade9	11.354959
11	0x3f7440f6	0.9541162
12	0xc05244fc	-3.2854605
13	0xc01e19d9	-2.4703276
14	0x4069a259	3.650534
15	0x404164ed	3.021785
16	0x40716fbf	3.7724454
17	0xc125d7fd	-10.3652315
18	0x3f957b19	1.1678191
19	0xbfdeed8f	-1.7416247
20	0x40486675	3.1312535
21	0x4067baa8	3.6207676
22	0xbf767b9e	-0.96282375
23	0xc0e1e3a9	-7.0590405
24	0x414cdbeb	12.803691
25	0xc0741ddf	-3.8143232
26	0xc1317418	-11.090843
27	0xc02427f2	-2.564938
28	0x3ecf59c9	0.40498188
29	0xc06277d3	-3.5385635
30	0x4044a149	3.072344
31	0x4084d6f5	4.15124
32	0x40acf678	5.4050865
33	0xc0b2f5da	-5.592511
34	0xc163dd35	-14.241506
35	0xc1379dca	-11.476023
36	0xc0ba199d	-5.8156266
37	0x404065bb	3.0062091
38	0x40945b45	4.6361413
39	0xc0e58b39	-7.173245
40	0x40e0ef19	7.0291867
41	0xc091c816	-4.5556746
42	0x405e64a0	3.4748917
43	0x40ad8dd3	5.4235625
44	0x3f9e4e00	1.2367554
45	0xc07c217a	-3.9395432
46	0xc0b478f3	-5.6397643
47	0xc0f3fc28	-7.624531
48	0x40abf591	5.3737264
49	0x3f9a0e13	1.2035545
50	0xc01b7bee	-2.429439
51	0xc10ba9f7	-8.728995
52	0xc0be54c9	-5.9478498
53	0x3f96e951	1.1789953
54	0x3fb9f933	1.4529175
55	0xc0c5ff93	-6.187448
56	0xc1501618	-13.005394
57	0x4082f0dd	4.0919023
58	0x3fcf42a4	1.6192212
59	0xc04c45fb	-3.1917713
60	0xc11d5a6f	-9.8345785
61	0xc088419e	-4.25801
62	0x4065725c	3.585105
63	0x403a010e	2.9063144
64	0xc199f81f	-19.246153
65	0x401df82a	2.4682717
66	0xbfbb5b8f	-1.4637316
67	0x4058dcb0	3.3884697
68	0x40e57656	7.1706953
69	0xc133d042	-11.238344
70	0xbebdd5f9	-0.3707731
71	0xc18b5e4d	-17.421045
72	0xbfd15f8d	-1.6357285
73	0xc0a042b5	-5.008143
74	0xc05445d1	-3.3167613
75	0x40f892f1	7.767937
76	0xc1033a43	-8.201724
77	0x40dea6f6	6.957881
78	0xc0816507	-4.0435824
79	0x407c272e	3.9398913
80	0x404af9b5	3.171491
81	0x401647b9	2.3481276
82	0x408f0457	4.46928
83	0xc0035f4f	-2.0526922
84	0x40cd7387	6.4203525
85	0xc00d0dbb	-2.203963
86	0x4105742a	8.34086
87	0xc09d2b6f	-4.911552
88	0x3fe040f7	1.7519826
89	0x408f73ef	4.482902
90	0x3ff97c4d	1.9491059
91	0x3ecb35ea	0.3968957
92	0x40fdf93f	7.9366755
93	0x4097bd78	4.7418785
94	0x412eb106	10.918219
95	0x405a49a9	3.4107459
96	0x3ecff39e	0.40615553
97	0xc13bfc9a	-11.74917
98	0xc0eaea50	-7.3411026
99	0xbefd505f	-0.4947538
100	0xbf6493e2	-0.8928815
101	0x400ececc	2.2313719
102	0xbf6a5c0c	-0.915467
103	0x40abe38a	5.371526
104	0xbfdfd7d8	-1.7487745
105	0x4023c942	2.5591588
106	0xc0cbdd2c	-6.3707485
107	0xc02d5bea	-2.708735
108	0xc0948015	-4.640635
109	0x40bf4eec	5.978384
110	0x3ea1f932	0.31635433
111	0xc07cf820	-3.9526443
112	0xc049e1de	-3.1544108
113	0xbfeae4dd	-1.8351094
114	0x40975d51	4.730141
115	0x40e748f6	7.2276564
116	0xc0c775d0	-6.2331314
117	0xc0e2426d	-7.0706086
118	0xc0113aa9	-2.2692053
119	0x3f2311e0	0.6369915
120	0x3ff036c9	1.8766719
121	0xc12b5484	-10.708134
122	0xc0b0d216	-5.5256453
123	0x40e59a2e	7.175071
124	0x40a0b510	5.0221024
125	0x4112e18b	9.180064
126	0xc092f5b9	-4.5924954
127	0x3fa203b5	1.2657381
128	0x3fbf6f73	1.4955887
129	0xbdf04001	-0.11730958
130	0x402150cf	2.5205572
131	0x40b66344	5.6996174
132	0xbe65fdb9	-0.22460069
133	0x40ac6ee2	5.3885355
134	0xc109afa1	-8.605378
135	0xbfe825a9	-1.8136493
136	0x40d92110	6.785286
137	0xc09d3d93	-4.9137664
138	0xc116cd15	-9.425069
139	0xbf1f9519	-0.6233688
140	0xbfc5d402	-1.5455325
141	0x40da7759	6.827069
142	0xc14bd330	-12.739059
143	0xc0ce9b49	-6.4564557
144	0x4127de43	10.491763
145	0xc0c1748e	-6.045478
146	0xc012d062	-2.2939687
147	0x40890b27	4.2826114
148	0xc164ffe0	-14.3124695
149	0xc03bc23e	-2.9337306
150	0x41320171	11.125352
151	0xbf4f95f4	-0.81088185
152	0x3faca2bf	1.3487166
153	0x41353677	11.325797
154	0x416b8b26	14.721472
155	0x3f3246e4	0.6963942
156	0xc110d1a0	-9.051178
157	0x40089632	2.1341672
158	0x3f9b4f36	1.2133548
159	0x41094fb7	8.581962
160	0x410ff309	8.996835
161	0xc0f6a64f	-7.7078013
162	0xc08e8592	-4.453805
163	0xc179afa0	-15.605377
164	0xc05f991c	-3.49372
165	0xc10fd7de	-8.990202
166	0x412858b8	10.52166
167	0x40682439	3.6272109
168	0x40cabc1a	6.3354616
169	0x4094faa2	4.655595
170	0x3f65ab5c	0.897146
171	0x4143677b	12.212764
172	0xc023edee	-2.561397
173	0xc1412946	-12.0725765
174	0x4108b506	8.544195
175	0xc1136690	-9.21254
176	0xbf9c7dc0	-1.2225876
177	0x4113a6c8	9.228218
178	0xc084a1a9	-4.144734
179	0xc122045a	-10.126062
180	0x3fef1288	1.867753
181	0xbfd2d2c2	-1.6470568
182	0xc0c3e06e	-6.121146
183	0xc000b3d5	-2.010976
184	0xc14a560b	-12.646007
185	0x3fc9108e	1.5708177
186	0xc198655e	-19.049496
187	0x3fd12283	1.6338657
188	0xc0c3948c	-6.111883
189	0xc17b84af	-15.719893
190	0xc142a50b	-12.165294
191	0xc08031ff	-4.006103
192	0xc075f436	-3.8430305
193	0x41113363	9.075046
194	0x40951c24	4.659685
195	0xbf08c3d5	-0.53423816
196	0xc06462f7	-3.5685403
197	0x409f1afd	4.9720445
198	0xc0abfcb8	-5.3745995
199	0xc1365300	-11.395264
200	0x3fde0fb5	1.7348543
201	0xc0865057	-4.197307
202	0xc0193530	-2.3938713
203	0x3f8e26e0	1.1105614
204	0xc0d5040b	-6.6567435
205	0xc02831ed	-2.6280472
206	0x404e13ac	3.2199507
207	0x41259f98	10.351463
208	0xc0774a2e	-3.8639026
209	0x406a873c	3.664504
210	0x40ac4bfb	5.384275
211	0x405d89a8	3.4615269
212	0xc08d92cd	-4.42417
213	0x405baaa4	3.43229
214	0xbfa0c6b9	-1.2560645
215	0x40de9c64	6.9565907
216	0x3f17a316	0.59233224
217	0x40e564b0	7.168541
218	0x40856aa5	4.169268
219	0xc0672874	-3.611844
220	0x402f3977	2.7378824
221	0x3fc504b1	1.5392057
222	0xc092fa6c	-4.593069
223	0xc03f6d70	-2.9910545
224	0xbee8f06c	-0.45495927
225	0xc0846753	-4.137613
226	0xc0c784da	-6.234967
227	0xc10bd77c	-8.7401085
228	0x40e5ba22	7.1789713
229	0xc0b0d8f1	-5.526482
230	0x412fcc5d	10.987393
231	0x3f8690c4	1.0512929
232	0xbfe7f46a	-1.8121464
233	0x402b4554	2.6761065
234	0x40c422c6	6.129245
235	0x4150001d	13.000028
236	0x40492f7e	3.1435237
237	0x408fd034	4.4941654
238	0x417fc19e	15.98477
239	0xc0b6cf89	-5.712834
240	0xc092e603	-4.5905776
241	0xbf4f0f0d	-0.8088234
242	0x412747e2	10.4550495
243	0xc0475ea9	-3.1151526
244	0x40ab5fd1	5.3554463
245	0xc028feda	-2.640555
246	0x3ed92d43	0.42417344
247	0x3f677117	0.90406936
248	0x401e87a0	2.477028
249	0x3fd24d84	1.6429906
250	0xc0beb4ea	-5.959584
251	0xc17b5be5	-15.709935
252	0x4083aded	4.114981
253	0x40f42380	7.6293335
254	0xc08ded2b	-4.435201
255	0x40158867	2.3364503

fc2.weight f4 [46, 256]
0	0xbd1fe4a1	-0.039036397
1	0x3d1f4916	0.03888806
2	0x3ddec0d9	0.108766265
3	0x3e043087	0.12909137
4	0x3d057581	0.032582764
5	0x3d9889ae	0.07448135
6	0xbd27351d	-0.040822137
7	0x3d2ceec4	0.042219892
8	0x3d8e98ae	0.06962715
9	0x3bd8b950	0.006613888
10	0xbd6fb871	-0.058525506
11	0xbd86b589	-0.06577594
12	0x3e0b9376	0.1363047
13	0xbcbf33ac	-0.023340069
14	0x3dd9facc	0.10643539
15	0xbe12e850	-0.14346433
16	0xbe71f208	-0.23627484
17	0x3da43ecb	0.08019789
18	0xbe4faa53	-0.20279817
19	0x3d85982d	0.06523166
20	0xbdff6db4	-0.12472096
21	0x3e18f498	0.14937055
22	0xbcbc2889	-0.022968547
23	0xbdd1b968	-0.102404416
24	0x3c94f487	0.018183006
25	0x3d3ba80f	0.04581457
26	0xbd6f5c45	-0.058437604
27	0xbe228b62	-0.15873483
28	0x3c368b10	0.0111415535
29	0xbda40b83	-0.08010008
30	0xbdc6fb86	-0.09715943
31	0xbdd5f86b	-0.104477726
32	0x3caafa8f	0.020871429
33	0xbc5c0927	-0.013429916
34	0x3df65b3e	0.12029122
35	0x3c2a72c2	0.010403337
36	0xbd9be8bf	-0.07612752
37	0xbe0fae42	-0.14031318
38	0xbe9031ab	-0.28162894
39	0x3df383d5	0.11890379
40	0xbd9ce100	-0.07660103
41	0xbd6b9535	-0.05751534
42	0x3e0204f9	0.1269721
43	0xbe42dc82	-0.1902943
44	0xbdf1cdb8	-0.11806816
45	0xbdba00b9	-0.09082169
46	0xbe383521	-0.17989017
47	0xbd1b1666	-0.037863158
48	0x3dc68fcb	0.09695395
49	0x3d471ab3	0.048609447
50	0xbce2f779	-0.027705895
51	0x3e3bc890	0.18338227
52	0xbe27dfa8	-0.16393912
53	0xbdeb8047	-0.11499076
54	0xbd56186a	-0.052269377
55	0x3d4fa7da	0.050697185
56	0x3d8d066c	0.068859905
57	0xbdc0b9f0	-0.09410465
58	0xbca2e3ea	-0.019884069
59	0xbcd5e546	-0.026110303
60	0xbe40eff3	-0.18841533
61	0xbdebfc24	-0.115227014
62	0x3d0b5a11	0.03402144
63	0x3d9ad00b	0.07559212
64	0x3caf828e	0.021424558
65	0xbe3febc0	-0.18742275
66	0xbdd850c3	-0.10562279
67	0xbd896c6b	-0.06710132
68	0xbe584bd8	-0.21122682
69	0x3dc56e91	0.096402295
70	0xbc8b3992	-0.016995225
71	0xbd344db9	-0.044019435
72	0xbd3eb073	-0.046554994
73	0xbe3bde10	-0.18346429
74	0x3e2d14dc	0.16902488
75	0xbe75c4ea	-0.24000898
76	0xbe0869bd	-0.13321586
77	0xbe28bf57	-0.1647924
78	0x3d2a4088	0.041565448
79	0x3c0bb23e	0.008526383
80	0xbe6d0e08	-0.23149884
81	0xbdab599d	-0.08366702
82	0xbe1215ef	-0.1426618
83	0xbe61ccf3	-0.22050838
84	0x3e216336	0.15760502
85	0x3e1b794f	0.15182994
86	0xbdfa04d1	-0.1220795
87	0xbdba8d4d	-0.09108982
88	0xbd077251	-0.033068005
89	0xbdf845f2	-0.12122716
90	0xbd9f7190	-0.07785332
91	0xbda7828c	-0.08179197
92	0x3e6c229c	0.23060077
93	0x3c2f4183	0.010696772
94	0xbd84800e	-0.06469737
95	0xbc9ea3fe	-0.019365307
96	0xbe0562ee	-0.1302602
97	0xbe8aad0b	-0.27085146
98	0xbe1a8704	-0.15090567
99	0xbd382494	-0.04495676
100	0x3c50bfeb	0.012741069
101	0xbd2dfb2e	-0.04247587
102	0xbe2709fe	-0.16312405
103	0x3d550f74	0.05201669
104	0xbdd6192c	-0.1045402
105	0x3d01a190	0.03164822
106	0xbcb6bc43	-0.022306567
107	0xbd31295f	-0.043252345
108	0xbe15c143	-0.14624505
109	0x3da547bb	0.08070322
110	0xbc6646d8	-0.014054976
111	0x3d9ad56c	0.07560238
112	0xbc5528ee	-0.013010247
113	0x3c82147c	0.015878908
114	0x3e3892b5	0.18024714
115	0xbc648c8e	-0.0139495265
116	0xbe039059	-0.12848033
117	0xbd6ad8b1	-0.05733556
118	0xbd675148	-0.056474
119	0xbd02efbc	-0.03196691
120	0x3e19d4be	0.15022561
121	0xbdbdad3e	-0.09261559
122	0xbe674263	-0.22583918
123	0xbce66afe	-0.02812719
124	0xbdfdc52a	-0.12391122
125	0x3d84a49a	0.06476708
126	0x3c8fadfc	0.017539017
127	0xbdadfa8e	-0.08495055
128	0xbd5ff3ea	-0.054675974
129	0xbe259dc8	-0.1617347
130	0xbdb339d2	-0.08751263
131	0x3e44d192	0.1922057
132	0xbb781017	-0.0037851387
133	0x3e27465d	0.16335435
134	0xbce47b7f	-0.027890919
135	0xbe2ca9e3	-0.16861682
136	0xbcc254c5	-0.023722062
137	0x3e546bc4	0.20744234
138	0xbda20113	-0.07910361
139	0xbd97b0cd	-0.07406769
140	0xbd6bddee	-0.057584696
141	0xbdd19892	-0.102341786
142	0xbdd65305	-0.104650535
143	0xbdc719a8	-0.097216904
144	0x3e312a73	0.1730135
145	0xbe246681	-0.16054727
146	0xbdb709c3	-0.08937409
147	0x3d6b7975	0.057488877
148	0xbe3901d4	-0.18067104
149	0xbded827a	-0.11597152
150	0x3d330350	0.04370433
151	0xbd89f9d5	-0.06737105
152	0x3d99a6cb	0.07502516
153	0x3e069150	0.1314137
154	0x3ca16e42	0.019705895
155	0xbdd4c927	-0.10389929
156	0x3cb1c67f	0.021701096
157	0x3d243404	0.04008867
158	0x3e46c2e1	0.19410278
159	0x3da4d800	0.08049011
160	0xbe47dcfc	-0.19517893
161	0x3d974eac	0.07388052
162	0x3e0a2a39	0.13492669
163	0xbd1bb8af	-0.038017925
164	0xbe091c80	-0.13389778
165	0xbe5e81b3	-0.21729164
166	0xbded37ae	-0.11582886
167	0x3df81aff	0.12114524
168	0x3da39dbe	0.07989071
169	0xbdb88d11	-0.09011281
170	0xbead7832	-0.33880764
171	0xbc3d4c94	-0.011553902
172	0x3c7d145c	0.015446749
173	0x3e54511e	0.20734069
174	0x3b8efb05	0.00436342
175	0x3e1e0fee	0.15435764
176	0xbe07e2a3	-0.13270049
177	0xbd3baea9	-0.045820866
178	0x3d72106c	0.059097692
179	0x3ce26179	0.02763437
180	0xbdd1fd32	-0.10253371
181	0xbd541a35	-0.051782805
182	0x3e0ffd25	0.1406141
183	0xbdf1cddf	-0.11806845
184	0x3d87a22d	0.066227295
185	0xbd1366fc	-0.035986885
186	0x3d5e982d	0.054344345
187	0x3e30b4ca	0.17256466
188	0x3d827e7c	0.06371781
189	0xbe12406e	-0.1428239
190	0xbdd12b47	-0.102133326
191	0xbc2c06fd	-0.010499713
192	0x3d0de119	0.034638498
193	0x3db9a6fb	0.09065052
194	0x3d01129c	0.031511888
195	0x3d7c94fa	0.061665513
196	0x3e1245a5	0.1428438
197	0xbd6c5533	-0.05769844
198	0xbd965f96	-0.0734245
199	0xbde267ee	-0.11054979
200	0x3e1dd758	0.15414178
201	0xbe6e9923	-0.23300605
202	0x3e1ceed4	0.1532548
203	0xbde4d197	-0.111727886
204	0xbdbb81b8	-0.09155601
205	0xbe53205f	-0.20617817
206	0xbd76603a	-0.060150363
207	0xbd435183	-0.047685158
208	0xbe39dab3	-0.18149833
209	0xbd88bcaf	-0.066766135
210	0xbdd3806d	-0.1032723
211	0x3dbe8ee5	0.09304599
212	0x3cf08d8b	0.029364368
213	0xbe31bac8	-0.17356408
214	0x3e2eea24	0.17081505
215	0xbdffacde	-0.12484144
216	0xbe742ac6	-0.23844442
217	0xbd696b85	-0.056987304
218	0x3cbc5a02	0.022992138
219	0x3e3a79af	0.18210481
220	0xbd041a6c	-0.03225176
221	0x3da692d0	0.08133471
222	0xbdc931b3	-0.098239325
223	0xbbef14d2	-0.007296183
224	0xbdb378e0	-0.087632895
225	0x3d37351c	0.044728383
226	0xbd834531	-0.064096816
227	0xbe757b19	-0.2397274
228	0xbe5282bb	-0.20557682
229	0x3d864775	0.06556598
230	0xbe186b9f	-0.14884804
231	0x3dfe013d	0.1240258
232	0xbcce043f	-0.02514851
233	0xbe0c2d13	-0.1368907
234	0x3cd9fa3b	0.026608577
235	0x3aed8c4b	0.0018123476
236	0xbe371672	-0.17879656
237	0x3c060faa	0.008182446
238	0xbdb5422c	-0.08850512
239	0x3e0b0533	0.13576202
240	0x3d6968d9	0.056984756
241	0x3dda900d	0.10672007
242	0xbdbb1467	-0.09134751
243	0xbd5322de	-0.051546924
244	0x3dd89090	0.10574448
245	0x3df5593b	0.1197991
246	0xbd96d3dc	-0.07364628
247	0xbe441b54	-0.1915105
248	0x3dba19d5	0.09086958
249	0x3e12b016	0.14324984
250	0x3de77df5	0.11303321
251	0x3e40a467	0.18812715
252	0xbe19bf82	-0.1501446
253	0x3ce437a5	0.027858565
254	0x3e0f0a30	0.1396873
255	0xbc9b675c	-0.018970184
