onnx_model/hiragana.onnx (onnx, 564196 bytes, 10 tensors)

conv1.weight f4 [32, 3, 3, 3]
000000 73 2b 88 bf c6 62 f2 3c 7b 05 ec 3e 61 f3 a0 be
       -1.063826 0.029588114 0.4609793 -0.31435683
000010 2a d9 2e bf fe ae 3f 3e 73 f1 54 bf 77 92 1b c0
       -0.68300116 0.18719098 -0.8318092 -2.4308145
000020 e9 7d de bf cf f5 3a 3f d5 fa 7b 3f 1e 5d 86 3f
       -1.7382175 0.73031324 0.98429614 1.0497167
000030 e8 7c a5 3f 3b 87 90 3f 93 62 c1 3f 3e 12 5d 3d
       1.2928743 1.1291269 1.5108207 0.053972475
000040 e9 09 e6 bf 6d 0e 10 3f c0 37 c6 bf 00 f4 8b 3f
       -1.7971774 0.5627201 -1.5485764 1.0933838
000050 0f 43 6f bf 77 96 c5 3e 0f 94 ed 3f 33 5e 6a 3f
       -0.934617 0.38591358 1.8560809 0.91549987
000060 19 85 9e 3f c5 34 33 bf 2c 33 d1 bf 6b 7c e0 bf
       1.2384368 -0.70002395 -1.6343741 -1.7537969
000070 14 43 80 3f 4c bb 07 be 89 bb 0b bf e8 33 f8 3e
       1.0020471 -0.13255042 -0.5458303 0.484771
000080 5a 43 5e 3f d1 97 c6 bf 95 7a c7 3e d7 06 ba be
       0.8682152 -1.5515081 0.3896071 -0.36333343
000090 70 b1 50 bf 8e 24 8d bf c8 b7 7b 3f b1 7e 97 3e
       -0.8152075 -1.1026781 0.983273 0.29588845
0000a0 cb 2f 87 3e 9b e1 4c 3f f8 6a 71 3f ad 5a 23 3e
       0.2640365 0.80031747 0.94303846 0.15952559
0000b0 a4 7c 0e 3f a2 e6 43 3f dd 40 d2 bf e8 d6 88 3e
       0.55658937 0.7652379 -1.6426045 0.2672646
0000c0 cb 09 4c bf 07 5c 9a bf b8 d6 83 be ec 76 82 bf
       -0.7970244 -1.2059335 -0.25749755 -1.0192542
0000d0 98 01 62 bf 81 09 03 40 d1 7a c4 3e f4 fb cc be
       -0.8828368 2.047455 0.3837495 -0.40035975
0000e0 c5 73 9e bf 47 78 4e 3f 00 4f a3 bf f3 09 73 bf
       -1.237908 0.8065228 -1.2758484 -0.94937056
0000f0 d8 b5 b1 3e 95 d7 1a 3f af a8 3c bf f7 b8 9e 3f
       0.34709048 0.604852 -0.7369489 1.2400197
000100 83 48 ca 3f 90 a1 ea bf ad 91 db 3f a3 a6 41 3f
       1.5803379 -1.8330555 1.7153832 0.7564489
000110 ed bf 42 bf 87 c4 d5 3f 7b 95 6d bf cc 24 b2 3e
       -0.76074106 1.67006 -0.92806214 0.347937
000120 89 ec 87 be 52 fe bb bf a8 c8 93 3f cb ea 6e bd
       -0.2654765 -1.4686987 1.154561 -0.058329385
000130 22 f4 0e 3f 14 a5 95 bf 96 35 b8 3f 7d f9 38 be
       0.5584127 -1.1691003 1.4391353 -0.18063922
000140 59 bb e0 bf 73 bd 73 bd 82 0d 3d bf a2 4a ed bd
       -1.7557174 -0.059506845 -0.73848736 -0.11586501
000150 23 6c 80 be 2b 46 3f 3e 56 6c ab be f4 80 6a 3c
       -0.25082502 0.1867911 -0.3348109 0.014312971
000160 55 09 e9 bd 3d 48 1f be a4 0b 81 be 94 1b 11 bf
       -0.11378733 -0.155549 -0.25204194 -0.56682706
000170 ba 2a 11 bf b7 10 33 be 88 cf 55 be 81 19 7f 3e
       -0.5670582 -0.17486845 -0.20879948 0.24912073
000180 9d e2 c5 3c eb 1a 6d 3d d4 aa ba 3e ca 81 b5 be
       0.02415591 0.057887 0.36458457 -0.35450584
000190 29 e1 bf be ef e0 1b bf e5 91 c0 3e 93 2e 34 ba
       -0.3747647 -0.60890096 0.3761131 -0.0006873395
0001a0 7c e8 e0 be 79 8f cc bd 2e 11 5f 3e 1a a1 91 3e
       -0.43927372 -0.09988303 0.21783897 0.28443223
0001b0 03 2e 09 c0 16 02 0d c0 43 85 e0 bf 60 fe 2f bf
       -2.1434333 -2.2032523 -1.7540668 -0.6874752
0001c0 1e 1e 55 bf be 57 8a bf 1c 97 81 bf d5 29 bc 3f
       -0.8324908 -1.0808027 -1.012424 1.4700266
0001d0 a7 9c d9 3f 7d 83 82 3d 4d df b8 3f 76 d6 c7 3d
       1.7000932 0.06372736 1.4443146 0.09757702
0001e0 e6 48 98 3e 52 3b f0 3d 26 04 a4 bf ef 2b 4c 3f
       0.29743117 0.117300645 -1.2813766 0.7975454
0001f0 f0 64 f4 3f 04 cb d3 3f 77 c4 3a 3f df 80 3f 3d
       1.9093304 1.654633 0.7295603 0.04675376
000200 8f dc 71 bf 8e b3 3f bf 24 fd 33 bf d3 aa 34 3f
       -0.9447717 -0.74883354 -0.70308137 0.7057316
000210 7c 0e 84 3f 11 14 a6 bf ec 95 0b 3f 03 60 95 bf
       1.031692 -1.2974874 0.5452564 -1.1669925
000220 c6 ea d0 3e b5 c7 84 3e 3c 03 2a 3e a4 c8 fb 3e
       0.40804118 0.25933614 0.16602796 0.49176514
000230 64 75 77 bf 94 22 7f bf e0 d0 c1 be d9 8e 94 3f
       -0.966635 -0.9966214 -0.3785467 1.1606094
000240 48 01 84 bf 87 60 7b 3e 33 78 91 3e 00 c2 af be
       -1.0312891 0.24548541 0.28412017 -0.34327698
000250 1e 50 7b 3e bf 25 e9 3f dd a0 98 3f f7 ec 84 3f
       0.24542281 1.8214644 1.1924092 1.0384816
000260 5f b6 cb 3e 81 e6 a4 bf 4d c7 79 bf 06 d1 1c bf
       0.39787576 -1.2882844 -0.97569734 -0.61256444
000270 79 fe e4 be 95 b6 a5 be 8e af 46 3e cc 35 9f bf
       -0.44725397 -0.32365862 0.19402906 -1.2438293
000280 d7 4f 0c be 80 1f 71 3f 81 65 aa bf 3e 71 72 3f
       -0.13702331 0.9418869 -1.3312227 0.94704044
000290 90 e6 94 3f 01 30 7d be 9c d4 5c 3e b0 ff 9e 3f
       1.1632862 -0.24725343 0.21565479 1.242178
0002a0 12 11 88 3e 78 c8 aa be 07 38 8a bc c4 4f 66 3f
       0.26575524 -0.3335607 -0.016872419 0.8996546
0002b0 72 f6 6e 3d 98 2f 94 3f 02 8d b3 3d e8 6e f7 3e
       0.058340497 1.1577024 0.087671295 0.48326802
0002c0 6e 0b a2 3e 57 2e de bf 9f c8 84 bf 71 f0 54 bf
       0.31649345 -1.7357892 -1.0373725 -0.83179384
0002d0 e4 3b 58 3f 62 22 b1 bd 3b 39 82 3f 98 50 95 bf
       0.84466386 -0.08649136 1.0173715 -1.166522
0002e0 bf 61 ad bf 25 9d 56 be 48 2d 0e bf 6a 7f f7 be
       -1.3545455 -0.20958383 -0.55537844 -0.48339397
0002f0 2c e1 2a 3f 91 3a a1 3f 02 c1 ce 3f 8d 06 ac 3e
       0.66749835 1.2595998 1.6152651 0.33598748
000300 e9 59 9d bf 0e 50 ce 3f fc 29 fa 3f 1f 06 a8 bf
       -1.2293063 1.6118181 1.9544063 -1.3126868
000310 bc 45 ea bd 18 60 d3 3f 9d a3 d1 bf 95 48 80 bf
       -0.11439082 1.65137 -1.6378056 -1.002215
000320 da 3e 8c 3f a0 ea eb be cc c7 0f bf da 7a 57 bf
       1.0956681 -0.46077442 -0.5616424 -0.8417183
000330 02 e4 82 bf b1 31 43 bf 30 d3 b0 be e5 d8 ab 3f
       -1.0225832 -0.762477 -0.34536123 1.3425566
000340 15 41 af bf 8f fb 7a 3f 96 b2 ad bf 5a e5 be bf
       -1.3691736 0.980401 -1.3570125 -1.4913743
000350 e0 f4 62 3f 9f 25 3b 3e cd 25 1e 3f aa 17 89 3f
       0.886549 0.1827607 0.6177643 1.0710347
000360 67 33 09 bf ef 3c 04 3f f6 05 a8 bf a4 62 de bf
       -0.5359406 0.5165548 -1.3126819 -1.7373853
000370 3c e6 f7 bc 32 0a 36 3f 01 01 27 40 d8 1a d3 bf
       -0.030261151 0.71109307 2.6094363 -1.6492567
000380 03 e1 ea bf 05 cc 5d 3d cb f5 01 3f 33 6b 8f 3e
       -1.8349918 0.054149646 0.50765675 0.28011474
000390 a0 27 54 3f 7a 18 13 40 b0 fe 0d 40 24 f7 c1 bf
       0.8287296 2.298369 2.21867 -1.5153546
0003a0 77 2a e0 3e a2 73 86 bf 92 4b bf bf be 7f 1b c0
       0.43782398 -1.0504038 -1.4944937 -2.4296718
0003b0 68 22 37 bf 51 69 82 bf 5b 31 3b 40 dc 28 a4 bf
       -0.71536875 -1.018839 2.9248874 -1.2824969
0003c0 99 77 00 40 40 a8 b0 3e f2 f1 ee bf f2 31 94 3e
       2.0072997 0.34503365 -1.8667586 0.28944355
0003d0 c7 a0 e2 3e 4c 09 6b 3d de 3f a0 3f 3a 3d d4 bf
       0.44263288 0.057381913 1.2519491 -1.6581185
0003e0 d4 67 64 be c3 78 af 3e f1 19 25 bf fa bf 85 be
       -0.22305232 0.3427182 -0.6449271 -0.2612303
0003f0 c6 6f a7 3f 44 e8 a3 bf e1 ce b4 be bd 84 01 3f
       1.3080986 -1.2805257 -0.35314086 0.5059317

conv1.bias f4 [32]
000000 ef 8d 1a be 92 df 52 3e f6 09 e2 bd b4 a4 0e 3f
       -0.15093206 0.20593098 -0.11037056 0.5572007
000010 98 95 b7 3e 48 e3 ea 3c b8 75 8a be a8 e6 1d be
       0.35856318 0.02867283 -0.27042937 -0.1542002
000020 1e 77 56 3f 26 c8 80 3e 7a 10 44 bf 82 ec f7 bc
       0.8377551 0.251527 -0.7658764 -0.030264143
000030 58 1b 69 bf c3 05 6e bf 97 be 3a bf 3c f3 87 be
       -0.9105735 -0.9297754 -0.7294707 -0.2655276
000040 07 5f f9 3e db 3b 06 3f f7 29 8b bf dd c1 19 bf
       0.48705313 0.5243508 -1.0872182 -0.60061437
000050 0f 75 4d bd f3 78 26 bf 81 de ea be 5b 06 19 bf
       -0.050160464 -0.65028304 -0.45872882 -0.5977532
000060 d6 dc 1e bf 0f a5 32 bd 7a 1d 93 bf 86 5a b3 3e
       -0.6205572 -0.043614443 -1.149337 0.3503
000070 cb 2a 34 be ec 8b 6c bd aa 76 1e 3e 4c 42 14 be
       -0.17594449 -0.057750627 0.15474954 -0.14478415

conv2.bias f4 [64]
000000 92 d0 65 3f fd 08 17 3f f0 53 da be 3c 68 17 3f
       0.8977138 0.5899809 -0.42642164 0.59143424
000010 c5 e1 ae be 61 0d 95 3e ed bb 59 3f 6b cd 51 3f
       -0.34156623 0.2911177 0.85052377 0.8195407
000020 e3 fb 26 3f b0 68 95 3e f0 e9 6d bf e8 a5 e8 3e
       0.652281 0.29181433 -0.92935085 0.45439076
000030 a8 83 ef 3d 3e 53 4c bf dc 8d 0d bf 98 44 dd 3e
       0.11695033 -0.7981452 -0.55294585 0.43216395
000040 f9 6d cc 3e 0d d9 18 bf ae 76 d8 3e 39 5b d2 3e
       0.39927652 -0.59706193 0.42278045 0.41085222
000050 9a 49 27 3f 28 57 1b be 47 b0 23 3f 78 b3 04 3f
       0.6534668 -0.15169966 0.6394085 0.5183635
000060 37 34 0a 3f 3f 4b 65 3e 8f 1b ea be 40 6b ea bb
       0.53985924 0.22391985 -0.4572415 -0.0071538985
000070 63 2a 94 3f 88 98 5e 3f 1d 5d b1 3e 0e e3 81 be
       1.1575435 0.86951494 0.34641352 -0.2536854
000080 4d 9e 88 bf f5 da 40 be f7 ea 36 3f 50 a5 26 3f
       -1.067331 -0.18833525 0.7145228 0.65095997
000090 8f e3 1a 3f b2 54 ff be 83 18 04 bf 63 06 34 3f
       0.60503477 -0.49869305 -0.515999 0.70322245
0000a0 e0 e2 6e 3d 60 26 68 3e e8 2c 4b bf 00 1d db 3e
       0.058321834 0.22670889 -0.79365396 0.42795563
0000b0 72 75 27 3f c3 6c f2 3e 31 43 bf 3e c1 75 9a 3e
       0.6541358 0.47348604 0.3735595 0.30167964
0000c0 50 0c 1f 3f 4b 41 e7 3e 45 16 f8 3e 0c 0b d2 3e
       0.6212816 0.45167002 0.4845449 0.41024053
0000d0 c2 0e 8b 3e a2 a7 0b 3f dc 00 07 3f af be 10 3f
       0.27159697 0.5455266 0.52735686 0.5654096
0000e0 a9 53 db be 4e c3 e7 3e 98 3e ea bd a3 1e 44 3f
       -0.42837265 0.45266193 -0.1143772 0.7660925
0000f0 c2 87 0b bf ec f3 f5 3e 8e 4c 1f 3f 1c 08 8b 3d
       -0.54504025 0.4803766 0.6222619 0.06788656

conv3.bias f4 [128]
000000 80 bd b8 bc 10 79 01 bd 6c d3 25 be e3 82 8e be
       -0.022551298 -0.031609595 -0.16193932 -0.27834234
000010 10 b7 52 bd 80 f4 8a 3d 84 a1 6c be c6 d1 6a be
       -0.051444113 0.06784916 -0.23108488 -0.22931585
000020 e8 ac 97 3d 30 4a 2e 3d b7 b5 c1 be 60 1e e5 bd
       0.07406026 0.04255122 -0.3783395 -0.11187434
000030 f8 ab fa bd b8 51 ae 3e 40 af bc bc a0 87 d0 bd
       -0.12239832 0.3404672 -0.023032784 -0.101821184
000040 c0 05 f7 bb 80 3f 3c bd 98 48 55 be dc 10 64 be
       -0.0075385273 -0.045958996 -0.20828474 -0.22272056
000050 e0 50 66 be 00 02 7f 3c 28 62 f8 bd e0 36 dc bc
       -0.22491789 0.015564442 -0.12128097 -0.026881635
000060 94 3d 5b be d0 d6 ea bd 4a c7 66 be 3a 07 99 be
       -0.21410209 -0.114667535 -0.2253696 -0.29888326
000070 d0 40 96 bd b0 04 56 bd e0 a8 29 be 14 eb 39 be
       -0.07336581 -0.052250564 -0.16568327 -0.18156081
000080 40 51 9c 3c 60 0f 39 bd 9a 4f 06 be 00 1d 48 3c
       0.019081712 -0.04518068 -0.13116303 0.012213945
000090 3e 0d 48 be 68 2d 8b bd f6 22 18 be d0 c9 a9 3d
       -0.19536301 -0.0679577 -0.14857087 0.08290446
0000a0 18 f9 92 bd d0 d8 41 3d 1a 49 4b be c0 e3 a7 bd
       -0.07176417 0.04732591 -0.19852105 -0.08197737
0000b0 4e d2 34 be f0 e5 1c be b8 3d 8b bd e8 76 c5 3d
       -0.1765835 -0.15322089 -0.06798881 0.0964182
0000c0 38 9c 0b be e8 e7 49 3e 10 d0 63 bd 28 4d a9 bd
       -0.13633811 0.19717371 -0.055618346 -0.082666695
0000d0 78 f1 aa bd e0 5a 01 bd 68 05 51 be 00 e3 b2 bc
       -0.08346838 -0.031580806 -0.20412219 -0.021836758
0000e0 c0 8f 3e 3c 38 9e 44 3e 00 99 e8 bc e0 42 be 3d
       0.011630952 0.1920098 -0.028393269 0.09290099
0000f0 70 03 46 be b0 6f 0d 3d 90 3c 3e 3d 80 29 68 bd
       -0.19337249 0.03453034 0.046444476 -0.056680202
000100 34 ac 1b be 88 6d 9d bd 40 68 6f 3c 74 94 5e be
       -0.15202409 -0.07686907 0.0146122575 -0.21736318
000110 68 04 e6 bd b4 59 15 be 60 81 11 bd 00 85 dd 3c
       -0.11231309 -0.14585 -0.035523772 0.027040958
000120 58 cf f0 bd e0 cb b3 3d e6 79 9b be 40 4a 14 bc
       -0.11758298 0.087791204 -0.3036644 -0.009050906
000130 a0 a4 c7 bc 68 f2 e4 3d c1 9d ac be 10 d2 c6 bd
       -0.024370492 0.11179048 -0.33714107 -0.09708035
000140 60 72 b7 3d 98 04 64 be 60 4c fe bc 80 2e ce 3b
       0.08957362 -0.22267377 -0.031042278 0.0062921643
000150 10 74 03 be 18 cc 4c 3e f0 81 c5 bd 18 95 83 bd
       -0.12837243 0.1999973 -0.09643924 -0.06424922
000160 88 ea a1 bd 40 e9 bb 3c 50 50 0d 3d 70 ae 97 bd
       -0.079060614 0.02293837 0.03450042 -0.07406318
000170 ba f5 6e be cd 5a 86 be 68 cf 0d be 2c fc 3c be
       -0.23335925 -0.2624115 -0.1384865 -0.18455571
000180 60 da 4e bd b0 e1 3a bd 99 aa 83 be 46 d2 30 be
       -0.050501227 -0.04562539 -0.25716093 -0.17267713
000190 40 8f 52 bc 20 85 1a 3e 20 b8 c7 bd 98 c5 e0 bd
       -0.012851536 0.15089846 -0.09751916 -0.10975188
0001a0 5f da b1 be 80 fb ce bd 30 eb 8c bd 83 84 95 be
       -0.34736916 -0.101065636 -0.06880796 -0.2920266
0001b0 30 f8 46 3d 3e 60 49 be 60 b5 0e bd 48 d4 e5 bd
       0.048576534 -0.1966562 -0.03484094 -0.1122213
0001c0 e0 1b 70 3d dc e7 35 3e 76 ea 86 be c8 62 ee bd
       0.058620334 0.17764229 -0.26350754 -0.11639935
0001d0 88 d7 ae 3d f0 94 2b bd 00 ac 22 be 00 51 53 bd
       0.08537203 -0.041890085 -0.15885925 -0.05159092
0001e0 20 3b 21 3d 70 0e 1a 3d 38 1c 18 be 50 77 8c 3d
       0.039363027 0.037611425 -0.14854515 0.068586946
0001f0 b4 df ec bd e8 e3 ed bd 70 e1 59 bd c0 8f 10 3d
       -0.115661055 -0.11615735 -0.05319351 0.03529334

fc1.bias f4 [256]
000000 bf 1c 7f 3f 35 31 83 bf 7c 66 06 3e 57 b8 0d 3e
       0.9965324 -1.0249392 0.13125032 0.13839851
000010 c5 b6 0f 40 76 78 13 3e 87 7d 3e 3f 6a a9 fc 3f
       2.2455304 0.14401421 0.7441029 1.9739201
000020 f4 b4 09 bf 91 b3 33 40 5b 44 c7 3f 89 48 80 3d
       -0.5379174 2.8078349 1.5567735 0.06263835
000030 ca 91 bd 3f e5 2d a5 bf b9 91 67 bf 1c f4 ae 3e
       1.4810116 -1.2904631 -0.9045673 0.34170616
000040 d4 2f 0c 40 6a e3 80 3e 5c 99 1a 40 55 06 aa 3e
       2.1904192 0.25173503 2.4156103 0.33207956
000050 13 ef 06 3f b3 fb af 3e 30 68 03 bd 74 ec a8 3f
       0.5270855 0.3437172 -0.032081783 1.319716
000060 ce 08 04 40 30 3e 06 40 42 8b c0 3f 9f 58 31 40
       2.0630374 2.0975456 1.5042498 2.771034
000070 32 59 46 3f 93 a9 a4 3f 6c 37 f9 3f 43 81 8b 3e
       0.7747985 1.286425 1.9470038 0.27247056
000080 08 dc bb 3f d0 8c d2 be 86 50 6e 3f 06 68 72 3f
       1.4676523 -0.41123056 0.9309162 0.9468998
000090 26 45 bd 3f 66 f1 87 3e 94 a5 2f 40 f1 ed f4 3f
       1.4786727 0.2655136 2.744481 1.9135114
0000a0 40 3e 01 3c ad b8 0f 40 8c 30 f8 3f 8c ee 3e 3f
       0.007888377 2.2456467 1.9389815 0.74582744
0000b0 68 b4 05 40 e9 8c c8 3f ab 52 13 3e f2 cb 57 3f
       2.0891361 1.5668002 0.14387004 0.8429557
0000c0 d8 c1 49 c0 8f d2 a3 3f ce 79 bd 3f b5 ea 37 40
       -3.1524563 1.2798632 1.4802797 2.8737004
0000d0 b8 56 fc 3f 11 7e e2 3f fe 95 aa 3f df 3c cc bf
       1.9713964 1.7694722 1.3327024 -1.5956076
0000e0 28 28 ee 3f d4 30 24 40 70 d9 42 bf f1 98 2f c0
       1.8606005 2.5654802 -0.76113033 -2.7437098
0000f0 26 fb e4 3d e5 12 a4 3f 3e 33 c4 3f 7b e2 02 c0
       0.11180715 1.2818266 1.5328138 -2.0450733
000100 0e ab d2 3f e4 46 ad bf 1e e9 bf 3f 9b 48 e8 3e
       1.6458452 -1.3537259 1.4993017 0.45367894
000110 25 01 20 3f 60 fc f7 be 34 ae 2f 3f 46 24 18 3f
       0.62501746 -0.48434734 0.6862519 0.5943035
000120 66 6b 17 40 5c 35 b0 bf 47 df 93 3f 29 99 83 3e
       2.36593 -1.3766284 1.1552514 0.2570279
000130 c7 1e 9d be d0 64 17 40 86 3e 4e be 72 79 00 40
       -0.30687544 2.365528 -0.20141038 2.0074124
000140 40 41 ee bf 8c da 36 3f cf a3 82 bf d3 f4 bd 3e
       -1.8613663 0.71427226 -1.020624 0.3710085
000150 37 83 02 c0 d5 8c b7 bf e8 d5 fa 3f 1e 50 56 40
       -2.0392587 -1.4339854 1.9596529 3.34864
000160 7a d5 b1 3f 00 a6 f4 ba 90 c0 2e 40 cf c8 02 3f
       1.3893273 -0.0018665195 2.730503 0.5108766
000170 4a 27 df 3f f9 64 26 be 1e 7a 03 40 ee 7a 28 3f
       1.7433865 -0.16249456 2.0543284 0.65812576
000180 c5 25 8a bf 9c b5 66 3e 3a 42 56 3f 38 5b bc 3f
       -1.0792776 0.22530216 0.83694804 1.4715338
000190 a4 a2 88 3e 21 b7 e6 3e 5a d6 ca 3f 19 e4 33 3f
       0.26686585 0.4506159 1.5846665 0.70269924
0001a0 dc 12 20 40 6e 3a 92 3f b9 b3 fb 3f c9 f7 94 3f
       2.501151 1.1424081 1.9664222 1.1638118
0001b0 a9 37 b8 bf ee 84 86 3f ab 0e fe 3f 80 c4 da be
       -1.4391986 1.0509317 1.9848226 -0.42728043
0001c0 d6 2c 44 c0 45 a1 be 3e e6 53 cb bf 38 ba 87 3d
       -3.0652366 0.37232414 -1.5884979 0.06627315
0001d0 bc e5 2c 40 50 3b 11 40 05 1f 26 3f 95 9f 53 3e
       2.7015219 2.2692451 0.6489108 0.20666344
0001e0 95 d8 42 3f 89 ab 92 3f 06 ab 0b bf 7c ef 59 3f
       0.7611173 1.1458598 -0.54557836 0.8513105
0001f0 f2 68 b3 3f d8 e5 a4 3f b7 3c f0 3f 01 07 55 3f
       1.4016402 1.2882643 1.8768529 0.8321381
000200 99 8b ea 3f 0e 8a d5 3f ae 10 db 3f 16 32 03 40
       1.8323852 1.6682756 1.7114465 2.049932
000210 f7 6a e1 3f a4 ba f1 3e 63 76 06 40 e3 bb 1c 3f
       1.7610768 0.47212708 2.1009758 0.6122419
000220 78 3f ae 3f c9 35 d7 bf 12 35 18 3f e6 86 1b 40
       1.3613119 -1.6813289 0.5945598 2.4301085
000230 f9 e0 c3 3f f5 fe 01 3f 90 2b ca 3e 2e 43 8e bd
       1.5303031 0.5077966 0.3948636 -0.06946407
000240 9d b0 f6 bf b8 28 c3 3f 1c 11 f8 bd 84 b5 02 3f
       -1.9272648 1.5246801 -0.12112638 0.5105822
000250 23 31 bb 3f 0e da 09 be 44 4f ab 3f d2 33 45 3f
       1.462437 -0.13462088 1.3383565 0.77032197
000260 52 9f 31 40 92 b3 52 3f 0b e8 71 bf d1 ad e6 3f
       2.7753491 0.8230525 -0.94494694 1.8021795
000270 06 87 71 3f a8 13 08 40 4c 08 85 3e 6c d7 63 3f
       0.94346654 2.1261997 0.25982893 0.8900058
000280 d2 ff 31 3f 6c 0f bd 3f b2 c7 67 3f 5b 4b 29 40
       0.69530976 1.4770331 0.90539086 2.6452243
000290 ad 68 de 3e ca a1 ea 3f 6e c8 c8 3e c0 d6 f9 3f
       0.43439236 1.8330624 0.39215416 1.9518661
0002a0 74 c9 4f c0 35 1c 11 40 e8 fa 55 3f 14 13 b2 3f
       -3.2466707 2.2673466 0.8358598 1.3912072
0002b0 20 e3 7c 3f 92 88 38 3f 40 56 f6 3b 78 3b 0c 40
       0.98784065 0.7208339 0.007517606 2.1911297
0002c0 7e 67 9b 3f 14 03 2a be cc 93 14 40 d7 a2 29 40
       1.2140958 -0.16602737 2.3215208 2.650564
0002d0 8e 50 58 3f e0 14 1f 3c f1 8e 40 3f 09 52 14 3f
       0.84497917 0.009709567 0.7521811 0.57937676
0002e0 73 63 bb 3f 44 e1 24 40 bb 39 9e 3f 4a 28 af 3f
       1.4639724 2.5762491 1.2361368 1.368417
0002f0 97 97 05 40 c9 93 07 40 90 6d 40 bd ce 62 b2 3f
       2.0873773 2.118395 -0.046979487 1.3936403
000300 c2 2b 3b bf 24 c4 7c be 4d 0a b5 3e 9c 3b f8 3f
       -0.73113644 -0.24684197 0.3535942 1.9393191
000310 b8 83 7d 3d 88 de c9 3c 48 5f 71 3f c0 7f 31 3f
       0.061893195 0.024642244 0.9428601 0.69335556
000320 2a 38 29 40 8a 21 49 3f 9a 4f 18 3e a8 77 2f bf
       2.644053 0.785668 0.14874116 -0.68541956
000330 8e c3 b9 3f 58 ba 4d 40 e0 ed 28 bf 68 08 ee bc
       1.4512804 3.2144985 -0.6598797 -0.029056743
000340 f9 76 e7 bf 18 e0 15 40 ae 12 2e 3f b3 37 de bf
       -1.8083183 2.3418026 0.6799725 -1.7360748
000350 78 ef dd be 3f 94 98 3f e0 e9 b8 3f 70 ff 86 bf
       -0.43346763 1.1920241 1.4446373 -1.0546703
000360 b7 76 00 40 d0 44 6b 3f 92 81 36 bf 29 7b 10 40
       2.0072458 0.91901875 -0.7129146 2.257517
000370 f3 77 3c 3f 18 33 0b 40 5e 74 1a 40 28 fa 07 3f
       0.7362053 2.1749935 2.4133525 0.53116083
000380 59 cf 5f 3e 0c 4f 0c 3f ed 3c 29 be 5a 60 20 3f
       0.2185644 0.54808116 -0.16527148 0.6264702
000390 70 7c b6 be 10 9b 16 40 7e 1d 08 3f 02 8a c1 3d
       -0.35641813 2.3532143 0.5317 0.09450151
0003a0 60 93 28 3f 1a b1 00 40 a0 b6 92 bf 45 b5 e3 3f
       0.65849876 2.0108094 -1.1461983 1.7789694
0003b0 cc 8c 2b 3f e2 48 bb 3e 20 7e d8 3d 48 3f 91 3f
       0.67011714 0.36579043 0.105709314 1.1347437
0003c0 00 1d 92 bb 00 92 30 3c 48 20 8e 3f 1a 1d d5 be
       -0.0044590235 0.010776997 1.1103601 -0.41623765
0003d0 e1 f2 22 bf 58 98 b2 be 89 73 c6 3f 12 1f a1 3f
       -0.63651854 -0.34881854 1.5504009 1.2587607
0003e0 ba 94 16 40 5e 65 c8 3f ed 4c af be 88 58 31 3f
       2.3528275 1.5655935 -0.34238377 0.6927571
0003f0 ef bd 83 bf ca 69 b0 3d 25 75 99 bf 8c 9a d1 3f
       -1.0292338 0.08613928 -1.1988875 1.6375289

fc2.bias f4 [46]
000000 e6 66 0b 3d 19 bc 9b bd bc 15 4c bd 1e 02 56 bd
       0.03403368 -0.07604236 -0.049825415 -0.052248113
000010 70 1b 97 3d c5 88 8e bd c6 84 a2 bd 05 27 51 bd
       0.0737828 -0.069596805 -0.07935481 -0.051062603
000020 30 9a b0 ba 81 da 0c be c0 d2 91 3b fa 33 06 be
       -0.0013473686 -0.13755228 0.004450172 -0.13105765
000030 d3 52 45 3c b2 e2 6b 3d ae 48 71 bc 58 92 08 3d
       0.012043673 0.05758924 -0.014726801 0.03334269
000040 00 8d 83 3d a2 42 b1 bc a9 f4 57 3c 34 d1 eb bc
       0.06423378 -0.021638218 0.01318089 -0.02878628
000050 38 0a 9e 3c 22 4c c5 3c a3 a6 85 bd ec 19 37 3d
       0.019291982 0.024084155 -0.06525924 0.044702455
000060 9d f0 99 3d db 9d 87 3d a3 31 ec 3d fe 9a a1 3d
       0.075165965 0.066219054 0.11532905 0.078908905
000070 c6 9b 3b 3a 6b 61 42 3d b4 48 b4 bd 30 19 19 3d
       0.0007156696 0.047456186 -0.088029295 0.037377536
000080 54 3c 01 3e 56 9f 02 3d d7 10 13 bd 9e a9 c7 3d
       0.1262067 0.031890236 -0.03590473 0.09749149
000090 73 32 fc bd cb 83 4e 3d 6b b5 1a 3d b9 d8 d7 bd
       -0.1231431 0.050418656 0.03777067 -0.105393834
0000a0 3d 46 28 3c 57 7e 9f 3c a1 97 3c 3d c8 21 ba 3c
       0.010270652 0.019469423 0.046043042 0.022721186
0000b0 f5 ee 45 bd b4 63 8c bd
       -0.04832359 -0.06854954

conv2.weight f4 [64, 32, 3, 3]
000000 11 08 c7 bb 4f 67 a6 3a a0 96 20 bc 28 77 ca bc
       -0.0060739596 0.0012695583 -0.009801537 -0.024715021
000010 96 d6 4e 3c 6c 8d 84 3d fa 41 2b bd ad b9 9f 3c
       0.012624403 0.064722866 -0.041810967 0.019497717
000020 3f 34 43 3c aa 71 2e ba 44 be 04 bd 8a 2a dd 3c
       0.011914312 -0.00066545105 -0.032408014 0.026997823
000030 8e c3 3f 3c a7 06 5e bb 76 7a 11 bd 57 e0 de bc
       0.011704339 -0.0033878477 -0.03551718 -0.027206583
000040 8b cd d7 bc b5 13 7d bd ed 5a 60 bd 8b 5b 61 3d
       -0.026343128 -0.061786372 -0.054774214 0.055018943
000050 f1 6b e5 bc 4f 75 40 bc c4 8a f9 3c bc c6 ce bd
       -0.028005572 -0.011746719 0.030461676 -0.10096499
000060 cc ba cd bd c3 a8 24 bb dd 81 c5 bc 3d 42 35 bb
       -0.10045394 -0.0025125004 -0.024109775 -0.002765789
000070 72 c3 2d 3c 18 3e 76 bc b6 b9 63 ba 5a 64 47 bc
       0.01060568 -0.015029453 -0.0008687036 -0.012169922
000080 1e 31 a4 bc 62 31 f3 bb d5 16 5d bc 95 d0 6f bd
       -0.020042952 -0.0074216584 -0.013494213 -0.05854853
000090 e7 3e c3 bc 70 24 49 bd 79 5b 2b bc 0e 58 95 bd
       -0.023833705 -0.049107015 -0.0104588205 -0.07292186
0000a0 dc cc cd 3c 09 1c 7a 3d 07 71 fc bb 6b 85 5d bd
       0.025122099 0.061061893 -0.0077039036 -0.054082315
0000b0 5f a6 4d bd b6 2f f8 3c cc db c7 bc b6 59 95 3b
       -0.050207492 0.030296188 -0.0243968 0.0045578135
0000c0 54 90 8f 3c 54 ff 36 bd ac 0e d6 bc 15 b1 0c bd
       0.017524876 -0.044677094 -0.026130043 -0.034348566
0000d0 86 35 62 bc f7 23 b7 bc 91 04 b6 ba 0e 4e e8 3c
       -0.013806706 -0.022356017 -0.0013886859 0.028357532
0000e0 2b 8f f9 3c 5a c9 ad 3c 2f 82 9a bb dc 56 db 3b
       0.030463776 0.021214176 -0.004715226 0.006693704
0000f0 7a be 12 3d a6 63 da 3c 62 d8 99 3c e7 ac e9 ba
       0.035826184 0.026658844 0.018779937 -0.0017828018
000100 56 cc b5 bc 98 43 a1 3d 67 9d db 3c b3 53 6f bd
       -0.022192162 0.078742206 0.026808454 -0.05842943
000110 da 09 28 bd 23 9a 28 3c dd ef 7d bd f2 7f 81 bc
       -0.04102502 0.010290655 -0.06199633 -0.01580808
000120 7f 33 a7 3c d5 59 3d bb 26 c4 26 bd 6b 95 78 bc
       0.020410297 -0.0028892655 -0.040714405 -0.015172343
000130 77 11 a3 bd b6 0c 26 3d 88 42 3d bd d1 81 0d bc
       -0.079623155 0.040539466 -0.046206027 -0.008636908
000140 2c 40 09 bd 87 83 01 bd bd c6 2d 3d 9b 58 be 3c
       -0.033508465 -0.031619575 0.04242586 0.02323561
000150 14 9a 1e bc a2 db 5e 3c a1 d6 82 bd 4d e0 2b 3c
       -0.00968029 0.013602169 -0.063885935 0.010490489
000160 a3 68 d6 bc 19 ae 4f bd 59 91 81 3d 67 f6 44 bd
       -0.026172942 -0.05070314 0.06326551 -0.04808655
000170 93 6a d8 3c d8 ec 37 3d 86 bc 32 bd 0e a3 43 3c
       0.026418006 0.044903606 -0.04363682 0.011940731
000180 11 b4 9d bc d3 b4 18 bd 49 2a 87 bd 19 d2 fa bc
       -0.019250901 -0.037281822 -0.06599862 -0.03061776
000190 19 98 83 3c ab 73 63 bc 97 b5 93 3c e4 67 0e bd
       0.016063737 -0.013882558 0.018030925 -0.034767047
0001a0 4a 52 37 bc 68 0c 18 3d 49 fa 81 3c 11 9d ee 3c
       -0.011189053 0.037121207 0.015866416 0.02912763
0001b0 ae c9 0f 3d 14 b4 33 bd 02 7f ac 3c 1e aa 46 bb
       0.035104446 -0.043872908 0.021056656 -0.00303138
0001c0 64 fe 11 bd e0 6d 5f 3c 86 d0 bc 3c dd 8e d5 bc
       -0.035642996 0.013637036 0.02304865 -0.0260691
0001d0 f7 3f 32 bd 36 70 90 bc b5 07 f7 3c 8e 26 65 bd
       -0.043518033 -0.017631631 0.030155042 -0.05594497
0001e0 47 b3 3f bc 43 da c3 bc dc 4c d6 bb e1 cf 16 b9
       -0.011700458 -0.023907786 -0.006539924 -0.00014382556
0001f0 53 7d df ba a8 30 c5 3c 77 5d e4 3c 8a dd 17 bd
       -0.0017050899 0.024071053 0.027876599 -0.03707651
000200 6c 20 99 bc 90 db 38 3d 52 05 ea bc 5b 20 ee ba
       -0.018692218 0.045131266 -0.02856699 -0.0018167602
000210 8b df 22 3d 6b fc 9f 3b fa 45 07 bd f5 f1 1a bd
       0.03976397 0.0048823855 -0.03302572 -0.037828404
000220 3a fb 73 bd 73 1d 90 3c 32 a1 82 bd af 30 11 3c
       -0.05956576 0.017592167 -0.06378402 0.008861705
000230 6e 49 b2 3d 2c 34 32 bb bb 15 53 3c 12 4c 59 bd
       0.08705412 -0.0027191741 0.012883599 -0.053051062
000240 08 05 a4 bc 2e 92 92 3c 67 4a 03 bd dd 56 83 bc
       -0.02002193 0.01789197 -0.032053377 -0.01603263
000250 66 51 89 3c 10 24 c6 bd 4d 65 e6 bc e0 d9 33 bd
       0.016762447 -0.09674847 -0.028124476 -0.043908954
000260 f5 20 2e bd ae cc 83 bc e7 9f 18 bc b6 ab e2 bc
       -0.0425119 -0.01608881 -0.009315467 -0.027669769
000270 c0 d7 fc bc 69 6a 15 3d a9 a1 b6 bb 6e 1a f9 bb
       -0.030864596 0.036478434 -0.0055734706 -0.0076020276
000280 2f e6 01 3d a6 06 5f bd fc 46 8f 3c 56 67 4d 3c
       0.03171366 -0.0544497 0.017489903 0.012536844
000290 35 6b 2e bd eb 80 d4 bb 80 92 a1 3c 45 21 10 3c
       -0.04258271 -0.006485095 0.019723177 0.008796995
0002a0 12 a1 29 bd be 41 cf 3c f6 c1 b2 bc c5 4f 53 3d
       -0.041413374 0.025299903 -0.021821003 0.051589746
0002b0 65 d4 0a bd 5f 0b 56 3b 5e a0 20 3d 8f 5b 56 bd
       -0.03389396 0.0032660586 0.039215438 -0.05233341
0002c0 f0 65 34 3d 16 f3 ef 3b 13 81 f5 3a f1 c5 0b bd
       0.044042528 0.0073226793 0.0018730484 -0.03412432
0002d0 99 2e 6d 39 91 15 10 bd ba 96 8d 3d 6f b1 2b bd
       0.0002261944 -0.035176817 0.069135144 -0.04191726
0002e0 f1 b6 11 3b ad 1a 4e 3d 40 64 76 bc 43 a7 d5 bc
       0.0022234286 0.05031841 -0.01503855 -0.026080733
0002f0 17 8e 2d bd d6 db 88 bd 48 9f 87 3d 44 de 50 bc
       -0.042371836 -0.066825554 0.06622177 -0.012748305
000300 d5 bf 50 bd e5 97 39 3d d8 35 09 bd 1a 22 fa bc
       -0.050964195 0.045310874 -0.033498615 -0.030533839
000310 94 de 2b bb d1 79 b5 3c ab 7d 48 bc 86 b5 0b bd
       -0.0026225196 0.022152813 -0.012236993 -0.03410866
000320 e7 e5 b7 3c 9b d7 a8 3a 0c 8c ab 3c 86 81 d6 bc
       0.022448493 0.0012881638 0.020940803 -0.026184808
000330 e8 2f 9a bc e7 89 01 bd b0 54 b4 bd ea 57 e0 bc
       -0.018821672 -0.031625655 -0.08805215 -0.02738567
000340 93 d5 0e 3d 04 8c a7 bd 71 f2 e5 bb 00 8b e4 3c
       0.03487165 -0.08181003 -0.0070174267 0.027898312
000350 69 80 8a bc df 97 b1 bd 1b 21 e6 3c c6 42 d5 bc
       -0.016906934 -0.08671545 0.028091958 -0.026032817
000360 b0 89 a9 3b 32 21 bd 3b 2b f9 68 3b 63 a6 33 3d
       0.0051738843 0.0057717795 0.0035548906 0.04385985
000370 b8 7f ba 3b 6a eb 17 bb 7c d9 34 3b 72 13 86 bc
       0.005691495 -0.002318109 0.002759545 -0.016366694
000380 43 54 bd bb 78 b9 89 3c c8 b6 c9 3c c5 3a 4e bb
       -0.005777867 0.016812071 0.02462329 -0.0031468135
000390 2c 8c ef bc 05 6b e4 3c ca f7 28 bc 3d 24 d6 bc
       -0.029241644 0.027883062 -0.010312984 -0.026140327
0003a0 0d 48 09 bd 4a 8d cc bc c2 ed ea bc 88 ce 9e 3c
       -0.03351598 -0.024969716 -0.028677825 0.019385591
0003b0 27 09 23 bd b1 d0 21 bd 64 a7 f8 bb 2e 40 ad 3a
       -0.03980365 -0.039505664 -0.007588314 0.001321798
0003c0 07 d4 89 3c cb 05 61 3c 1a f8 58 bd cd eb 8a 3c
       0.016824735 0.013734291 -0.052970983 0.016958142
0003d0 52 f6 02 ba 4b d4 01 3d 91 26 e4 bc 38 43 f2 3c
       -0.0004995811 0.0316966 -0.027850421 0.029573068
0003e0 ce 3f 65 3c 89 89 bf bc 3f ab 7d bd 0b 17 ca bd
       0.013992263 -0.023381012 -0.06193089 -0.09867676
0003f0 16 2b 60 bc 0a 45 12 3d 55 a8 d0 bc 02 e1 cc bc
       -0.0136821475 0.035710372 -0.025470892 -0.025009636

conv3.weight f4 [128, 64, 3, 3]
000000 26 01 0d 3c ee e1 f3 bc a9 19 ad 39 fe 4e bb 3c
       0.008606231 -0.029770818 0.0003301625 0.022864815
000010 b3 46 4e 3c 52 ad 01 bd 08 d7 f7 3c 00 68 4f ba
       0.012590098 -0.03165943 0.030253902 -0.00079119205
000020 b7 26 da bc 91 84 f8 3c 22 81 29 3d f1 22 9d 3c
       -0.026629789 0.03033665 0.041382916 0.0191817
000030 f6 03 e6 ba 74 e7 59 3c 69 0d 9b bb 93 cb 38 bc
       -0.0017548788 0.013299812 -0.004731823 -0.011279005
000040 b5 68 64 3c 6e 20 19 3c 9b 37 54 3c 8d f5 59 bc
       0.01394098 0.009346111 0.0129527105 -0.013303173
000050 65 e7 6f 3c b5 41 09 3d 46 46 4c 3c 86 18 89 3c
       0.014642571 0.03350993 0.012467926 0.016735326
000060 81 3b aa 3c 8e ca c3 bb 2b b9 8d 3c 93 f2 8d 3c
       0.020780327 -0.005975074 0.017300209 0.017327582
000070 4b 61 1c 3c 95 55 ca bc 3e b3 00 3d 9a 34 2d bb
       0.009544681 -0.024699012 0.03142094 -0.0026429058
000080 9f 22 12 bd 10 fc 15 3c a2 58 23 3b 67 4f 9d 3c
       -0.03567755 0.009154335 0.0024924655 0.019202901
000090 7a 26 b2 bc 9e e5 e1 bc d6 9f 08 bc 87 f5 af bc
       -0.021746863 -0.02757531 -0.008338889 -0.021479381
0000a0 1e 89 ca bb 2b 60 dd bb d4 53 d8 bb 9f f7 8d bc
       -0.0061808964 -0.006755849 -0.00660179 -0.017329989
0000b0 35 59 9b bb 40 13 cf bc 39 76 2b bc cc 8e 89 bc
       -0.004740859 -0.025277734 -0.010465198 -0.016791724
0000c0 23 1b b3 3b 44 67 2a bc 43 90 da 3b e9 d0 8c bc
       0.0054658814 -0.010400597 0.0066700294 -0.01718946
0000d0 e3 bb e4 bc 81 8e 88 3b 40 7b 83 bc 93 51 dc bc
       -0.027921623 0.0041673784 -0.016049981 -0.026894366
0000e0 53 7c 72 bc 19 86 aa 3a 34 6f bc bb 7d b0 f6 3c
       -0.014800149 0.0013009935 -0.005750561 0.030113453
0000f0 e0 04 48 bc 95 eb 79 bb 8f b7 3b 3b 73 7b 98 3c
       -0.012208194 -0.0038134803 0.0028643345 0.018613553
000100 e3 b2 e2 bc 31 22 51 bd 8e e4 65 39 59 b2 59 bd
       -0.02767319 -0.051057998 0.00021924285 -0.0531486
000110 9b 47 19 bd 47 c5 62 bc 68 39 14 bd 92 ce 99 bb
       -0.037421804 -0.01384098 -0.03618756 -0.0046938146
000120 88 c0 02 bc e0 04 b5 3c 64 80 13 3b ac da 21 3c
       -0.007980473 0.022097051 0.0022506947 0.009878796
000130 cd 24 ba 3c 2a a8 93 bc b5 49 66 bc bd e4 8f bd
       0.022722626 -0.018024523 -0.014055659 -0.0702605
000140 b1 48 88 3a 31 51 30 bc c2 96 e6 3b 41 1d d8 3c
       0.001039764 -0.010761545 0.0070370147 0.026381137
000150 3c 77 2e bd d5 c0 06 bd 75 c4 1b bd a6 67 86 3b
       -0.04259418 -0.032898743 -0.038029153 0.0041017113
000160 e3 99 92 bc 21 ab 82 bc fe a0 2a bd 4a 64 86 bc
       -0.017895645 -0.015950741 -0.04165744 -0.016405243
000170 a8 38 73 3c 74 4d 5e bc 15 f9 02 bc bb 1f f6 3b
       0.014845051 -0.013568271 -0.007993956 0.007511107
000180 1d e5 36 bc fd 9e 63 bc 7f e3 53 3c 98 88 ae bb
       -0.011163023 -0.013892886 0.012932657 -0.005326342
000190 be 34 3c 3c f7 cf fb bc 64 ff 01 bd 1c 6b ea bc
       0.011487184 -0.030738814 -0.0317377 -0.028615527
0001a0 47 7f 4f 3c 47 f0 57 bc 9f 18 2b 3c 99 54 00 3b
       0.012664623 -0.013179845 0.010442882 0.0019581674
0001b0 75 88 65 ba 7c 49 9a 3a 11 c7 2c bc ee 98 ad 3b
       -0.00087559904 0.0011771168 -0.010545508 0.0052977717
0001c0 2e 4d cd 3c 26 91 e9 ba 49 d3 aa bb 7f 3b 2c 3c
       0.025061216 -0.0017819747 -0.0052131754 0.010512232
0001d0 cd e0 82 3b 39 63 a7 bc 4f 83 ae bc 55 3a 11 bd
       0.0039940835 -0.020433055 -0.021302847 -0.03545602
0001e0 74 0a b0 bc 17 ec ec bb dd 51 b5 bc bf 7b 08 bd
       -0.02148936 -0.0072302925 -0.022133762 -0.03332114
0001f0 ac 2f 03 bd 21 7e 14 bd 7d 95 ad bc 6d c3 b5 bc
       -0.032027885 -0.0362531 -0.021189446 -0.022187913
000200 a8 38 3b bb ff 84 f2 bb 55 bc d0 bb f6 74 41 3b
       -0.0028567705 -0.0074011083 -0.006370107 0.0029519177
000210 d2 0f 49 3c 99 cb 2b 3b 3b d4 26 bc 4e eb 74 3c
       0.012271838 0.0026213883 -0.010182436 0.014948679
000220 49 61 b3 3c 59 f4 87 3d 16 5e dd bc 1f a8 89 3b
       0.021896975 0.066384025 -0.027022403 0.00420095
000230 a0 2c 6d 3c 67 6e c9 39 2c fa 20 3d 6a db e4 3b
       0.014475971 0.00038419964 0.039301082 0.006984164
000240 c5 14 95 bc e4 ee c3 3a d1 7b fa bb 37 67 f6 bc
       -0.01819838 0.0014948514 -0.0076441546 -0.030078514
000250 b4 44 b1 bc 6b 8c ea bc e3 21 d4 bc b5 aa b7 bc
       -0.021639206 -0.02863141 -0.025895065 -0.022420267
000260 71 51 f0 bc af c6 5c bb 32 f0 d6 bb 10 20 07 3c
       -0.02933571 -0.003368776 -0.006559395 0.00824739
000270 af 25 cc 3c d4 a9 4d 3b 73 e9 11 3b 1e db 0b bc
       0.024920313 0.0031381743 0.002226439 -0.008536128
000280 d6 83 b7 bb 02 cf 6a bb e6 d6 e1 3c 0e 96 dd bc
       -0.005600433 -0.0035828953 0.027568292 -0.02704909
000290 08 3f 86 bc d8 5f f6 3c 5c 8b ae bc 1c 43 63 3c
       -0.016387478 0.030074999 -0.021306686 0.013870981
0002a0 ab 8a fa 3c d7 4e 04 3d 20 15 a0 3c 62 da 31 3c
       0.0305837 0.03230175 0.019541323 0.010855289
0002b0 ad 28 b3 bc 95 4d a2 3a 3b 98 d9 3b 03 62 81 bc
       -0.021869982 0.001238274 0.0066404617 -0.015793806
0002c0 42 56 8a bc 9e 0a e9 bb 6b 75 5b bc be 69 f0 bb
       -0.016886834 -0.0071118614 -0.013394694 -0.007336824
0002d0 94 a1 54 3d 42 d7 d1 3c 41 dc 02 bd e7 38 20 3d
       0.051911905 0.025615338 -0.03194833 0.039116766
0002e0 d5 a1 5d ba 92 03 f4 bc 25 28 8b bb a1 18 42 bc
       -0.0008454596 -0.029786859 -0.004246729 -0.011846692
0002f0 37 32 64 3c b3 2d 4e bd f6 6b d8 bc 8f c8 9a bc
       0.013927988 -0.05033655 -0.026418667 -0.018894462
000300 72 54 0b bd f1 a8 1b bd ab b4 0e bd 27 db ff bc
       -0.03401608 -0.038002912 -0.034840267 -0.03123243
000310 ca 7d 1e bd 01 b0 91 3a 35 ca 80 3b 8c 09 70 bb
       -0.03869418 0.0011115075 0.003930355 -0.0036626784
000320 3f bc cb bc 41 c2 28 bd dd 1e d7 bc 07 63 2a 3c
       -0.024870036 -0.04120088 -0.026259834 0.0103995865
000330 d7 a8 e8 bc 86 1b 38 bc 4b 6c 26 bc fc 0d a4 3b
       -0.028400822 -0.011237031 -0.010157655 0.00500655
000340 4b 41 66 bb ac ac 41 3b d6 77 14 3c 79 77 80 3c
       -0.0035134132 0.0029552383 0.009061774 0.015681969
000350 c0 90 0d 3c 63 e4 fe 3b 97 0a 78 bb 3d f0 af bc
       0.008640468 0.0077786907 -0.003784811 -0.02147686
000360 61 e3 d4 3b 2d 39 90 bc 89 04 85 3c 1b 3d 43 bc
       0.0064968322 -0.017605389 0.016237514 -0.011916424
000370 cf d6 81 bc 8b d7 ce bb ca 44 d6 3b fe 73 35 bb
       -0.015849499 -0.006312316 0.006538962 -0.0027687545
000380 4f 4a 01 3c 1c 6d 28 3b 31 de 74 bb cb a2 0f ba
       0.007891252 0.00256998 -0.0037363882 -0.0005479275
000390 ad ca 14 3d 4a b9 00 3d 19 0f fd 3b 10 a4 80 3c
       0.0363261 0.031426705 0.007722747 0.015703231
0003a0 d5 3c db 3c 03 75 8b bc 6a 5a cb bc 60 c9 20 bd
       0.026762405 -0.017023569 -0.024823386 -0.039254546
0003b0 f2 75 02 bd 5e 45 12 bd 8a 18 d6 bc c8 63 b7 38
       -0.031850763 -0.035710685 -0.026134748 8.744706e-05
0003c0 2d 95 b5 bc 5b d5 bc bb e1 d8 b7 ba cd 52 8d ba
       -0.02216586 -0.0057627386 -0.0014026427 -0.0010782123
0003d0 30 52 18 bc eb 76 0d bc 9b 83 e8 3b f2 0e 29 bc
       -0.009296939 -0.008634309 0.0070957667 -0.010318505
0003e0 c8 9d 3a bb eb 22 d0 3b f1 ad d9 ba 91 cc 3f bc
       -0.0028475393 0.006351819 -0.0016607625 -0.011706487
0003f0 22 b7 6a 3b 36 4d 84 3a 26 2e a4 3c 81 ea ed 3a
       0.0035814722 0.0010093811 0.020041537 0.0018151553

fc1.weight f4 [256, 128]
000000 bf 0a d3 bf 83 a8 ad c0 f0 84 9d 3f 3e 5e 12 3f
       -1.6487654 -5.4268203 1.2306194 0.5717505
000010 e3 8b df c0 9f 49 02 c0 87 a0 00 c1 81 95 cd c0
       -6.985826 -2.0357435 -8.039191 -6.4245
000020 05 a3 02 c1 29 9c 1e 40 ec 7d 4b c0 10 38 44 c0
       -8.1648 2.4782813 -3.1795607 -3.0659218
000030 a7 d0 ea 40 b6 91 f0 c0 27 9c 80 c0 52 10 ac c0
       7.3379703 -7.517787 -4.0190616 -5.376992
000040 cf 6f 83 c0 3b 91 9a 40 ce 35 b8 40 50 bc ad 40
       -4.1073985 4.8302283 5.756568 5.4292374
000050 f1 18 ab c0 c1 80 c6 c0 e4 a3 d7 3e 8a 31 d4 40
       -5.3467946 -6.203217 0.42117226 6.6310472
000060 8c a5 4e 40 01 98 21 c1 70 83 fa 40 67 2b fc c0
       3.2288542 -10.09961 7.8285446 -7.880298
000070 97 c4 35 41 fc 65 77 40 d6 60 ae bf 2e 94 1c c1
       11.360496 3.8655996 -1.3623302 -9.786177
000080 18 82 6c c0 19 28 35 c0 aa 1a 67 40 72 1d 3f 3f
       -3.6954403 -2.8305724 3.6110024 0.74654305
000090 06 96 34 bf de 4a 30 c0 e3 9e 6a 40 30 3a 72 c0
       -0.7054142 -2.7545695 3.6659477 -3.7848015
0000a0 a8 2b 6d c0 41 ee 1f c0 e6 a2 01 40 45 bf dc c0
       -3.7057896 -2.4989169 2.0255675 -6.8983483
0000b0 74 1d 8c c1 d9 36 35 41 9c e2 ea be e4 28 67 c0
       -17.514381 11.325891 -0.45876014 -3.6118708
0000c0 ba fa 08 c0 49 38 c7 bf 13 8e fe 3f 55 37 20 bd
       -2.1403031 -1.5564052 1.9887108 -0.03911527
0000d0 dd 8e 0e 41 13 9c ad bd ce da 19 c0 07 3a a5 40
       8.909879 -0.084770344 -2.4039798 5.1633334
0000e0 88 a8 28 bd 17 94 ad 3f 07 0c 16 c0 76 f9 42 c0
       -0.04117635 1.3560818 -2.344484 -3.046476
0000f0 0b 4d 28 c0 b8 95 22 bd 49 d0 38 c0 5e 7d 8b 3f
       -2.6297023 -0.039693564 -2.8877127 1.0897634
000100 48 4a 59 41 06 f7 fe be 00 6e 62 be fb 91 a5 40
       13.580635 -0.4979784 -0.22112274 5.17407
000110 c5 e1 f5 3f a8 22 a3 40 e5 6c e6 bf 0a 38 63 c0
       1.9209524 5.0979805 -1.8001982 -3.5502954
000120 c8 97 a4 bf e2 0f a9 3f 77 c9 5f 41 cc b8 31 40
       -1.285882 1.3207972 13.986686 2.776904
000130 ef be 76 bf 64 dc 07 41 26 b8 a6 bf b1 15 49 40
       -0.9638509 8.491306 -1.3024948 3.141949
000140 77 9d 36 c0 e7 fd 4a c0 47 41 96 c0 23 77 a7 be
       -2.853361 -3.171747 -4.6954684 -0.32708082
000150 c2 59 7d 3e 8b 79 d5 40 9a bd 94 c0 ac 49 eb 40
       0.24741271 6.671087 -4.6481447 7.352743
000160 31 51 8e bf 66 ad c3 3e c5 37 95 40 46 7f 28 3f
       -1.1118528 0.3821823 4.663058 0.65819204
000170 ee c6 96 40 67 67 df bf 9d 7c b3 c0 a9 fb 1d c1
       4.7117834 -1.7453431 -5.6089616 -9.87394
000180 d0 ec 5b c0 2b 2f d5 3f f9 a6 01 c0 fc 9e 4b c0
       -3.436329 1.665502 -2.0258162 -3.1815786
000190 cb a7 df be a5 b1 07 3e f7 b0 87 c0 03 01 21 41
       -0.43682703 0.1325136 -4.240352 10.062747
0001a0 4d 6b 1a c1 1b 02 27 c0 18 fc ca 40 f0 a7 14 c0
       -9.6511965 -2.6095035 6.343273 -2.32275
0001b0 f6 a5 bb 40 16 10 1e c1 24 c4 67 40 ab c2 16 c0
       5.864009 -9.878927 3.6213465 -2.3556316
0001c0 ef 77 0e 3e d1 38 88 40 b7 fe 63 3e 35 12 08 c0
       0.13912939 4.2569356 0.22265135 -2.1261113
0001d0 16 1f e3 3f 39 de d0 3f d1 24 27 40 d6 53 32 c0
       1.7743862 1.6317817 2.611622 -2.786367
0001e0 d3 06 2c 3f 49 78 ed c0 4c 5c 3d be 21 14 8a 40
       0.6719791 -7.4209332 -0.1849224 4.314957
0001f0 bb 56 a3 c0 45 55 54 c0 92 8c ae c0 09 6d 90 bf
       -5.104337 -3.3177044 -5.4546595 -1.1283275
000200 20 eb 99 bf 1a 11 e6 c0 60 a8 27 40 bc 83 04 41
       -1.202488 -7.1895876 2.6196518 8.282162
000210 32 f0 ae 3f 83 64 33 bf bd b9 79 bf a1 c6 02 41
       1.3667052 -0.70075244 -0.9754904 8.173493
000220 a3 6c d2 bd e4 0c fa bf de ec 99 c0 6c 3d c5 c0
       -0.10274627 -1.9535184 -4.8101645 -6.163748
000230 1a a2 de 3f cf a3 08 41 ac 26 24 40 74 7e 01 3f
       1.739322 8.539992 2.5648603 0.5058358
000240 e7 61 48 3f 36 b1 6e bf 6d 47 51 c0 6f 09 20 40
       0.7827439 -0.9323915 -3.2699845 2.5005758
000250 5b 74 5a c0 9b 1c cc 40 fe ff 29 3f d5 dd 0a c0
       -3.4133518 6.378492 0.6640624 -2.1697896
000260 d3 4c 13 41 0e 0f 8d c0 9f f0 36 c0 7b 59 b2 c0
       9.206256 -4.4080877 -2.8584363 -5.573423
000270 4a 4d d6 40 59 08 af c0 16 3c 15 3f 89 a4 ad 40
       6.6969347 -5.469769 0.5829481 5.426335
000280 98 7f 16 41 18 da 7c 3f 75 5c d6 3e 1f d2 af 40
       9.406151 0.98770285 0.41867414 5.4943995
000290 fe d6 67 c0 e7 b2 26 c0 6a d8 d7 3f 37 b7 fd 40
       -3.622497 -2.6046693 1.6862919 7.928615
0002a0 aa c3 4f 41 7b 64 3b c0 a6 b4 18 c0 cd 30 c2 40
       12.98527 -2.9280078 -2.386026 6.068457
0002b0 e1 99 9f c0 23 5d e4 c0 9a 0d a3 c0 29 18 23 3f
       -4.987534 -7.136369 -5.0954103 0.6370874
0002c0 33 5b a0 40 a6 fd 1b 40 87 eb 40 bf cb eb 7e c0
       5.0111327 2.4373565 -0.75359386 -3.9831417
0002d0 50 f9 48 40 6a 44 35 c0 58 ae 30 c0 ea 46 36 40
       3.1402168 -2.8323007 -2.760641 2.8480783
0002e0 d3 8e 4a 3e 56 08 39 c0 5b fb 10 41 7b 44 4f 41
       0.19781046 -2.8911338 9.061366 12.954219
0002f0 fa 6a 8b 40 2c be c1 bf fc 98 26 3f 0a d7 81 40
       4.3568087 -1.5136161 0.65077186 4.0575
000300 f5 d4 c4 bf 37 1a 95 40 d9 32 74 40 7d ed bb be
       -1.5377489 4.65945 3.8156035 -0.36704627
000310 2c e6 4f c1 d4 2b 11 c0 5a ec 07 40 b0 74 7b c0
       -12.993694 -2.2683 2.1238008 -3.928997
000320 6d 46 8c c0 2b 85 2c bf 4a 50 eb c0 1b 41 84 40
       -4.383597 -0.673907 -7.353551 4.1329474
000330 a0 84 3a 40 be 93 6a bf 79 92 d6 40 d6 66 74 40
       2.9143448 -0.91631687 6.70538 3.8187766
000340 13 e3 c4 c0 3c 2a db bf 53 f3 93 c0 cc 73 1d 41
       -6.152719 -1.7122264 -4.6234527 9.840771
000350 b2 9a 2b c0 bb 72 3b 40 6b 70 40 40 b3 8b 57 3f
       -2.6813169 2.9288776 3.0068614 0.8419754
000360 7e a1 ec 40 58 f6 71 41 20 25 b1 c0 91 eb 6a 40
       7.3947134 15.1226425 -5.535782 3.6706278
000370 5e 9c b6 3f 49 4d 52 c0 e7 bb 90 be cf 51 d1 3f
       1.426647 -3.285967 -0.28268358 1.6353091
000380 35 29 24 41 44 e0 40 3f 71 3a f4 3f e5 f8 8b 40
       10.26006 0.753422 1.9080335 4.3741326
000390 f1 e7 dd c0 5a f8 81 c0 18 89 9b c0 c9 65 dc be
       -6.934563 -4.0615664 -4.860485 -0.43046406
0003a0 0e 07 8d bf 2d 8b 04 c0 0d c6 67 c0 b8 b6 e2 40
       -1.1017778 -2.0709946 -3.621463 7.0848045
0003b0 64 1c 0e c0 9c 35 79 bf 70 8a b3 bf f7 10 1c c0
       -2.2204828 -0.97347426 -1.4026623 -2.4385355
0003c0 8f 1e 11 be d9 80 76 40 eb b2 b2 40 d6 d3 6a 40
       -0.14171813 3.8516142 5.5843406 3.6691794
0003d0 c2 44 c1 40 d9 33 d4 3f d7 81 10 c0 db 38 b1 c0
       6.0396433 1.6578323 -2.2579248 -5.5381904
0003e0 09 4b 8c 40 29 03 3d 41 98 f1 f3 c0 f9 d0 11 c0
       4.3841596 11.8132715 -7.6232414 -2.2783797
0003f0 fa ea 83 c0 0b a5 53 41 67 d3 88 be 5a 1f e2 c0
       -4.1224337 13.227794 -0.26723787 -7.066327

fc2.weight f4 [46, 256]
000000 af bf aa 3d bd 35 f6 3d 40 ed 53 3e 07 2a fc bd
       0.08337342 0.120219685 0.20695972 -0.123127036
000010 f2 b5 7f 3d 0c f3 92 bc ec 59 cb bd a1 ff e0 3d
       0.062429376 -0.01793816 -0.099292606 0.10986257
000020 d2 ae 28 3e 7e b8 bd 3d 34 49 f5 3d 02 23 71 bd
       0.16472939 0.09263705 0.11976853 -0.058871277
000030 6d ff 1f 3e 1c f4 0f 3d 01 82 d8 3d 1a e1 98 bd
       0.15624781 0.03514491 0.10571671 -0.0746481
000040 44 5d 1d be 3b 81 a3 3d 6b 0f 43 3d fc 14 a1 ba
       -0.1536761 0.07983633 0.047622126 -0.0012289579
000050 6f 23 ac bd e8 4d 43 be dd 01 19 3e 8e 0e 6e bd
       -0.08405196 -0.19072688 0.14942117 -0.05811935
000060 24 a9 84 bb c6 5b 4b be f9 b3 44 3d 42 e8 ab bc
       -0.0040484834 -0.19859228 0.048023198 -0.020984773
000070 ac 7e 95 bd 4f 56 42 be 79 a9 0b be fa 3a 7c bd
       -0.07299551 -0.18978237 -0.13638867 -0.061579682
000080 04 e3 f6 bd 5e 05 bb 3d 44 ed 85 bc f8 13 19 be
       -0.120550185 0.09131883 -0.016348489 -0.14949024
000090 d2 85 f1 bd 7a 45 74 3e 30 c3 4d be b5 4c 95 3d
       -0.11793102 0.23854628 -0.2009399 0.07290021
0000a0 a5 58 67 bd e3 a0 81 bd 38 d2 42 be 69 02 d9 bd
       -0.056481022 -0.06329515 -0.19025505 -0.10596163
0000b0 36 0c a5 bd 08 c1 e5 bd 9f dc f6 bd a3 1f 35 be
       -0.0805897 -0.112184584 -0.12053799 -0.1768785
0000c0 1b e3 5d bd 02 af 6c bd e1 87 d9 bd f8 1b c2 3d
       -0.054171663 -0.057784088 -0.1062162 0.09477991
0000d0 b8 d0 1e 3e a0 a9 22 be bf 75 3e 3d 7d 49 ed 3d
       0.15509307 -0.1588502 0.04649901 0.115862824
0000e0 bf 16 4a 3c ef 19 70 bd 27 05 1e 3e 72 b1 1a 3d
       0.012334525 -0.058618482 0.15431653 0.03776688
0000f0 33 f4 c5 3d eb 3a c5 bc 14 93 12 be b3 46 63 bd
       0.09665718 -0.024075946 -0.14313918 -0.055487346
000100 f3 67 e8 bd 7d e4 a5 3d 26 82 32 be c5 29 fb bd
       -0.11347952 0.08100221 -0.1743246 -0.12263826
000110 c5 c4 ff bc 63 57 cc 3d 97 2e 19 be 5e e5 c8 bd
       -0.031221757 0.09977605 -0.14959179 -0.09809373
000120 e7 38 1c be a6 57 9a 3d 6d 3c 08 be 79 39 65 be
       -0.15256082 0.07536249 -0.133043 -0.22385205
000130 e7 c5 4e 3d aa e9 03 bd 26 52 2a bc 0b d9 24 bb
       0.050481703 -0.03220526 -0.010395562 -0.0025153782
000140 45 a1 ae 3d 3d 8d be bd 55 fd 60 3d 98 c2 83 3b
       0.085268535 -0.09304283 0.054929096 0.004021
000150 6c d4 4d 3e 50 73 31 3e 12 3f a3 bd b1 58 f7 bd
       0.20100564 0.17329144 -0.07971014 -0.120774634
000160 29 15 00 3e c0 74 7f bd 18 be 7b be 79 e3 e6 3c
       0.12508072 -0.0623672 -0.24584234 0.02818464
000170 81 57 03 be 79 ed 3d bc cc 7e d7 bd 8d c0 e1 3d
       -0.12826349 -0.011592262 -0.105222315 0.11023054
000180 8a 69 22 3e 27 4a 06 3e cf 29 40 3d af b0 0e be
       0.15860572 0.13114224 0.04691487 -0.13934587
000190 19 10 5c 3e ab 0a 1c 3d 9e 13 e5 bd 00 32 1e be
       0.21490516 0.03809611 -0.11185382 -0.15448761
0001a0 ad e6 11 be d7 de 1b 3c 5d 5a 8d bd 20 b7 5f 3b
       -0.14248152 0.009513578 -0.06902001 0.003413625
0001b0 1f b7 ff bd 05 65 0e be dc 61 42 be 64 a5 26 3e
       -0.124860995 -0.13905723 -0.18982643 0.16274029
0001c0 c7 de a9 3d 03 c8 30 be fa 54 4f 3e 8c 38 20 be
       0.082944445 -0.17263798 0.2024726 -0.15646571
0001d0 e9 47 06 bd bc ff f0 bd 50 15 76 3d b4 ec 5a bd
       -0.032783423 -0.117675275 0.06007892 -0.053448394
0001e0 7f cd 16 bd ee 27 39 3e c8 31 dd 3d 14 9d bb 3d
       -0.03681707 0.18081638 0.10800511 0.0916082
0001f0 20 97 e2 3c fd 79 45 3e d2 f7 25 be e7 ed 7e bd
       0.027659953 0.19284816 -0.16207817 -0.0622386
000200 08 5e 97 bd b0 3d 15 bd 64 80 e4 3c 08 73 5f be
       -0.07390982 -0.036435783 0.027893253 -0.21821225
000210 b1 65 e1 bd ed f1 55 bc ea 31 07 3e 10 71 6c 3e
       -0.11005724 -0.013058168 0.13202634 0.23090005
000220 46 0b 85 bb 13 d9 bf bd aa 92 e7 bd a6 12 11 be
       -0.004060182 -0.093675755 -0.11307271 -0.1416727
000230 1b 08 49 be 01 3c fe bd 75 93 41 3e 02 86 d6 bd
       -0.19631998 -0.124137886 0.18903907 -0.10474779
000240 ab 1e 78 3d bc 5f 29 bd 3d 8f 43 be 69 41 e9 bd
       0.060576122 -0.041351065 -0.1909761 -0.11389429
000250 ba 64 83 bc 7d dc 29 3e ab a2 28 be 51 cf 0b 3e
       -0.016039241 0.16588016 -0.16468303 0.13653304
000260 a7 96 83 bd 28 c2 5d bd 07 6f c5 bd 3a 1a d2 bd
       -0.06425219 -0.05414024 -0.096403174 -0.102589086
000270 8c d4 fd bd c1 2b 6a bc 49 4f 8e bd bf 05 30 3c
       -0.12394056 -0.014292658 -0.06948716 0.0107435575
000280 99 cc b6 bd 55 ec 6c be a4 a4 3a 3d 20 0c 44 3d
       -0.08925743 -0.23137029 0.04556717 0.047863126
000290 fd 5a c1 3c 57 e8 48 be 51 96 54 3e e6 de 31 bd
       0.023602957 -0.1961988 0.20760466 -0.043425463
0002a0 ef e3 54 3c 96 70 57 3c 02 31 91 3b bc 79 ff bd
       0.012993797 0.013149401 0.004430891 -0.12474391
0002b0 d2 08 65 bd af c3 22 be ed df 9e 3d 79 3e ca bd
       -0.055916615 -0.1589496 0.07757554 -0.09875197
0002c0 a0 92 87 be 70 50 0e 3e 2d b3 c0 bd 82 8b 59 be
       -0.26479053 0.13897872 -0.09409175 -0.21244624
0002d0 36 f8 4d ba a4 a7 a8 bc e0 bc 52 be 74 5c 2d bc
       -0.00078571157 -0.02058775 -0.20579863 -0.010581125
0002e0 41 3c 28 bd 24 48 86 bd 10 47 02 3e 9d ba 01 be
       -0.041073088 -0.065567285 0.1272242 -0.12668844
0002f0 67 c4 04 3d bc 58 69 be e8 30 ba 3d 01 c3 62 be
       0.032413866 -0.22787756 0.090913594 -0.221447
000300 a9 ea 18 3d f0 77 59 3e b7 2b 93 3c 99 1b 83 bd
       0.037333164 0.21237159 0.01796518 -0.06401748
000310 76 37 ee 3d 26 be 26 be 40 5f 42 be e7 bd 80 bd
       0.11631672 -0.16283473 -0.18981647 -0.06286221
000320 cb 7c 84 bd 35 21 c5 bd e7 d2 a8 bd ca 9c d3 3d
       -0.06469115 -0.09625474 -0.082433514 0.103326395
000330 e3 03 93 bd 92 cd f8 bd 64 42 10 3d 77 b6 c7 bc
       -0.07178476 -0.121485844 0.035219565 -0.024378998
000340 a6 2b 75 3c 1f 98 3c be 16 45 a7 3d 79 75 0a 3e
       0.01496402 -0.18417405 0.08167474 0.13521375
000350 ba 67 2d 3e ad 06 a3 be a3 43 0e 3c 5c 2a dd 3d
       0.169341 -0.3184103 0.008683118 0.10799095
000360 01 7a 9f 3c b6 72 63 bd 86 84 28 3d a5 c5 ff 3c
       0.019467356 -0.05552932 0.04114201 0.031222174
000370 e4 08 dd bd 91 97 26 be e9 82 8c bd d8 be 92 bd
       -0.107927114 -0.16268755 -0.06860907 -0.07165307
000380 5d 76 05 3e 37 e7 13 be 61 9b d0 bb 9b b3 c5 bd
       0.13033433 -0.1444367 -0.006366179 -0.09653398
000390 78 bf c3 bd e3 fb b5 bc df 47 52 be 0a 56 23 bd
       -0.09558004 -0.022214836 -0.20535229 -0.039876975
0003a0 1a 4f c1 bd a0 d0 fc bd a2 ef c4 3c 2a a0 80 be
       -0.094389156 -0.123444796 0.024040047 -0.25122195
0003b0 cb 25 c9 3d 6d 9d ff bb cb ae b3 3b e1 2c b0 bd
       0.098216616 -0.007800749 0.0054834834 -0.0860231
0003c0 8c ec 48 3e 8e dd ea 3b bd 9e 16 bd 1e 4c 6c 3e
       0.19621485 0.0071675247 -0.03677248 0.23075911
0003d0 62 32 17 be 0f e6 6f bd 92 78 7e bd a2 68 81 bc
       -0.14765313 -0.05856901 -0.062126704 -0.015796963
0003e0 81 d4 bc bd d1 fe be bc 57 16 77 be eb ef 3c 3b
       -0.092202194 -0.023314865 -0.24129616 0.0028829526
0003f0 33 4c f6 3b 90 f1 62 3e ef 28 62 bc 70 bd 45 bd
       0.007516408 0.22162461 -0.013803705 -0.048276365
