onnx_model/hiragana.onnx (onnx, 564196 bytes, 10 tensors)

conv1.weight f4 [32, 3, 3, 3]
0.7695184 0.17915161 -2.0921996 1.9887232 -1.4062909 -1.6624507 -1.9473835 2.5828362
-1.4342941 1.1609921 1.5284698 2.5108483 -0.44919175 0.88219905 -1.384176 -0.39047515
2.6203096 -0.39423585 -1.536855 -0.6688224 -1.3279785 -1.1135951 -1.4843268 1.9808637
-2.8742297 2.3200226 -1.0273048 -1.9731207 -0.8648878 -0.33619958 -1.243799 0.069645576
1.8859774 0.7386258 -1.6481094 0.79857683 -0.1392399 -1.2618685 0.36600554 0.65601414
1.6016647 0.6043258 0.5276158 0.025968304 -1.5659513 0.5592697 -0.63652915 -1.779348
1.3418493 1.2331576 1.1081102 0.1772959 -0.8177706 1.3039153 0.20869121 -1.1069247
-0.63972235 1.2678509 0.5646202 -1.1567935 0.95864046 1.1572136 -0.7874027 -1.1140419
-0.7201913 -1.1364981 0.37267894 0.01297883 -1.1246803 -0.4237192 1.4293721 1.0960745
-1.3540943 -0.22479784 -0.43764997 -0.33422366 -0.87215257 0.94109607 1.7257679 -0.08556915
0.6319979 0.3687083 -0.8980842 1.6558918 -0.3101685 1.3825939 -0.38241714 0.37027398
-0.46225172 -0.85626185 -1.3439271 0.8481848 0.052628055 -1.0673113 0.05779685 0.61702055
-0.81658226 0.548485 0.7316065 -0.59890884 -0.89692575 0.9109984 -1.2615638 -1.3359905
2.0201247 -1.6099793 -0.6296027 2.0629256 0.97733706 0.09651972 -0.20515625 1.9697076
-0.73280066 -0.24667437 0.10224232 -1.5396203 -1.9177485 -0.7251476 -1.5277603 -0.040002104
1.5994056 0.034452446 -1.3061533 1.386672 -0.4221172 0.64064306 0.3247964 -0.31428567
-1.6626391 -0.505414 0.12457301 0.98752016 0.6074011 0.51245654 -0.82194066 -0.35340595
0.33819255 0.1414582 0.7363211 0.4132886 -0.13685344 0.51166654 -0.2874836 -0.029753486
0.06494223 -0.3495437 -0.4105251 0.4327674 0.30895367 0.071008146 0.49640784 0.3678897
-0.1056522 0.25191796 0.07504658 -0.21452376 0.84539545 0.26947498 0.16849726 -0.16867447
-0.0361872 0.08615304 -1.301879 -0.33897337 -0.49625593 -0.191532 0.9654039 0.8007165
0.8000047 1.3399339 0.6924095 0.8841802 -0.5418297 -0.7738815 -1.0056704 0.027645437
0.5827925 1.0951844 0.6326282 0.32411546 -1.3205581 -0.040114626 -1.1651093 -0.70092344
-1.2900356 -0.2723105 1.1215286 -0.72108793 1.0853146 3.066739 2.412154 -0.070453554
-0.37788928 2.8730807 1.5954286 -2.5966642 -1.595975 -0.18247078 -0.19447562 -0.8499172
-1.793105 0.09479026 2.0428607 0.80860335 -2.345826 -1.144461 -0.2731885 -0.7031316
-0.2833597 -2.092609 1.5737364 -2.1783388 -0.5472678 -0.84217566 1.373149 2.0188446
-0.38502517 0.21946412 0.50932896 0.54078346 0.27573785 0.396379 -0.33701196 -0.3445469
-0.15637338 0.28042147 -0.13676167 0.19710097 0.66588944 0.55408925 0.81655574 -0.061905965
0.19166583 -0.3921152 -0.038534176 -0.19630839 -0.28579575 -0.27212366 0.84580636 -0.20535682
0.13595296 0.105183005 0.46772265 1.6903255 -0.5070805 0.5261964 -0.9853739 0.85881
-1.0243365 -0.2678263 -0.49505866 0.7013532 -1.7038945 0.44503126 0.8634871 1.5367875
00000000: 28ff 443f 8573 373e 99e6 05c0 7b8e fe3f
00000010: 5701 b4bf 2fcb d4bf dd43 f9bf 304d 2540
00000020: f396 b7bf 649b 943f e6a4 c33f bdb1 2040
00000030: 76fc e5be ccd7 613f ae2c b1bf 5cec c7be
00000040: 27b3 2740 48d9 c9be aab7 c4bf f237 2bbf
00000050: 33fb a9bf 498a 8ebf 6cfe bdbf f18c fd3f
00000060: 61f3 37c0 407b 1440 b97e 83bf 388f fcbf
00000070: 4969 5dbf 5a22 acbe ce34 9fbf 57a2 8e3d
00000080: b567 f13f 9516 3d3f 40f5 d2bf 886f 4c3f
00000090: e894 0ebe e884 a1bf 1465 bb3e 8bf0 273f
000000a0: 5903 cd3f 18b5 1a3f d411 073f 7bbb d43c
000000b0: 1871 c8bf 4d2c 0f3f 93f3 22bf adc1 e3bf
000000c0: b8c1 ab3f 1cd8 9d3f 8ed6 8d3f 0e8d 353e
000000d0: 6a59 51bf b2e6 a63f 26b3 553e b5af 8dbf
000000e0: d8c4 23bf f048 a23f f38a 103f cf11 94bf
000000f0: 7669 753f 931f 943f 3993 49bf ed98 8ebf
00000100: 755e 38bf c578 91bf c6cf be3e 29a5 543c
00000110: 86f5 8fbf b9f1 d8be aaf5 b63f 2b4c 8c3f
00000120: f652 adbf 6831 66be a813 e0be 5d1f abbe
00000130: 6445 5fbf aceb 703f f6e5 dc3f e13e afbd
00000140: 9dca 213f 56c7 bc3e d9e8 65bf 43f4 d33f
00000150: 68ce 9ebe d6f8 b03f 2ecc c3be 8d94 bd3e
00000160: 42ac ecbe fa33 5bbf ce05 acbf a422 593f
00000170: 8490 573d a89d 88bf 64bc 6c3d 0ff5 1d3f
00000180: 890b 51bf 8369 0c3f 904a 3b3f 1752 19bf
00000190: ed9c 65bf 3137 693f ec7a a1bf bd01 abbf
000001a0: b949 0140 cd13 cebf a42d 21bf f906 0440
000001b0: c332 7a3f 22ac c53d 7b14 52be 611f fc3f
000001c0: d398 3bbf 3598 7cbe 6c64 d13d 4712 c5bf
000001d0: c878 f5bf 46a3 39bf a68d c3bf 3fd9 23bd
000001e0: 53b9 cc3f 021e 0d3d 0830 a7bf 787e b13f
000001f0: bf1f d8be 2f01 243f b74b a63e 0dea a0be
00000200: 5cd1 d4bf d062 01bf 2220 ff3d 1fce 7c3f
00000210: a37e 1b3f 5a30 033f b46a 52bf a0f1 b4be
00000220: 9327 ad3e 6bda 103e 8a7f 3c3f 909a d33e
00000230: 4f23 0cbe 94fc 023f 0d31 93be 95bd f3bc
00000240: 6f00 853d 64f7 b2be 5930 d2be b093 dd3e
00000250: 2d2f 9e3e b86c 913d 2b29 fe3e 0a5c bc3e
00000260: 2e60 d8bd 64fb 803e 05b2 993d 1eac 5bbe
00000270: d66b 583f a0f8 893e 8c8a 2c3e 00b9 2cbe
00000280: 0839 14bd 0171 b03d f9a3 a6bf eb8d adbe
00000290: 4215 febe f720 44be b624 773f c2fb 4c3f
000002a0: 1ccd 4c3f f482 ab3f c041 313f a259 623f
000002b0: 5ab5 0abf 191d 46bf cfb9 80bf af78 e23c
000002c0: e431 153f 012f 8c3f ecf3 213f 76f2 a53e
000002d0: 0c08 a9bf 3c4f 24bd 4d22 95bf b86f 33bf
000002e0: e31f a5bf 486c 8bbe 408e 8f3f 3899 38bf
000002f0: 97eb 8a3f 7445 4440 bb60 1a40 f449 90bd
00000300: b47a c1be 8ee0 3740 0137 cc3f bf2f 26c0
00000310: e948 ccbf 9fd9 3abe 9e24 47be 2c94 59bf
00000320: 7784 e5bf 6521 c23d 3bbe 0240 a100 4f3f
00000330: 0322 16c0 b37d 92bf 5ddf 8bbe 6f00 34bf
00000340: 8614 91be 4eed 05c0 3270 c93f e769 0bc0
00000350: be19 0cbf d398 57bf 59c3 af3f c034 0140
00000360: 0522 c5be 34bb 603e 6263 023f c970 0a3f
00000370: 832d 8d3e 30f2 ca3e d58c acbe 7468 b0be
00000380: 5820 20be 6793 8f3e 400b 0cbe d6d4 493e
00000390: bb77 2a3f cbd8 0d3f cc09 513f 1c91 7dbd
000003a0: 0c44 443e 53c3 c8be 03d6 1dbd 1105 49be
000003b0: d253 92be cb53 8bbe c486 583f 0f49 52be
000003c0: 4137 0b3e 306a d73d 5879 ef3e 965c d83f
000003d0: 07d0 01bf cfb4 063f 7741 7cbf f9da 5b3f
000003e0: 751d 83bf 8720 89be 5478 fdbe e28b 333f
000003f0: 3719 dabf 23db e33e 7e0d 5d3f 74b5 c43f

conv1.bias f4 [32]
0.758262 -0.1950229 0.381172 -0.15458721 0.20665878 -0.90110064 -0.11874713 -0.05656758
-0.9072857 -0.06764859 -0.30336973 0.45409685 -0.6621752 -0.8569173 -0.94760054 0.6278477
-0.24669635 -0.037230343 -0.8173348 -0.030172922 0.29795247 -0.6879419 0.040132955 -0.8849622
-0.33102265 -0.9212538 -0.28744605 -0.45595974 -0.769191 0.06807634 -0.3025812 0.2032984
00000000: 751d 423f 15b4 47be fa28 c33e 1c4c 1ebe
00000010: 5c9e 533e 88ae 66bf b231 f3bd 68b3 67bd
00000020: e043 68bf 588b 8abd 4753 9bbe 627f e83e
00000030: 5084 29bf ef5e 5bbf f395 72bf a0ba 203f
00000040: f89d 7cbe d87e 18bd da3c 51bf 342d f7bc
00000050: 3a8d 983e f61c 30bf 7462 243d e28c 62bf
00000060: cd7b a9be 4ad7 6bbf 212c 93be 8e73 e9be
00000070: b4e9 44bf 9c6b 8b3d eceb 9abe 752d 503e

conv2.bias f4 [64]
0.52438456 0.91794616 -0.75524056 0.31301337 0.6524659 0.2259709 0.44473857 0.6680246
0.7371149 0.63939977 -0.9041762 0.68646735 0.5145781 0.61106354 0.17820132 0.25829947
0.48293096 0.5174594 0.80397 0.47157142 0.43974277 0.3189814 0.23930365 -0.019681305
0.5760452 0.1437919 0.3906079 -0.48860773 -0.009010136 0.4948101 0.5384776 -0.273709
0.5303034 0.50577736 0.5451937 0.5887104 0.3683664 0.45788944 0.2539402 0.59146446
0.50104743 0.23887853 0.6309103 0.22851524 0.016883641 -0.49042422 0.5301329 0.2570229
0.3716057 0.8593998 0.5828593 0.8239265 0.7396285 0.78402686 -0.054387465 0.7392037
0.48141634 0.52885133 0.6346893 -0.892622 -0.45934618 -0.3832838 0.52166367 0.4899584
00000000: 113e 063f 85fe 6a3f 7257 41bf 4a43 a03e
00000010: 0108 273f ea64 673e c6b4 e33e a903 2b3f
00000020: 90b3 3c3f b4af 233f 1778 67bf 53bc 2f3f
00000030: 64bb 033f a96e 1c3f 687a 363e d43f 843e
00000040: ba42 f73e 3878 043f fad0 4d3f cf71 f13e
00000050: f725 e13e 8851 a33e 040c 753e b03a a1bc
00000060: b377 133f 2f3e 133e c2fd c73e cb2a fabe
00000070: 409f 13bc c057 fd3e abd9 093f 9623 8cbe
00000080: f7c1 073f a07a 013f d091 0b3f bab5 163f
00000090: 859a bc3e 7c70 ea3e 7304 823e 376a 173f
000000a0: a544 003f 939c 743e 5683 213f e6ff 693e
000000b0: 904f 8a3c e218 fbbe cab6 073f 8198 833e
000000c0: 1a43 be3e a001 5c3f 4436 153f d9ec 523f
000000d0: 4b58 3d3f fcb5 483f 64c5 5ebd 743c 3d3f
000000e0: 347c f63e cd62 073f ff7a 223f e082 64bf
000000f0: 6c2f ebbe c63d c4be c08b 053f d4db fa3e

conv3.bias f4 [128]
-0.14692917 -0.3499732 -0.0014719367 -0.20736045 0.049726844 -0.26002106 -0.05600947 -0.29955292
0.061126947 -0.0911991 -0.14612627 -0.33608556 0.021230876 -0.15544021 -0.5524581 0.20455205
-0.083388925 -0.18781233 -0.17130083 -0.21899086 0.014883578 0.08622998 0.038513422 -0.13447952
0.08458471 -0.02549529 -0.22847223 -0.09064901 -0.19428036 0.09594792 -0.14991802 -0.14745986
-0.121785164 0.1920749 -0.26741707 -0.07333797 -0.31242728 -0.3237952 -0.0868507 -0.15430349
-0.11766279 -0.14347315 -0.3900109 -0.19926909 -0.023413122 -0.29266885 -0.0012184978 0.1484127
-0.23307389 -0.2084988 -0.26751485 0.030379593 -0.044538558 0.14048779 -0.16998297 -0.032962143
-0.12956178 -0.032979548 0.13168281 -0.082030475 -0.04978484 -0.1438632 -0.25830376 0.14281034
0.17071998 -0.1979307 0.029226482 -0.12713706 0.3954659 -0.22861397 -0.018126607 -0.23530135
-0.07854891 0.14824563 -0.006799698 -0.124729335 -0.08549398 -0.024490356 -0.2857627 -0.38064888
-0.21635628 -0.23206633 -0.25957373 0.14431852 -0.07372129 -0.2120313 -0.12206456 0.01675862
-0.2256091 -0.14577872 0.06900585 -0.51166964 0.119037926 -0.016721785 0.031460702 -0.21011943
0.19497043 0.23636746 -0.13870674 -0.19324562 -0.0954721 -0.34269902 -0.128147 -0.11959958
-0.2241801 0.25285947 0.035404086 -0.23456493 -0.14178336 -0.14741254 -0.11763543 -0.09910548
0.0858196 -0.14603633 0.018918991 -0.2934069 -0.16529727 -0.11065197 0.16601884 0.15573514
0.034422934 0.013432205 -0.10547876 0.051085293 -0.09193969 0.20784235 -0.0036437511 -0.32904223
00000000: 9a74 16be b02f b3be 00ee c0ba 4c56 54be
00000010: 60ae 4b3d 7b21 85be 306a 65bd 005f 99be
00000020: 4060 7a3d 98c6 babd 20a2 15be 6813 acbe
00000030: 60ec ad3c b82b 1fbe e56d 0dbf 1876 513e
00000040: d0c7 aabd e051 40be 7c69 2fbe 243f 60be
00000050: 40da 733c 5899 b03d 40c0 1d3d 00b5 09be
00000060: c03a ad3d 80db d0bc a0f4 69be 30a6 b9bd
00000070: 6ef1 46be 5880 c43d 1c84 19be b8ff 16be
00000080: 806a f9bd 48af 443e e4ea 88be 3832 96bd
00000090: 78f6 9fbe 7cc8 a5be c8de b1bd bc01 1ebe
000000a0: 30f9 f0bd a0ea 12be 82af c7be 320d 4cbe
000000b0: e0cc bfbc b1d8 95be 00b6 9fba 80f9 173e
000000c0: ecaa 6ebe b680 55be b5f7 88be a0de f83c
000000d0: 106e 36bd 08dc 0f3e 0410 2ebe 5003 07bd
000000e0: d8ab 04be 9015 07bd dcd7 063e 98ff a7bd
000000f0: 30eb 4bbd e050 13be 6440 84be e03c 123e
00000100: 38d1 2e3e 58ae 4abe 606c ef3c 3830 02be
00000110: 827a ca3e c819 6abe 407e 94bc d6f2 70be
00000120: 40de a0bd b4cd 173e 00d0 debb 1872 ffbd
00000130: 7817 afbd 00a0 c8bc 7d4f 92be 69e4 c2be
00000140: 808c 5dbe cca2 6dbe d9e6 84be 3cc8 133e
00000150: 30fb 96bd bc1e 59be fcfc f9bd 6049 893c
00000160: 1206 67be 0447 15be f052 8d3d c8fc 02bf
00000170: 28ca f33d 20fc 88bc f0dc 003d 8c29 57be
00000180: 54a6 473e 500a 723e 2409 0ebe 2ee2 45be
00000190: e086 c3bd 3f76 afbe f838 03be a0f0 f4bd
000001a0: 788f 65be cc76 813e e003 113d ca31 70be
000001b0: a82f 11be 50f3 16be d8ea f0bd d0f7 cabd
000001c0: 30c2 af3d 8c8a 15be 00fc 9a3c 6e39 96be
000001d0: b043 29be 809d e2bd d800 2a3e 0879 1f3e
000001e0: 10ff 0c3d c012 5c3c 4005 d8bd d03e 513d
000001f0: e04a bcbd a0d4 543e 00cc 6ebb 3978 a8be

fc1.bias f4 [256]
-0.33767015 1.326624 -0.14805344 1.5678717 2.4938898 1.6161695 -1.3784004 0.32367653
-1.7707798 -0.22827017 1.8791349 -0.121543884 -1.2366198 2.1063669 0.8241217 1.347924
1.1951946 0.44557548 0.38380584 0.37201422 0.43302923 1.9804046 1.2001538 -0.38783145
-0.9381304 1.3732923 0.95654154 1.2299485 -1.1379435 1.0345678 0.0021710768 -0.445015
2.4553938 1.7998796 -0.057748616 0.94375265 -0.6335854 1.7054803 0.1513226 2.0748124
1.3643405 0.12043512 2.0610821 0.84262246 1.6868746 0.073799744 -1.974567 0.6725255
-0.9456246 -0.37711892 0.7890524 0.5958667 2.997495 0.4899962 1.4927328 -2.2632706
1.2899264 2.1033044 2.0725608 -0.75527406 0.13928655 -0.31287736 -1.1885575 -1.0867951
-0.10117221 -0.98882633 2.7789795 1.2609507 -1.3112752 0.59904766 0.33095726 0.3370579
1.3856757 0.70927227 0.9323935 1.9894598 0.13532434 -1.211794 -1.8289841 -0.7042871
-0.37129182 1.3943071 1.1714028 1.4808778 -0.11168878 0.28356352 -2.3986492 0.91637415
1.9708112 2.213214 0.43544757 -0.4386546 0.5609642 0.61456794 0.52461684 2.2095184
2.2645028 -1.1080297 0.2773639 3.1304526 -0.99801123 -0.560295 1.020304 -0.26856187
-1.5118144 0.9353429 2.1623247 1.3943864 1.1899308 1.3901194 0.80327946 0.37009197
1.4151977 -1.3960532 2.818183 2.3833406 2.3848639 -2.4087863 -1.6381702 0.5043611
2.8012211 0.55904865 0.46436438 -1.8002002 0.97881144 1.6239302 0.61578417 0.8474593
2.6869738 2.2724662 1.499363 1.6988008 0.23474166 3.3055842 1.1708028 0.97154397
0.36684245 1.5600071 0.7138969 1.4552937 2.5889091 -0.37820932 -1.9647198 0.8897878
1.1156627 0.6137917 0.07918534 1.2130387 1.634606 2.067782 1.6371634 1.0385084
-0.070073605 1.8289012 1.9547944 0.8269429 0.5777557 0.9165151 3.2104752 0.12486225
1.9919364 1.1877196 1.5179263 2.7978911 0.52908134 -2.2265897 0.65769327 1.8774064
1.3241602 -3.3608308 -0.010180637 1.2222211 1.6172336 -0.08695641 -0.013792574 3.0342462
1.7067834 1.4981049 -0.8121657 1.1834154 -1.6866055 0.9239048 0.6835989 1.2988855
-1.0558047 -0.1414222 0.3056854 -1.383642 0.1202292 1.3222885 -0.6717956 -0.40425608
2.3366885 2.376222 0.98674166 0.925766 2.3572783 2.7040243 0.29029799 0.1604651
1.0246644 2.2020702 1.439709 -0.21254697 2.5282133 -0.93202454 1.9241811 1.4934306
0.12685567 1.4606676 1.5287352 -0.03092593 2.2380981 -0.9137321 -2.6247244 1.0106649
1.6545258 2.9012508 -1.0907508 1.8748674 -0.023910403 0.8876364 0.7719935 1.0669572
-1.6916932 1.8645318 1.083905 -0.81733334 0.6469808 0.047613084 -0.1803295 0.21450587
-0.89569235 -1.1473715 -1.8940498 1.3602248 0.0024316162 -0.2506846 1.5294619 0.83951896
1.7661304 0.8607677 1.5730122 -0.5706061 1.8056366 1.9440625 1.7563622 -0.11389196
0.13977215 1.1659603 0.62899256 1.4905597 2.8814979 1.8289946 2.9985166 1.1925498
00000000: 1ae3 acbe d1ce a93f 529b 17be 05b0 c83f
00000010: e49b 1f40 a4de ce3f 6d6f b0bf eeb8 a53e
00000020: eaa8 e2bf a8bf 69be 7e87 f03f 00ec f8bd
00000030: 8f49 9ebf b7ce 0640 a4f9 523f c688 ac3f
00000040: 23fc 983f 7822 e43e 3382 c43e a678 be3e
00000050: 02b6 dd3e e67d fd3f a49e 993f d891 c6be
00000060: 5029 70bf 0bc8 af3f e8df 743f f46e 9d3f
00000070: 22a8 91bf b86c 843f a048 0e3b 02d9 e3be
00000080: 2c25 1d40 7462 e63f d089 6cbd c699 713f
00000090: a732 22bf 2e4d da3f 50f4 1a3e bac9 0440
000000a0: b6a2 ae3f b0a6 f63d c5e8 0340 1bb6 573f
000000b0: 82eb d73f 5224 973d 9dbe fcbf a22a 2c3f
000000c0: 7414 72bf bb15 c1be 57ff 493f b88a 183f
000000d0: f5d6 3f40 c8e0 fa3e de11 bf3f 6dd9 10c0
000000e0: 4f1c a53f 8a9c 0640 d6a4 0440 a459 41bf
000000f0: 22a1 0e3e 7631 a0be a722 98bf 1a1c 8bbf
00000100: 6033 cfbd b923 7dbf cdda 3140 d566 a13f
00000110: ded7 a7bf 305b 193f 3b73 a93e da92 ac3e
00000120: d25d b13f de92 353f 57b1 6e3f 9ea6 fe3f
00000130: 7792 0a3e 111c 9bbf 271c eabf 294c 34bf
00000140: f619 bebe a878 b23f 87f0 953f 678d bd3f
00000150: 16bd e4bd 3d2f 913e 7883 19c0 7f97 6a3f
00000160: 8b43 fc3f 4ca5 0d40 fcf2 de3e 5697 e0be
00000170: 5a9b 0f3f 5354 1d3f 4a4d 063f c068 0d40
00000180: 9ded 1040 ebd3 8dbf a402 8e3e 5659 4840
00000190: aa7d 7fbf 7e6f 0fbf 5299 823f f180 89be
000001a0: 2283 c1bf a272 6f3f 8763 0a40 417b b23f
000001b0: a74f 983f 6fef b13f b9a3 4d3f b27c bd3e
000001c0: 3325 b53f dfb1 b2bf 1c5d 3440 a788 1840
000001d0: 9ca1 1840 8e29 1ac0 90af d1bf cf1d 013f
000001e0: 3547 3340 d01d 0f3f 2bc1 ed3e f66c e6bf
000001f0: 6393 7a3f f2dc cf3f 08a4 1d3f 18f3 583f
00000200: 61f7 2b40 1670 1140 20eb bf3f 4e72 d93f
00000210: 1e60 703e b18e 5340 dedc 953f 1bb7 783f
00000220: c6d2 bb3e 50ae c73f f2c1 363f 1047 ba3f
00000230: b0b0 2540 a7a4 c1be f07b fbbf 22c9 633f
00000240: 09ce 8e3f 7421 1d3f ec2b a23d da44 9b3f
00000250: c53a d13f 8a56 0440 928e d13f d8ed 843f
00000260: c082 8fbd 6f19 ea3f b436 fa3f 88b2 533f
00000270: cce7 133f bca0 6a3f 6d78 4d40 c8b7 ff3d
00000280: c6f7 fe3f 3207 983f 694b c23f a610 3340
00000290: e071 073f 7280 0ec0 965e 283f da4e f03f
000002a0: 157e a93f da17 57c0 b0cc 26bc be71 9c3f
000002b0: 8301 cf3f 3416 b2bd 40fa 61bc 1731 4240
000002c0: e177 da3f e7c1 bf3f 17ea 4fbf 287a 973f
000002d0: b0e2 d7bf 0685 6c3f 5600 2f3f e141 a63f
000002e0: 9c24 87bf fbd0 10be cc82 9c3e 2e1b b1bf
000002f0: ba3a f63d c040 a93f ccfa 2bbf a7fa cebe
00000300: 4e8c 1540 0514 1840 1a9b 7c3f 00ff 6c3f
00000310: a6dd 1640 bc0e 2d40 f0a1 943e f750 243e
00000320: 3428 833f b8ee 0c40 6248 b83f eaa5 59be
00000330: 3fce 2140 2999 6ebf 914b f63f bc28 bf3f
00000340: 74e6 013e 28f7 ba3f 98ad c33f 6058 fdbc
00000350: 003d 0f40 59ea 69bf 7cfb 27c0 785d 813f
00000360: 80c7 d33f 18ae 3940 b99d 8bbf a8fb ef3f
00000370: c0df c3bc 243c 633f 5ea1 453f 0e92 883f
00000380: 6789 d8bf faa8 ee3f 66bd 8a3f c23c 51bf
00000390: 89a0 253f f005 433d 4ca8 38be 6da7 5b3e
000003a0: 184c 65bf 12dd 92bf 3970 f2bf d91b ae3f
000003b0: c05b 1f3b bb59 80be 68c5 c33f b7ea 563f
000003c0: 9010 e23f 465b 5c3f 7758 c93f 3e13 12bf
000003d0: 1a1f e73f 0ad7 f83f 7ad0 e03f 3040 e9bd
000003e0: 6e20 0f3e 303e 953f a805 213f a9ca be3f
000003f0: 766a 3840 7f1c ea3f b2e7 3f40 79a5 983f

fc2.bias f4 [46]
0.0062330198 -0.02911962 -0.061102364 0.022803636 0.08814865 0.04390878 -0.1262064 -0.062072854
0.01841994 -0.10046306 -0.044404987 -0.14959313 0.031163795 0.033937678 -0.026980374 -0.029802347
0.046430103 -0.10026694 0.014321281 -0.012758257 0.05821859 0.028320342 -0.03427796 0.052291185
0.0073693465 -0.008793267 0.09692381 0.09361819 -0.07709092 0.0042596874 -0.016460827 0.011396021
0.11601368 0.06364998 0.00789521 0.08567001 -0.08756907 0.066060185 0.08267882 -0.052074462
0.1130797 0.030955838 0.035366043 0.012487284 -0.0030466418 -0.046148293
00000000: 5c3e cc3b 458c eebc 7946 7abd b1ce ba3c
00000010: 4887 b43d b1d9 333d 403c 01be 1b40 7ebd
00000020: 6ae5 963c 94bf cdbd 01e2 35bd f12e 19be
00000030: 374b ff3c 3c02 0b3d f205 ddbc 0d24 f4bc
00000040: 7e2d 3e3d c158 cdbd cea3 6a3c 0208 51bc
00000050: 9e76 6e3d 1000 e83c 0c67 0cbd 482f 563d
00000060: 8f7a f13b a311 10bc fe7f c63d e5ba bf3d
00000070: d8e1 9dbd d994 8b3b dbd8 86bc 60b6 3a3c
00000080: 9598 ed3d ec5a 823d e95a 013c c273 af3d
00000090: 6a57 b3bd 904a 873d 8353 a93d 084c 55bd
000000a0: 5496 e73d 1997 fd3c fcdb 103d 7797 4c3c
000000b0: 2baa 47bb fe05 3dbd

conv2.weight f4 [64, 32, 3, 3]
-0.0026044876 0.02087454 -0.038629282 -0.05381112 0.006650503 -0.0020348448 -0.03714803 -0.062946446
-0.004218002 -0.024081483 0.009479052 -0.05045016 0.029081224 -0.02245 -0.018072244 -0.0056524123
0.0151240295 -0.019343192 0.040173035 -0.03165604 -0.07948307 0.03233385 0.017099528 -0.0039510797
-0.0033468788 0.027161205 0.015761916 -0.013713488 0.024123399 0.015882598 -0.016829774 0.0007744417
0.030143918 -0.08779643 -0.05568828 0.011652678 0.011060276 -0.042902574 0.028867152 -0.03134058
-0.043707386 -0.0075357235 -0.015722228 -0.021660227 0.023418346 -0.039498575 0.0051069474 0.0014436675
-0.0034622722 0.003978755 -0.024356663 0.03544942 0.025515895 0.0074742814 0.037543416 0.008327007
-0.06320655 0.026786407 0.0157982 -0.007011966 0.0054437793 0.02130646 0.026725486 -0.025623646
-0.006302234 0.017569825 -0.009783193 -0.028749894 -0.019485556 -0.006901519 -0.0009851571 0.020706424
0.0033252481 -0.017964194 -0.006807565 -0.0052437177 -0.026390841 -0.008966039 0.0071161324 -0.0036220227
0.011128586 -0.001248974 -0.011691664 -0.023340505 -0.022752421 0.018891174 -0.0050804545 -0.05143499
-0.027950985 -0.031526588 -0.023398405 0.011545926 0.013707032 -0.020011878 -0.015509123 -0.0057946295
0.0057481914 -0.039409883 -0.052897837 -0.022846663 -0.015680453 -0.017376093 -0.0016590977 -0.030457208
-0.017671507 -0.021127988 0.0070291148 -0.009594691 -0.029704055 -0.045209784 0.044826567 -0.023510111
0.0036091001 0.02256798 -0.01930265 0.0067368634 0.0434162 -0.009913276 0.014355542 0.035827354
-0.021179892 0.013683364 -0.027682267 -0.0096545415 -0.04815832 -0.018813962 -0.043619417 -0.0050926562
0.022679007 -0.0035828606 0.0129283145 -0.0012571536 0.018182468 -0.0035918688 0.0027392083 0.01637839
-0.011380511 -0.05497188 -0.008217927 -0.030785467 0.025690496 -0.033161275 -0.025305983 0.0024421157
0.015150585 -0.0012659908 0.010193412 -0.019421995 0.013361006 0.03990718 -0.027111208 -0.010970229
-0.02820957 0.019014161 -0.005332285 -0.03911203 -0.0099336 0.0016909707 0.016897338 -0.0013465803
0.003316461 0.06112552 -0.025946626 -0.051012848 0.0022642447 0.018802937 0.002711816 0.015846625
0.012968339 0.02220335 0.0071430826 0.015362975 0.0057706684 0.043316055 -0.022846285 -0.011680708
0.053481482 -0.03735633 -0.023505239 -0.004908139 -0.019791506 0.0042279013 -0.026375841 0.00016287992
-0.010086588 0.0006660028 -0.04209419 -0.02738196 -0.022418035 0.014880011 0.015147209 -0.010495676
0.01920189 0.012275036 -0.015585178 0.009684217 -0.013282843 -0.0011702745 -0.006288437 -0.010582909
-0.011759199 -0.04238764 0.0017934461 -0.039816976 -0.07996808 -0.009474278 -0.03322264 -0.012968665
-0.015482682 -0.013763343 0.017184388 0.0035877093 0.013502623 0.03863478 0.015465171 0.010616777
-0.013052578 0.041686077 0.017577339 -0.0232992 0.016539492 -0.02687305 -0.02052555 -0.016720418
-0.073887534 0.0010720894 -0.019636534 0.00598499 0.0016377822 -0.020746345 0.0029903795 -0.014825481
-0.0066577625 -0.013947779 0.020264743 -0.070433624 0.015134893 0.0064562554 -0.00067101844 0.022430798
-0.016424151 0.02462353 0.050937824 -0.008201026 -0.051664956 -0.037586838 0.011444384 -0.021554217
-0.0137133645 0.028172247 4.6981026e-05 0.003208366 -0.025844498 -0.042326692 0.022358226 0.016627675
00000000: 0db0 2abb 1501 ab3c bd39 1ebd 0d69 5cbd
00000010: 76ec d93b 085b 05bb 8828 18bd 11ea 80bd
00000020: 2a37 8abb 8846 c5bc 074e 1b3c d4a4 4ebd
00000030: bf3b ee3c 10e9 b7bc 3e0c 94bc df37 b9bb
00000040: c7ca 773c 9d75 9ebc 7b8c 243d c4a9 01bd
00000050: 05c8 a2bd 8070 043d 4f14 8c3c 0f78 81bb
00000060: 4f57 5bbb 2d81 de3c 221f 813c 8aae 60bc
00000070: 6f9e c53c 391c 823c 98de 89bc e703 4b3a
00000080: 61f0 f63c 9dce b3bd 6519 64bd e0ea 3e3c
00000090: 2936 353c 9cba 2fbd ce7a ec3c fb5e 00bd
000000a0: 8406 33bd 3bee f6bb e7cb 80bc ca70 b1bc
000000b0: d5d7 bf3c 42c9 21bd 2e58 a73b 7139 bd3a
000000c0: 4ae7 62bb 3760 823b a087 c7bc 6933 113d
000000d0: b606 d13c d1ea f43b 20c7 193d 006e 083c
000000e0: 7072 81bd 2b6f db3c 3a6b 813c a2c4 e5bb
000000f0: bb61 b23b e38a ae3c 68ef da3c aee8 d1bc
00000100: f882 cebb 98ee 8f3c af49 20bc e684 ebbc
00000110: 2ca0 9fbc 2326 e2bb 6320 81ba 85a0 a93c
00000120: 68ec 593b a529 93bc ff11 dfbb 7ed3 abbb
00000130: 9b31 d8bc 4be6 12bc 722e e93b 755f 6dbb
00000140: ac54 363c 9db4 a3ba 658e 3fbc 9634 bfbc
00000150: 4963 babc aac1 9a3c f179 a6bb 7fad 52bd
00000160: 77f9 e4bc 0622 01bd 03ae bfbc 202b 3d3c
00000170: 7693 603c f3ef a3bc fa19 7ebc e0e0 bdbb
00000180: 535b bc3b 426c 21bd 67ab 58bd ed28 bbbc
00000190: 4b74 80bc 4f58 8ebc 1576 d9ba 6581 f9bc
000001a0: d6c3 90bc 9a14 adbc 7d54 e63b 0d33 1dbc
000001b0: eb55 f3bc e52d 39bd 109c 373d 4798 c0bc
000001c0: a786 6c3b 7ce0 b83c 9720 9ebc e8c0 dc3b
000001d0: 2fd5 313d 4b6b 22bc 8233 6b3c b4bf 123d
000001e0: 7481 adbc 3030 603c ecc5 e2bc 152e 1ebc
000001f0: a941 45bd bd1f 9abc 46aa 32bd 4ce0 a6bb
00000200: 53c9 b93c 6dce 6abb 48d1 533c 13c7 a4ba
00000210: 66f3 943c 8f65 6bbb 4a84 333b f92b 863c
00000220: 5375 3abc 322a 61bd 7ca4 06bc ce31 fcbc
00000230: e074 d23c 1ed4 07bd 7e4e cfbc e70b 203b
00000240: 293a 783c 9aef a5ba 4502 273c e01a 9fbc
00000250: 1fe8 5a3c b675 233d 5318 debc 7abc 33bc
00000260: c217 e7bc 96c3 9b3c 73ba aebb f033 20bd
00000270: 8ac0 22bc 90a3 dd3a 496c 8a3c bd7f b0ba
00000280: fc58 593b c15e 7a3d 058e d4bc d9f2 50bd
00000290: b963 143b 9e08 9a3c b9b8 313b c8d0 813c
000002a0: 2879 543c cde3 b53c 8510 ea3b fdb4 7b3c
000002b0: e017 bd3b 2d6c 313d 2228 bbbc 7160 3fbc
000002c0: 660f 5b3d f302 19bd 0f8e c0bc 74d4 a0bb
000002d0: cc21 a2bc 358a 8a3b 2612 d8bc bfca 2a39
000002e0: 3742 25bc b196 2e3a f56a 2cbd 2250 e0bc
000002f0: 07a6 b7bc 4acb 733c 002c 783c 0ef6 2bbc
00000300: 484d 9d3c 3c1d 493c f958 7fbc 8daa 1e3c
00000310: 48a0 59bc e563 99ba 3c0f cebb f063 2dbc
00000320: a8a9 40bc a99e 2dbd 1112 eb3a 2017 23bd
00000330: 4ec6 a3bd 013a 1bbc 7714 08bd 867a 54bc
00000340: 13ab 7dbc a57f 61bc 46c6 8c3c c61f 6b3b
00000350: 1b3a 5d3c 813f 1e3d a161 7d3c fef1 2d3c
00000360: 7bda 55bc 05bf 2a3d 5afe 8f3c f7dd bebc
00000370: d47d 873c df24 dcbc 3325 a8bc 42f9 88bc
00000380: 5952 97bd 5a85 8c3a ccdc a0bc bc1d c43b
00000390: daaa d63a 3df4 a9bc 3efa 433b 93e6 72bc
000003a0: 5c29 dabb 3a85 64bc 3f02 a63c 813f 90bd
000003b0: 58f8 773c ff8e d33b 49e7 2fba cbc0 b73c
000003c0: f18b 86bc 49b7 c93c 2ea4 503d 995d 06bc
000003d0: a29e 53bd a8f4 19bd 3a81 3b3c 7892 b0bc
000003e0: 05ae 60bc 7cc9 e63c 7e0d 4538 7343 523b
000003f0: d7b7 d3bc c15e 2dbd 9928 b73c c336 883c

conv3.weight f4 [128, 64, 3, 3]
-0.0062057376 -0.007738622 -0.03956138 -0.012302729 -0.005047375 0.0010227418 -0.041424684 -0.016169246
-0.013783519 -0.013305452 -0.0117856 0.017911406 -0.012727479 0.01172466 0.0035580795 0.012601684
0.021248661 -0.004504494 -0.047185987 -0.04206674 -0.022202877 -0.022160614 -0.02422986 -0.018755082
0.0022994205 -0.03920836 -0.033496216 -0.02279896 -0.027972335 -0.022098865 -0.007115587 -0.00020719442
0.011587564 0.012506852 0.010062537 0.0048620696 -0.019161742 0.0042279377 0.020851167 -0.005431902
0.004482691 0.0032556793 0.0131749455 0.00015989084 0.012877507 -0.027800972 -0.008342376 0.0035701734
-0.027861267 -0.014361205 -0.00030966473 0.04098286 0.016838377 0.005760885 -0.024895629 -0.00054220494
0.0023910133 0.0022238484 0.0042464836 -0.00048373253 -0.010693975 0.011324705 0.004729565 0.033322457
0.015403933 0.0045953575 0.00063016056 0.005054684 0.006823497 0.010483975 0.018074797 0.012626457
0.021274533 0.018645365 0.013580691 0.0022743095 0.005925402 0.0068846643 0.015845215 0.023405278
0.0052474122 0.002813798 -0.004601392 -0.0058453046 0.006437111 -0.004706411 -0.009545072 0.0120836925
0.0051001986 0.0028850827 -0.023671124 -0.02346669 -0.032294687 -0.027315449 -0.016189432 -0.009105064
-0.031203533 -0.038508672 -0.01735428 -0.0010518348 -0.006304246 -0.016479356 0.008967956 0.004622717
-0.005784328 -0.0052368026 -0.0016829399 0.0058748536 -0.0036159414 0.010117316 -0.004914133 -0.013306475
0.013981347 -0.010317473 0.005551679 -0.0044407398 -0.020808 0.014899444 0.004808493 -0.013350306
-0.017830702 -0.0073252004 -0.012494178 -0.029361583 -0.017761143 -0.0046979366 -0.010883199 -0.011201978
0.0014126417 -0.010836737 0.009240422 0.01661854 -0.013788735 0.023021014 0.035849687 -0.004239168
-0.0016365258 -0.03352538 0.012281689 -0.0005755858 -0.0023581719 -0.014044948 -0.017078351 -0.007098612
0.007888852 -0.006070802 -0.021976136 0.037336506 -0.003775187 -0.013338264 0.0016294327 -0.00015677823
0.0117579 0.0033744373 -0.019314094 -0.015139117 -0.006995832 -0.03115263 -0.013056304 0.013981811
-0.004443444 0.016110705 0.0180116 0.004965905 0.014367903 0.008587639 0.007345817 0.012273504
0.0048131943 -0.0016675366 0.012544123 0.019518042 -0.027809788 -0.02610859 -0.002571269 -0.0308724
-0.00754195 -0.017272592 -0.014910427 -0.005038261 0.010591791 -0.0073261475 -0.026932716 0.009715765
-0.0058221985 -0.014215542 0.015029827 -0.0058551985 -0.014391969 -0.0048263157 -0.01983694 -0.020936895
0.019205138 -0.018187048 -0.036990166 -0.0045724614 -0.0158998 -0.020066446 0.011935436 -0.0010004276
0.0016577677 -0.002447696 0.009683549 0.02799209 0.010551618 0.002775558 0.02401266 -0.022501491
-0.022395568 0.0032332991 -0.031123407 -0.032533627 -0.008665328 0.00037191372 -0.04035676 -0.034249738
-0.029008893 -0.0022173857 -0.0007814449 -0.0030188174 -0.011378434 -0.0037430539 0.02938457 0.0079892585
0.026523443 -0.0109603545 -0.009900682 -0.012065135 0.0026923674 0.029359043 0.02264705 0.0141445305
0.009046602 0.0062668757 0.011890982 -0.031436007 -0.015962064 0.014777856 -0.025609205 0.030648362
0.0069012605 0.0019381508 0.010002448 0.0023908704 -0.013043983 -0.02395232 -0.007165878 -0.016983472
-0.030305846 -0.035128765 -0.021016974 -0.034862418 0.012790582 0.03135361 0.0062570693 0.017734801
00000000: 8059 cbbb 4494 fdbb 1d0b 22bd 6391 49bc
00000010: 7364 a5bb 850d 863a eeac 29bd 5e75 84bc
00000020: 45d4 61bc 1cff 59bc 6418 41bc f1ba 923c
00000030: eb86 50bc ca18 403c ab2e 693b 4b77 4e3c
00000040: ac11 ae3c 6f9a 93bb 1846 41bd 2d4e 2cbd
00000050: cfe2 b5bc 2d8a b5bc b37d c6bc 42a4 99bc
00000060: e0b1 163b f298 20bd 5433 09bd e2c4 babc
00000070: 3d26 e5bc ae08 b5bc df29 e9bb 5442 59b9
00000080: c4d9 3d3c 8ae9 4c3c 57dd 243c ff51 9f3b
00000090: 16f9 9cbc 838a 8a3b 11d0 aa3c 19fe b1bb
000000a0: 8ae3 923b 3c5d 553b badb 573c 5fa8 2739
000000b0: 2efc 523c ddbe e3bc 76ae 08bc 92f9 693b
000000c0: 503d e4bc 424b 6bbc 7f5a a2b9 a5dd 273d
000000d0: a3f0 893c cec5 bc3b ebf1 cbbc c222 0eba
000000e0: 8cb2 1c3b fcbd 113b 1626 8b3b 7b9d fdb9
000000f0: c835 2fbc 418b 393c 77fa 9a3b 217d 083d
00000100: c760 7c3c a794 963b 5c31 253a c3a1 a53b
00000110: a497 df3b fac4 2b3c 9911 943c 33df 4e3c
00000120: ee47 ae3c 2abe 983c 8c81 5e3c 950c 153b
00000130: e029 c23b c098 e13b d3cd 813c 6dbc bf3c
00000140: 7cf2 ab3b b267 383b 46c7 96bb f889 bfbb
00000150: 67ee d23b 3d38 9abb ef62 1cbc aefa 453c
00000160: 911f a73b a813 3d3b f2e9 c1bc 373d c0bc
00000170: 6f47 04bd a6c4 dfbc b39f 84bc 682d 15bc
00000180: 8d9e ffbc 45bb 1dbd 902a 8ebc b8dd 89ba
00000190: d993 cebb b7ff 86bc 55ee 123c 297a 973b
000001a0: 768a bdbb 7c99 abbb 1896 dcba d881 c03b
000001b0: 6ef9 6cbb 19c3 253c bc06 a1bb 6703 5abc
000001c0: 0512 653c 9e0a 29bc dcea b53b a083 91bb
000001d0: 8a75 aabc cc1c 743c 9090 9d3b 3ebb 5abc
000001e0: b111 92bc 3c08 f0bb 61b4 4cbc b487 f0bc
000001f0: d17f 91bc 26f1 99bb 724f 32bc 8088 37bc
00000200: 6428 b93a 928c 31bc 2465 173c 9b23 883c
00000210: 25ea 61bc 9196 bc3c 1fd7 123d b8e8 8abb
00000220: b280 d6ba e951 09bd 2339 493c e9e2 16ba
00000230: 8f8b 1abb c81c 66bc e6e7 8bbc 799b e8bb
00000240: 3e40 013c 94ed c6bb 4c07 b4bc 2aee 183d
00000250: 2169 77bb bc88 5abc b092 d53a d664 24b9
00000260: 35a4 403c aa25 5d3b 9738 9ebc 0f0a 78bc
00000270: 4b3d e5bb cd33 ffbc 1cea 55bc f713 653c
00000280: 4f9a 91bb 99fa 833c 108d 933c 08b9 a23b
00000290: 5a67 6b3c 2bb3 0c3c 2eb5 f03b cf16 493c
000002a0: 00b8 9d3b 3e91 daba de85 4d3c 4de4 9f3c
000002b0: 5ad1 e3bc afe1 d5bc bc82 28bb 1ee8 fcbc
000002c0: 7622 f7bb 407f 8dbc dd4a 74bc ff17 a5bb
000002d0: 3189 2d3c 2e10 f0bb 00a2 dcbc df2e 1f3c
000002e0: 24c8 bebb 4ee8 68bc aa3f 763c f7dc bfbb
000002f0: 4bcc 6bbc 1226 9ebb 1481 a2bc da83 abbc
00000300: 1854 9d3c 01fd 94bc 0083 17bd 96d4 95bb
00000310: 4c40 82bc 6362 a4bc d98c 433c c820 83ba
00000320: 7449 d93a 8669 20bb c0a7 1e3c ab4f e53c
00000330: b2e0 2c3c 23e6 353b 33b6 c43c 0c55 b8bc
00000340: e976 b7bc c2e5 533b 84f6 febc fb41 05bd
00000350: 05f9 0dbc 6afd c239 214d 25bd 7449 0cbd
00000360: 0fa4 edbc 8f51 11bb e1d9 4cba 5ad7 45bb
00000370: 9c6c 3abc 064e 75bb e9b7 f03c 61e5 023c
00000380: b147 d93c 0f93 33bc 7836 22bc d8ac 45bc
00000390: 6e72 303b 6082 f03c 4e86 b93c 76be 673c
000003a0: 3338 143c 5d5a cd3b 65d2 423c 0bc3 00bd
000003b0: e0c2 82bc d21e 723c 65ca d1bc 4612 fb3c
000003c0: f823 e23b 8d09 fe3a 4fe1 233c 26b0 1c3b
000003d0: 6eb6 55bc a837 c4bc becf eabb ec20 8bbc
000003e0: f743 f8bc 2ee3 0fbd ca2b acbc e5cb 0ebd
000003f0: 978f 513c a56c 003d 1a08 cd3b 9348 913c

fc1.weight f4 [256, 128]
-5.4112163 -4.0858455 2.0301838 -5.185095 4.679079 -11.999857 -0.5376128 -11.245503
1.4324615 0.04440118 4.1570024 -2.1334019 -7.997264 -4.9405346 3.7246199 2.3784387
1.2651281 3.1745055 -10.471517 2.617693 7.7236724 -10.15364 0.81622106 -3.6694622
-8.735979 0.2919807 -4.742749 -9.849202 -2.95735 3.8619947 -1.5542958 -5.891451
4.0358133 -0.08696576 -1.4556797 -2.4556818 -1.3649688 -1.1085386 -18.94923 7.839172
-3.9771702 -3.046816 0.8604046 3.8881686 0.14554198 10.2633505 0.91371363 9.264022
1.590722 5.7708106 -4.956994 -0.39155006 4.8944116 3.7630754 -8.41621 -3.860681
10.663373 -0.10565366 9.024247 1.3332915 -4.059624 7.6088834 -4.3652034 4.8288627
2.991212 -9.911977 5.0664783 8.723259 2.2453692 -4.29715 -3.2494094 2.4388492
-8.185441 4.5833526 -9.770079 4.3900247 -4.365519 2.050117 1.3081026 -1.6808479
-5.942931 1.9724435 3.3187525 9.334215 6.845937 -7.07699 1.453678 2.8613098
-1.8964738 -2.8750074 -0.88500917 1.4065888 2.2752578 6.3347087 -2.9015508 -0.86034024
5.8115125 4.0610147 -1.1802317 1.3594406 -2.6682227 -7.424264 -1.0583434 -10.390272
-7.0396404 -0.2793708 6.0666637 -0.025400238 4.679529 -0.76664877 -8.457755 1.4363047
9.829673 5.8337245 9.221983 -8.467779 4.3936014 2.1333082 8.132539 3.894585
2.6388464 0.95218813 10.974356 7.8038588 14.371842 11.098267 3.1986377 15.236778
-2.1180289 4.110687 0.21879607 -5.92568 7.670491 8.030344 -3.9810293 -3.6750066
-4.936421 5.359913 -7.939711 -4.8970194 1.3413695 -10.403288 -0.18722011 1.8239932
3.0388377 -0.32492828 6.985876 -1.2205243 0.96252626 -1.7089344 1.855291 1.6165282
0.43348554 -5.4570446 -3.1363769 -0.7436021 2.608479 -7.246582 -3.556647 -0.05140913
-8.26021 -2.0523717 0.38274884 -2.7871146 -3.5081527 -3.5991688 3.138712 -0.6864245
-1.3139176 -0.46093863 -6.5199895 4.132041 -0.06676125 4.8591447 5.944858 -7.2854276
-1.345253 7.9707427 -8.776353 -2.538677 -11.58485 4.276968 -8.131605 -2.9417624
-9.779595 0.3236869 1.0153438 2.6035311 2.4262059 -4.050853 -0.71859 2.2726781
-13.545145 -0.5406063 -8.492834 1.9009907 -3.9885197 -0.060126808 1.6184461 0.8731089
-9.59993 4.8768888 -0.81615436 -15.855443 4.117091 -5.2236013 4.70631 -0.13095993
7.9378595 2.3223388 10.438783 -1.9577718 -1.4599104 3.3184807 -9.388668 1.7015605
0.038280904 -4.147225 2.8607154 4.6780243 3.695112 -11.226744 -9.413532 -5.7836084
2.7067144 -2.4660432 6.8157263 0.38156775 1.2575475 -4.2942533 4.432196 5.4345937
7.342398 2.008687 -1.4255669 0.59622 4.429763 4.0669594 -0.26443577 -0.30953917
-2.4022284 1.0509951 0.3597525 -6.169028 -8.490782 -3.4994888 -8.43543 -4.811597
-3.2909486 2.788453 5.819939 6.576593 -6.455022 -7.3385496 6.0350075 -3.2022934
00000000: af28 adc0 3fbf 82c0 88ee 0140 4cec a5c0
00000010: 04bb 9540 6aff 3fc1 fea0 09bf 95ed 33c1
00000020: e65a b73f 03de 353d 2a06 8540 a889 08c0
00000030: 96e9 ffc0 dc18 9ec0 2c60 6e40 5738 1840
00000040: b8ef a13f 192b 4b40 558b 27c1 4888 2740
00000050: 5328 f740 4f75 22c1 ddf3 503f 78d8 6ac0
00000060: 92c6 0bc1 7f7e 953e 9ac4 97c0 5596 1dc1
00000070: 3945 3dc0 ec2a 7740 2af3 c6bf c486 bcc0
00000080: 6225 8140 1b1b b2bd b653 babf e429 1dc0
00000090: 4cb7 aebf 98e4 8dbf 0698 97c1 7fda fa40
000000a0: f589 7ec0 09ff 42c0 7a43 5c3f c1d7 7840
000000b0: f508 153e af36 2441 23e9 693f 6f39 1441
000000c0: c79c cb3f 7baa b840 b29f 9ec0 4079 c8be
000000d0: 059f 9c40 3ad6 7040 cca8 06c1 6615 77c0
000000e0: 2d9d 2a41 f260 d8bd 5163 1041 4ca9 aa3f
000000f0: 71e8 81c0 f97b f340 bfaf 8bc0 0b86 9a40
00000100: 0470 3f40 7597 1ec1 9720 a240 7892 0b41
00000110: 21b4 0f40 4182 89c0 53f6 4fc0 1b16 1c40
00000120: 91f7 02c1 d3aa 9240 3e52 1cc1 157b 8c40
00000130: 55b2 8bc0 1e35 0340 e86f a73f 0626 d7bf
00000140: 7e2c bec0 0779 fc3f 7166 5440 f258 1541
00000150: ea11 db40 b476 e2c0 1f12 ba3f b31f 3740
00000160: a7bf f2bf 1f00 38c0 f68f 62bf 1a0b b43f
00000170: d39d 1140 efb5 ca40 02b3 39c0 423f 5cbf
00000180: e9f7 b940 d5f3 8140 d511 97bf 2602 ae3f
00000190: 29c4 2ac0 9293 edc0 cc77 87bf 8e3e 26c1
000001a0: bc44 e1c0 b109 8fbe 1c22 c240 2914 d0bc
000001b0: b4be 9540 1843 44bf f752 07c1 d5d8 b73f
000001c0: 5746 1d41 dfad ba40 3e8d 1341 067c 07c1
000001d0: 6298 8c40 1f88 0840 e11e 0241 e140 7940
000001e0: dce2 2840 9ac2 733f f696 2f41 36b9 f940
000001f0: 11f3 6541 8092 3141 7bb6 4c40 d8c9 7341
00000200: c98d 07c0 bf8a 8340 140c 603e 2c9f bdc0
00000210: aa74 f540 4a7c 0041 2fc9 7ec0 4f33 6bc0
00000220: 29f7 9dc0 6884 ab40 1d12 fec0 62b4 9cc0
00000230: ffb1 ab3f de73 26c1 a1b6 3fbe 9c78 e93f
00000240: 517c 4240 005d a6be 4c8c df40 243a 9cbf
00000250: 1f68 763f 5dbe dabf 2d7a ed3f 65ea ce3f
00000260: d1f1 dd3e 1ca0 aec0 66ba 48c0 b55c 3ebf
00000270: 52f1 2640 00e4 e7c0 1ba0 63c0 6192 52bd
00000280: d229 04c1 0f5a 03c0 a8f7 c33e 1660 32c0
00000290: 9385 60c0 c858 66c0 a8e0 4840 84b9 2fbf
000002a0: 742e a8bf 2600 ecbe c1a3 d0c0 ae39 8440
000002b0: 1fba 88bd 1d7e 9b40 473c be40 3922 e9c0
000002c0: 4031 acbf 5310 ff40 f16b 0cc1 af79 22c0
000002d0: 8c5b 39c1 ecdc 8840 0e1b 02c1 d645 3cc0
000002e0: 3979 1cc1 4aba a53e c9f6 813f 41a0 2640
000002f0: f546 1b40 96a0 81c0 84f5 37bf 8f73 1140
00000300: eab8 58c1 2d65 0abf a6e2 07c1 aa53 f33f
00000310: e843 7fc0 8747 76bd 3e29 cf3f 1184 5f3f
00000320: 5099 19c1 790f 9c40 7eef 50bf e5af 7dc1
00000330: 36bf 8340 be27 a7c0 179a 9640 5c1a 06be
00000340: f202 fe40 33a1 1440 4105 2741 4498 fabf
00000350: 58de babf fd61 5440 fc37 16c1 bccc d93f
00000360: 70cc 1c3d 11b6 84c0 f615 3740 60b2 9540
00000370: b77c 6c40 bea0 33c1 d49d 16c1 5213 b9c0
00000380: cf3a 2d40 a7d3 1dc0 6e1a da40 d95c c33e
00000390: 51f7 a03f 866a 89c0 8dd4 8d40 31e8 ad40
000003a0: edf4 ea40 548e 0040 fa78 b6bf e0a1 183f
000003b0: 9ec0 8d40 8824 8240 2064 87be eb7b 9ebe
000003c0: 1cbe 19c0 0287 863f 7b31 b83e ad68 c5c0
000003d0: 3eda 07c1 a0f7 5fc0 85f7 06c1 9af8 99c0
000003e0: e79e 52c0 0476 3240 f13c ba40 7373 d240
000003f0: 8a8f cec0 66d5 eac0 c81e c140 60f2 4cc0

fc2.weight f4 [46, 256]
-0.0001445387 -0.16179626 -0.16610384 0.0099031525 -0.1387717 -0.020164365 0.0824726 0.0498565
-0.010282482 0.13714121 -0.055611 -0.09245438 0.010106452 -0.21788213 0.20657174 -0.19760248
-0.10772647 0.14192103 -0.002977973 0.017002393 0.017172305 -0.15822959 0.06648575 0.060705192
0.17728542 0.00926455 -0.035656426 -0.060320612 0.057505183 -0.10838318 -0.025785875 -0.013414088
-0.010427042 -0.017932331 0.059362866 -0.05160274 0.11301746 -0.056018773 -0.1720002 -0.0806382
-0.13229151 0.11428923 -0.14830454 -0.20289591 -0.007429679 -0.12155732 -0.13297236 0.16206075
0.061999165 0.034442358 -0.007318427 0.13169725 -0.2278316 0.054243475 0.0006635516 0.20718473
-0.26764962 -0.16470936 0.08481199 0.10348865 0.11456929 -0.019362975 -0.058431868 0.1061517
-0.021343352 -0.097815886 0.039488383 -0.0036712172 -0.12441288 -0.07866993 0.0030481948 -0.056042198
-0.19369185 0.03242866 0.10001741 -0.07701127 -0.012439292 0.20006697 0.06259217 0.12944832
0.1935488 0.057198755 -0.14592855 0.101966485 -0.017974127 -0.05733983 0.16074115 -0.031572588
-0.1500387 -0.006757171 -0.1603929 -0.008434473 0.063562036 -0.07786678 0.030866489 0.14921209
-0.06434849 0.17514355 -0.15043242 -0.18767457 -0.0052989465 -0.034385007 -0.23303783 0.00132362
0.04169487 -0.17429051 -0.16537526 -0.047321778 0.10219571 -0.114623524 -0.15821376 0.035062376
-0.16603586 0.19463548 -0.1362524 -0.08061811 -0.104424104 -0.018517617 -0.055487417 -0.09111728
-0.28706792 0.008956868 -0.17129833 -0.051959362 -0.11041558 0.04249777 0.19584174 0.06923799
-0.19389565 0.08020149 -0.10962216 -0.11099113 -0.12327474 -0.0071250135 -0.0818594 -0.062171414
-0.06268232 0.0008951993 0.08466754 0.032011718 -0.014334853 0.09034224 -0.12127524 -0.03968803
-0.21864484 -0.051701672 0.09433618 -0.19999331 0.014441946 -0.19441721 0.112462364 -0.14590551
-0.01727546 -0.15616064 -0.122902945 -0.026572894 0.14284833 -0.106073506 0.07289779 0.084446535
0.10673326 0.03302337 -0.241199 -0.031400327 -0.004059266 0.15018634 -0.095089495 -0.119332224
0.006154346 0.053030834 -0.102640264 -0.14099766 -0.26378635 -0.06677465 0.06674873 -0.2572509
-0.0035707427 -0.052137814 0.19108976 -0.11969014 0.06358008 -0.015742695 -0.1633228 -0.013515109
0.09883246 0.042230405 0.16975208 0.031883832 -0.1500002 -0.1581903 -0.10420031 -0.053429253
-0.09291494 -0.02789811 -0.08306719 0.16389632 -0.03494796 0.057910986 0.13881782 0.03158251
0.04107936 -0.089205004 -0.19507992 0.09323971 0.009199908 -0.090270184 -0.0790923 0.044409204
-0.05183601 -0.04562605 -0.14343235 0.12680067 -0.18756826 0.14532332 0.09645512 -0.07339928
0.1767402 -0.110858314 0.12980339 -0.024654102 -0.024165766 0.09450108 -0.10334631 -0.15530495
0.042145606 -0.120131075 -0.081225425 0.10971977 -0.06376048 0.14764798 -0.1574854 0.1408317
0.14432594 -0.17119457 0.15920997 0.13853475 -0.1861088 0.1679506 -0.14848368 -0.22609638
-0.16585419 0.006281362 -0.0368384 0.059697974 -0.087733574 -0.092597894 -0.17195892 -0.2017527
0.1317176 -0.12433518 -0.21360475 -0.0728525 -0.106054015 -0.1649344 0.029170431 0.023476837
00000000: 508f 17b9 ebad 25be 2017 2abe d540 223c
00000010: 2b1a 0ebe bd2f a5bc 65e7 a83d 5436 4c3d
00000020: db77 28bc bf6e 0c3e 5cc8 63bd b958 bdbd
00000030: 8895 253c 7e1c 5fbe 8b87 533e 4e58 4abe
00000040: b29f dcbd bf53 113e 192a 43bb 9a48 8b3c
00000050: efac 8c3c f006 22be ae29 883d 02a6 783d
00000060: 4f8a 353e 57ca 173c 790c 12bd bf12 77bd
00000070: 8e8a 6b3d 00f8 ddbd e63c d3bc c3c6 5bbc
00000080: 2fd6 2abc d3e6 92bc 7a26 733d 655d 53bd
00000090: b375 e73d f173 65bd d220 30be a425 a5bd
000000a0: 6d77 07be 7910 ea3d 25dd 17be f2c3 4fbe
000000b0: aa74 f3bb 0bf3 f8bd e829 08be 41f3 253e
000000c0: d6f2 7d3d 6e13 0d3d 6acf efbb a5db 063e
000000d0: b04c 69be 682e 5e3d 32f2 2d3a 3c28 543e
000000e0: 5f09 89be 92a9 28be e9b1 ad3d dbf1 d33d
000000f0: 4ea3 ea3d 1a9f 9ebc 4156 6fbd 1066 d93d
00000100: 41d8 aebc b253 c8bd 92be 213d ce98 70bb
00000110: 2ecc febd b31d a1bd 39c4 473b 818c 65bd
00000120: 2857 46be ead3 043d eed5 cc3d 16b8 9dbd
00000130: 2cce 4bbc 5bde 4c3e 5330 803d 1a8e 043e
00000140: a831 463e 3e49 6a3d 4b6e 15be ced3 d03d
00000150: 7a3e 93bc 2bdd 6abd 5499 243e 4252 01bd
00000160: bfa3 19be 426b ddbb 093e 24be be30 0abc
00000170: d02c 823d 9e78 9fbd b8db fc3c 0ecb 183e
00000180: 24c9 83bd d558 333e f50a 1abe c32d 40be
00000190: c9a2 adbb 4bd7 0cbd 78a1 6ebe 517d ad3a
000001a0: 3dc8 2a3d 3679 32be 2258 29be 7bd4 41bd
000001b0: fc4b d13d bdbf eabd ca02 22be 919d 0f3d
000001c0: 4e05 2abe 864e 473e c085 0bbe 1c1b a5bd
000001d0: 4edc d5bd 42b2 97bc c646 63bd b29b babd
000001e0: 91fa 92be d4bf 123c d468 2fbe 57d3 54bd
000001f0: 9021 e2bd 2412 2e3d bd8a 483e a6cc 8d3d
00000200: 958c 46be ae40 a43d 9581 e0bd 514f e3bd
00000210: 7877 fcbd f278 e9bb e7a5 a7bd 74a7 7ebd
00000220: 975f 80bd cfab 6a3a 2d66 ad3d b81e 033d
00000230: bbdc 6abc 5a05 b93d 275f f8bd ea8f 22bd
00000240: 6fe4 5fbe 22c5 53bd 5433 c13d 0ccb 4cbe
00000250: e99d 6c3c 4e15 47be ab52 e63d 4168 15be
00000260: 4485 8dbc 93e8 1fbe 8ab4 fbbd 66af d9bc
00000270: d546 123e 113d d9bd 704b 953d 4ef2 ac3d
00000280: f896 da3d 8343 073d dffc 76be a19d 00bd
00000290: 9703 85bb 73ca 193e 48be c2bd 7464 f4bd
000002a0: 65aa c93b dc36 593d 0f35 d2bd b161 10be
000002b0: 010f 87be 26c1 88bd 8fb3 883d 64b6 83be
000002c0: 1f03 6abb 768e 55bd 09ad 433e 1b20 f5bd
000002d0: 4636 823d d3f6 80bc 183e 27be 7a6e 5dbc
000002e0: ac68 ca3d caf9 2c3d 7dd3 2d3e 9f98 023d
000002f0: a799 19be a3fc 21be f966 d5bd a2d8 5abd
00000300: 304a bebd 948a e4bc 221f aabd 70d4 273e
00000310: 9825 0fbd 1234 6d3d 4226 0e3e a95c 013d
00000320: d542 283d 1db1 b6bd 08c3 47be 76f4 be3d
00000330: 36bb 163c 93df b8bd 25fb a1bd 6de6 353d
00000340: ff51 54bd 62e2 3abd eedf 12be 09d8 013e
00000350: e511 40be a3cf 143e 438a c53d 5d52 96bd
00000360: 62fb 343e af09 e3bd 2eeb 043e 66f7 c9bc
00000370: 49f7 c5bc c889 c13d 3ba7 d3bd 4308 1fbe
00000380: dfa0 2c3d 4807 f6bd 8459 a6bd c2b4 e03d
00000390: db94 82bd 0831 173e da43 21be 2f36 103e
000003a0: 2eca 133e a14d 2fbe f007 233e 0edc 0d3e
000003b0: 4e93 3ebe 3efb 2b3e 1b0c 18be cf85 67be
000003c0: aed5 29be e2d3 cd3b dde3 16bd dd85 743d
000003d0: a9ad b3bd f7a3 bdbd 0016 30be 4398 4ebe
000003e0: fbe0 063e 71a3 febd 34bb 5abe b133 95bd
000003f0: d932 d9bd 90e4 28be d4f6 ee3c 7f52 c03c
