onnx_model/hiragana.onnx (onnx, 564196 bytes, 10 tensors)

conv1.weight f4 [32, 3, 3, 3]
00000000: 4148 4f3e 7f0e 853f 4a10 333f 0e72 34bd
00000010: 6347 fc3d 98bc 0e3e 5071 6bbf 9717 103d
00000020: 6c4b 98be 47d6 a63d 40ad e43e 5d89 d33d
00000030: c6dc 59bf 580c f13d 3281 b4be 3517 a73e
00000040: 95bc 4e3f 747e 783e e1c2 38be d370 8c3f
00000050: 8ab3 213f d46f c43e 2d43 033f 56d7 dcbe
00000060: 90c8 023f 56d4 ebbe ad62 5fbf 4ae8 36bf
00000070: 8a1a 0abd d966 bc3e 32d4 21bf a278 5abe
00000080: 04f7 ef3e c74a 85bf a8cb d03d ae15 bbbe
00000090: f317 c43d 3db3 12b9 54fb d93e 2e83 1dbf
000000a0: 9964 1c3c 606e 03be 3ecc 93bf 8732 12be
000000b0: a292 b03e fe24 923e fb1e 07bc ee25 6fbd
000000c0: 1981 bbbe 23a3 0b3e e3a8 753c 4e6a 6abe
000000d0: f4da e8bd d628 17bd 8a7b 14be e57e ec3f
000000e0: 57b6 d43f 9dca dabf 0471 303e 76ca 18c0
000000f0: fec3 4f3e dcbf 08c0 f1e4 f23e fb63 7f3f
00000100: 644f 033f 7955 dc3f 697d af3f ecce 88bf
00000110: 141d 45bf 4b1e a93d 6b88 583e bed7 2d3f
00000120: 9d3a 553f 5ec3 403f f997 a3bf 779f a13f
00000130: 6c0e 9fbe 7c12 ae3f e9ac c0bf 30bc 25bf
00000140: c9bf 16c0 a34e a1bf 1232 bb3f 0e1c 103e
00000150: 6885 e1bf 0297 f53e 5661 eebe c2af c3bf
00000160: 9138 583f 2623 303e 8ce6 f13f 98f5 d73d
00000170: 0ca5 ea3f e7f4 27be 41c1 223f a67a 833e
00000180: 217f 39bf 5cbd c7bf f340 83bf f2ee 9fbf
00000190: bd0f bf3f 2ab1 04bf 0921 33be f73d a2be
000001a0: 19b1 c43f 66f4 b0bf 3053 d33d 1098 df3f
000001b0: 1603 18c0 6d48 333f 1119 a4bf 9caa cb3f
000001c0: 0939 54bf b6cb 3ec0 fb75 0240 ce09 b1bf
000001d0: 3660 efbe c282 34c0 c96b 6740 f883 b03f
000001e0: 235f 08c0 a1ec 21c0 33b9 6140 d5de 0fc0
000001f0: 5925 12bf 724d 1a3f df33 cebe 3e3b 7c3f
00000200: fbe6 cb3f 587b 5140 781c 0ac0 faec 06c0
00000210: 270d 3640 bd1c aebf d98c 0140 b4e2 b23f
00000220: 173e 29bf abff 9dbe 3738 803f b07d 69be
00000230: 0f49 9fbf 3aba 333f c78a f23e fe4e b9be
00000240: 86f1 fc3e 46f2 bbbf 667a e4bf 5810 8b3f
00000250: a2b2 45be a4c9 78bf e914 2d3f 3986 81bd
00000260: 000f 823f 963d 28be 4813 2dbf 1efc 6dbf
00000270: 6f94 1b3f e110 18be c51e 0f3f 8f27 863e
00000280: 7f7f d83f c55e 593e 0783 2340 a5f9 e03f
00000290: a0dc 4abf 0085 df3c 580c 94bf bc67 78bf
000002a0: a109 0640 2027 0ebe 2e55 3ebe e411 e83d
000002b0: 7a8c 1c3f bbdc 37bf 11aa f43e 7b49 c1be
000002c0: 6a39 b03f 4b89 0440 4148 3d3e eaed 62bf
000002d0: 6c46 cb3d 7e22 b8bf ffda 48be 70b3 05bf
000002e0: d36c f4bf aaf1 b6bf 339c b9be 94dd bf3c
000002f0: cd02 19bf af93 bb3f 26ee b83e def8 0bbf
00000300: ee62 963e 43b5 66bf 1840 91bf 4204 4dbf
00000310: 94b5 1abf 556e a93d b074 2e3f 7c54 e93e
00000320: f68b 21bf 8809 40bf 0cf9 43be 9767 f1bc
00000330: 4f4b b83e 292a 943d 503d 583f 0f1f 313f
00000340: a7d8 463f 9684 69bf 2cb6 e1bd 75b7 2abf
00000350: e16f 5ebf 5f49 a73c fe62 59be 1639 18be
00000360: 7625 313e f82a 143f 0269 623f 3f84 3b3f
00000370: f59f 0f3d eaf0 573f 1c73 4a3d b7fc 0fbf
00000380: 6d65 203f 7fad ab3d b80a d1be 068b 14bf
00000390: 7319 1e3f b73d 2a3e b45a 773f f985 c6be
000003a0: dc2b 02bf d5ed 3abe 34f0 18be c621 13be
000003b0: 8976 013e ed6a 193f e2ea 653e 1e0f 79be
000003c0: 3fda f93c 3af8 113f 0779 1abe 8951 4fbd
000003d0: 60a6 773f af50 073e d6ab 8d3f bf39 58bf
000003e0: c433 093f e96e bf3f 0200 28bf 4ba7 f8bf
000003f0: 8350 b43e 2ce6 833e 628e 50be 6b68 cf3f
0.20242406 1.0395049 0.6994673 -0.044054084 0.123183034 0.1393913 -0.91969776 0.035178747
-0.29745042 0.08146339 0.4466343 0.10328934 -0.851025 0.117699325 -0.35254818 0.32634893
0.80756503 0.24266988 -0.1804309 1.0971931 0.6316458 0.38366568 0.5127438 -0.43133038
0.51087284 -0.46060437 -0.8725994 -0.71448195 -0.033716716 0.36797217 -0.6321441 -0.2133508
0.46868145 -1.0413445 0.10195094 -0.36539978 0.095748805 -0.00013990416 0.4257456 -0.6152829
0.009545469 -0.12835073 -1.1546705 -0.14277087 0.34486872 0.28543848 -0.008247132 -0.058385782
-0.3662193 0.1363645 0.014993879 -0.22892115 -0.11369887 -0.03690418 -0.14500251 1.8476225
1.6618146 -1.7093083 0.17230612 -2.3873572 0.20289609 -2.1367102 0.47440293 0.99761933
0.51293015 1.7213584 1.3710147 -1.0688148 -0.76997495 0.08257731 0.2114579 0.6790732
0.8329256 0.75298107 -1.2780753 1.262679 -0.3106569 1.3599391 -1.5052768 -0.64740276
-2.3554556 -1.2602123 1.4624655 0.14073202 -1.7618837 0.47966772 -0.46558636 -1.5288012
0.84461313 0.17200908 1.8898482 0.1054489 1.8331618 -0.16402017 0.6357613 0.2567951
-0.7245961 -1.5604663 -1.0254196 -1.2494795 1.4926678 -0.5183283 -0.1749307 -0.316879
1.5366546 -1.3824584 0.10318601 1.7468281 -2.3751884 0.7003239 -1.282015 1.5911441
-0.8289953 -2.9811835 2.038451 -1.3831117 -0.4675309 -2.8204808 3.6159537 1.3790274
-2.1308067 -2.5300677 3.5269287 -2.2479756 -0.5708824 0.6027442 -0.4027395 0.98527896
1.5929865 3.2731533 -2.1579876 -2.108214 2.8445528 -1.360252 2.0242217 1.3975434
-0.66110367 -0.30859122 1.0017155 -0.22801852 -1.2444171 0.70206034 0.47371504 -0.3619308
0.49403018 -1.4683311 -1.7849853 1.0864363 -0.19306424 -0.9718268 0.6761003 -0.06324429
1.0160828 -0.16429743 -0.67607546 -0.92962825 0.60773367 -0.14850189 0.55906326 0.26202056
1.6913909 0.21227558 2.5548723 1.7576185 -0.792429 0.027285099 -1.1566267 -0.97033286
2.0943377 -0.13882113 -0.18587181 0.11331537 0.6115185 -0.7182118 0.47786 -0.37751374
1.3767521 2.0708797 0.18484594 -0.8864428 0.09925541 -1.4385526 -0.1961479 -0.52226925
-1.909571 -1.42925 -0.36251983 0.023421086 -0.597699 1.4654444 0.36119193 -0.54676616
0.29372352 -0.90120333 -1.1347685 -0.8008462 -0.60433316 0.08272997 0.681468 0.4557227
-0.6310419 -0.75014544 -0.19137973 -0.02946834 0.35994956 0.07234604 0.84468555 0.69188017
0.77674335 -0.91217935 -0.11021075 -0.66686183 -0.86889464 0.020420728 -0.21229169 -0.14865527
0.17299446 0.57878065 0.8844148 0.73248667 0.035064656 0.8435198 0.049426183 -0.5624499
0.62654763 0.08382701 -0.4082849 -0.5802463 0.6175758 0.16625105 0.96622777 -0.38774088
-0.50848174 -0.18254788 -0.1493538 -0.14368352 0.12642874 0.5992878 0.22452882 -0.24322173
0.030499576 0.5701939 -0.15085231 -0.050614867 0.96738243 0.13214372 1.1068065 -0.84463114
0.53594613 1.4955722 -0.6562501 -1.9426054 0.35217676 0.25761545 -0.20366815 1.6203741

conv1.bias f4 [32]
00000000: 84fd 7cbf 4c04 113f 5e89 ddbd 4b81 3dbe
00000010: e4f7 f63d 2056 a0be 4ee5 b53d 369d b03e
00000020: 5aa3 73bf f84e a4be 92d4 00be 7eea 6bbf
00000030: 4600 7ebe a9e3 db3e b79c 7dbf 0135 80bf
00000040: f043 14be 8653 74bf ec54 58be 2336 3cbe
00000050: 9843 42bd 28a0 4a3f 74da 9ebf 906a 41bd
00000060: 1171 8dbf 775f 52be 851e 8abf 60f5 6fbb
00000070: 7bc9 f53e 6eae 6ebe 7e39 97bf 34fa 033f
-0.98824334 0.5664718 -0.10817216 -0.18506353 0.12059 -0.31315708 0.08881627 0.34494942
-0.9517113 -0.32091498 -0.12581089 -0.9215468 -0.24804792 0.42947128 -0.9906725 -1.0016176
-0.14479041 -0.95439947 -0.21126145 -0.18380027 -0.047427744 0.7915063 -1.2410417 -0.047220767
-1.105013 -0.2054423 -1.0790564 -0.003661476 0.4800528 -0.23308727 -1.181442 0.51553655

conv2.bias f4 [64]
00000000: bcbd f6bd 6a18 fc3e 0af7 9b3d a02b cbbe
00000010: aabf 8f3e a477 c6be deee 0fbf 506f 023f
00000020: a03e ad3e 52c8 5d3f 30d0 9cbf 8aa8 e43e
00000030: 00b3 353f 88a0 b03e dd7e 97be 3243 7fbe
00000040: 5055 43bf 0581 723f fcb9 d5be 7044 c5bc
00000050: b637 d93e e05b c0bc dcc0 65be be1f 6b3e
00000060: fd47 7f3e 5ad6 3d3f dc30 37bf ecf7 e8be
00000070: 124c 313e b3b5 813e 41bb 173f e031 063f
00000080: 59b8 213f 1a23 203f 9c4f 9a3e df93 a93e
00000090: 3b5d 163f fe26 a6be b898 123f b408 003f
000000a0: e2fc 08bf a3d2 a93e eb61 093f 9c1f f2bd
000000b0: 046a 273d a09f 4ebd 7965 343f b4e6 14bf
000000c0: 00f0 a2bc d3ac 0e3f a0fc a73e 6f94 e93e
000000d0: 02d4 b33e 29de 103f fdef 3e3f 99bc 083f
000000e0: 90a0 f43e 8325 e63e e020 4b3d a288 24bf
000000f0: 6497 38bf 408d b83e 4653 013f 1de7 443e
-0.12047908 0.49237376 0.07615478 -0.3968172 0.28075916 -0.38763154 -0.5622386 0.509511
0.33836842 0.8663379 -1.2251034 0.44659835 0.7097626 0.34497476 -0.29588977 -0.24927977
-0.7630205 0.9472812 -0.41743457 -0.024080485 0.42425317 -0.02348131 -0.22436851 0.22961327
0.24929805 0.741552 -0.7155893 -0.4550165 0.17314175 0.25333938 0.592701 0.52419853
0.6317192 0.6255356 0.30138862 0.3312063 0.5873601 -0.32451624 0.5726428 0.5001328
-0.5351087 0.33168516 0.53665036 -0.11822435 0.04087259 -0.0504452 0.70467335 -0.58164525
-0.019889832 0.5573246 0.32809925 0.45621058 0.35122687 0.5658899 0.74584943 0.5341278
0.4777875 0.44950494 0.0495919 -0.64270985 -0.72106004 0.36045265 0.5051769 0.19228788

conv3.bias f4 [128]
00000000: 40f3 3f3c f005 713d 80ca b5bb 9c55 07be
00000010: 8068 ac3d 405a 7b3c c8ce a5bd b0ec 50be
00000020: 889a c6bd d046 34bd 28bb 1fbe 102a 733d
00000030: 5094 97bd 0098 413d 90b1 ce3d 3034 113e
00000040: 80c4 043d 0036 3b3b 2091 063d e0cf 92bc
00000050: c4ff 2abe 56d1 5ebe 905e 4cbd e07b 6c3d
00000060: c0f3 ef3c 00f2 9bbc c01e d33b b013 fcbc
00000070: 408b 543c 80ee c1bb 603a ae3c c086 64bc
00000080: 9861 a33d e00d cabd 00b5 033d 7c02 1cbe
00000090: 6889 85bd d806 19be e8e9 9cbd 28b2 8fbd
000000a0: 541c 4fbe 681f 08be a0e6 353d d803 6e3e
000000b0: c0c3 2abe 4854 ebbd e02c 93bc 509f 2abd
000000c0: e000 293d 7076 173d 40df 79bc 8054 f93c
000000d0: b001 b6bd 78dc 00be 3c35 463e ed72 a3be
000000e0: e050 78bd a0b4 3b3d a0c6 eebd 00d8 623a
000000f0: e059 b5bc 805f 663c 005c a13a 8856 a63d
00000100: 8031 52bc 14d2 0fbe c296 94be 6405 0fbe
00000110: 00b5 84bc 4074 f43c 8c15 923d 000b a13d
00000120: 4cbd a7bd f433 29be 6c66 15be e041 e03c
00000130: 3c0d c7bd a447 39be b044 cfbd 9067 1f3d
00000140: 2922 89be cca3 b4bd b08d 06bd cc8a 3ebe
00000150: b010 efbd 122f 41be 0892 a63d e083 64bd
00000160: 0058 773c 80de e2bb f871 c83e 4c43 163e
00000170: e87d 20be d86b 173e f006 d13d 20fb 92bc
00000180: e0b4 37bd 01b2 80be e09b f5bd 8066 f83c
00000190: 1041 fa3d 00e7 ee3b 5088 1fbe 3841 d0bd
000001a0: 50ff 1e3d 9042 60bd 60ff f7bc 4853 ff3d
000001b0: 60a7 923d f02b dbbd 00b7 f3bb 0080 e938
000001c0: 9ea0 8dbe 8047 85bb 4018 033c f009 b8bd
000001d0: 6071 debc 94d8 40be 2000 16bd 80f7 81bc
000001e0: 90ad 37bd 30bc 0fbe d06e 393d 80ff 67bc
000001f0: 807b 87bd 50bc 37bd 6083 c0bd 00d8 c6bb
0.01171571 0.058843553 -0.0055478215 -0.13216251 0.08418369 0.0153413415 -0.08096081 -0.20402789
-0.09697443 -0.044012845 -0.15598738 0.059366286 -0.07401335 0.0472641 0.10092461 0.14180064
0.03241396 0.0028566122 0.032853246 -0.017921388 -0.1669913 -0.21759543 -0.04989487 0.057735324
0.029291034 -0.019036293 0.0064428747 -0.030771106 0.012972653 -0.005918324 0.02126807 -0.0139481425
0.07977599 -0.09865928 0.032155037 -0.15235323 -0.06520349 -0.14944017 -0.076618016 -0.070164025
-0.2022565 -0.1329323 0.044409394 0.23243654 -0.16676235 -0.11490685 -0.017965734 -0.04165584
0.0412606 0.036978185 -0.015250981 0.0304358 -0.088870406 -0.12584102 0.19356245 -0.3192362
-0.060624003 0.045826554 -0.116589785 0.00086534023 -0.022137582 0.014060855 0.0012310743 0.08121973
-0.0128291845 -0.14044982 -0.2902127 -0.139669 -0.016199589 0.029840589 0.07133016 0.07863426
-0.081904024 -0.16523725 -0.14589852 0.027375162 -0.09719321 -0.18093735 -0.10120523 0.038917124
-0.26783875 -0.08820304 -0.032849967 -0.18607634 -0.11673105 -0.18865612 0.08133322 -0.05578983
0.015096664 -0.0069234967 0.3914945 0.14674109 -0.1567303 0.14787233 0.10206401 -0.017942011
-0.04485023 -0.25135806 -0.119926214 0.030322313 0.12219441 0.007290721 -0.15579343 -0.101686895
0.038817704 -0.05475098 -0.03027314 0.124670565 0.071608305 -0.1070174 -0.007437587 0.00011134148
-0.27661604 -0.0040673614 0.008001387 -0.089862704 -0.02715367 -0.18832618 -0.036621213 -0.015865088
-0.044843256 -0.14036632 0.045271695 -0.014160037 -0.06615353 -0.044857323 -0.09400058 -0.0060682297

fc1.bias f4 [256]
00000000: 9036 2040 936e 603f a60f b03f 99af 463f
00000010: 2564 fc3f 56a1 afbe 9c35 fa3e 4295 ac3f
00000020: 28a3 ac3f 94da 1240 bc63 bdbd ceaf b43f
00000030: c87c 823f 3f87 1b3f 111b 0140 c4b4 c13f
00000040: 62ea 4fbf e2be 2b3f 64d2 7e3f 8baa 1040
00000050: 67d1 a13f 1853 873f 607e e43e 2a2d 1e3f
00000060: 1cba c83e 3305 e6bf 8fbe ce3d 0b12 afbf
00000070: 0759 2840 68a3 c13f c2e9 88bf 5605 7d3f
00000080: 6ba4 d83f 0a5a c93f b8fa a53e 3850 e6bd
00000090: 5c31 ae3f aa97 573f dd86 fe3e 7911 94bf
000000a0: 204c bebd 3601 073f c2cd e43f fe15 0f40
000000b0: 38b6 20bf 6c3a 3d3e 14dd fd3f ad3f a83f
000000c0: 98a2 01be c662 05be a09f 0840 3f4b 0140
000000d0: 91d0 bcbf 2320 5b3e 3a1e 4040 a5cd b0bf
000000e0: 055a b03d dfb4 b03d ecd8 25bf 7667 2a40
000000f0: 5688 ad3f 9e60 2bbe 2805 f83f 0ecf e13e
00000100: 8450 0840 e42f 0640 c0e2 f13c 47ea 2440
00000110: 50ce 0d40 dc85 773f 34cd be3f f032 773f
00000120: e873 8cbe 4820 dabe 4c5e 523f 9268 803f
00000130: d435 0340 de9c 1fbe 88cb bcbe 46a2 b63f
00000140: 8aee 9f3f 96b6 2b40 ed32 0ec0 34a3 f63f
00000150: b218 843f d48d 9f3f 1c87 c2be 480d d13e
00000160: 4471 8c3f f451 203f 942d b83f daab aebf
00000170: 66f9 9b3f eef5 ed3f d08c f53e e879 c9be
00000180: a473 0740 bf15 0d40 26e7 723f babf 963e
00000190: 22e2 4140 0cbb 6ebe 2316 853e aee4 6e3f
000001a0: 900c dc3f e8b2 94be 5289 d63f 2d7d 2640
000001b0: 5072 6abe 663e 01bf 3a71 e53e 89a4 1340
000001c0: ba9a 0fc0 3737 0bbe 54aa 773f 08dc f43f
000001d0: e458 273f 8491 ea3f 2eb2 723f b8d0 3d40
000001e0: 8aaf aa3f d862 1d40 8629 293f d40c bf3f
000001f0: 062f 0140 89a0 e23f 38dc 0b40 e856 8f3f
00000200: 24b9 04bf 78d7 4b3d 9929 afbe 6075 19be
00000210: be9b 71bf aaa2 aa3f aae6 de3f dec8 8c3f
00000220: 336b 023f d877 dcbf 4e19 bbbf 4c8d 5140
00000230: 4ed2 a33f 1d67 df3f bc58 1dbe c4fd 7abf
00000240: dc7c c13e 5db5 9e3f b28f 38bf d0e5 c43c
00000250: 318b 613e c7b5 0840 1075 823f 8b15 dabe
00000260: 40c0 1b3f 543d 7c3f 7217 ddbe e312 e53f
00000270: d00a e33f 98d7 c1bf c583 3fbf 2c03 183e
00000280: 7916 183f 0660 05bf cc31 1f3f 3226 b63f
00000290: c452 9e3d 6653 0a40 60ad 4f3f ac14 0240
000002a0: 9242 b13f fbe1 dd3f 0016 09bf 76b7 d13f
000002b0: 8c62 613f 7d27 6f3f 4ff2 9d3f 0ab0 9bbe
000002c0: bf27 b0bf 9c3c 1b40 2960 653f 1a50 e2be
000002d0: 40dd 1540 ae01 c1bf c3ad 123e e4e5 cd3f
000002e0: 3003 543f 5aec 263f 195e 6e3f 0789 1840
000002f0: cd37 a03e f5cf fc3f 7f5d a53d 2965 513f
00000300: be48 213f 78cc 9b3f 0339 2040 6aaa f23f
00000310: 44ae ae3f a47b 80bf 745e 08c0 f495 12c0
00000320: 5ab9 9c3f 2049 573f 8b3a de3f aeef e63f
00000330: 0767 81bf b739 3d3f 981e f93f 85a9 9f3f
00000340: 18ba ad3f 6f59 2940 063f 4c3f ec2a 903f
00000350: fcef dc3f 6873 c83f 8f3b 1640 0f44 2240
00000360: 0027 333e 86a7 f03f ec33 0940 a061 0040
00000370: 24c1 c23e e99a c23f 2866 1abf 80fd d0bc
00000380: b185 843f b427 593f 121c 763f 5ce6 d63e
00000390: f761 0640 3ae5 1940 bc52 2f3f acc6 2040
000003a0: 351e a33f 2f3e a23e 9834 08c0 9ad3 0f3f
000003b0: ca68 8abf 3a16 653f dee2 eb3f 2b7d fcbe
000003c0: 5967 a23f ec8e 9e3f 3323 f13f 49f0 9a3e
000003d0: 1905 5bbe 801e 72bd 87ae 293f e93c cfbf
000003e0: 1b59 933f ed6f 9c3f 9dbc 353f 93e2 593f
000003f0: 98a9 a0bf 176f ff3d d657 823f 67f0 923f
2.5033302 0.8766872 1.3754776 0.7761169 1.9718062 -0.34302777 0.48869026 1.348305
1.3487291 2.294591 -0.092475384 1.4116151 1.019433 0.60753244 2.017277 1.513329
-0.81217015 0.6708814 0.9953978 2.260409 1.264203 1.0572233 0.44627666 0.61787665
0.3920449 -1.7970337 0.1009494 -1.3677381 2.6304338 1.5127993 -1.0696337 0.98836267
1.6925176 1.5730603 0.32417846 -0.11245769 1.3608813 0.84215796 0.49712268 -1.1567832
-0.092918634 0.5273622 1.7875292 2.2357173 -0.62778044 0.18479317 1.9833093 1.3144432
-0.12659681 -0.1302596 2.1347427 2.0202177 -1.475115 0.21398978 3.001845 -1.3812758
0.0861092 0.086282484 -0.6478412 2.6625648 1.3557231 -0.16736075 1.9376574 0.44103283
2.1299143 2.096673 0.029527068 2.5767992 2.2157173 0.9668863 1.4906373 0.965621
-0.2743218 -0.42602754 0.82175136 1.0031912 2.0501604 -0.15587184 -0.36874032 1.4268272
1.2494671 2.6830192 -2.2218583 1.9268556 1.0320036 1.2465158 -0.37993705 0.40830445
1.0972066 0.6262505 1.4388909 -1.3646195 1.2185485 1.8590677 0.47958994 -0.3935082
2.1164331 2.2044523 0.94883955 0.2944315 3.029427 -0.2331354 0.2599345 0.9331769
1.7191334 -0.29042745 1.6760657 2.6013901 -0.2289517 -0.5048584 0.44812948 2.3069174
-2.2438188 -0.13595282 0.96744275 1.9129648 0.6537001 1.8325658 0.9480313 2.9658642
1.333482 2.459158 0.66078985 1.492579 2.018495 1.7705241 2.185316 1.1198397
-0.51845 0.049766034 -0.34211424 -0.14986181 -0.9437827 1.3330891 1.7414143 1.09988
0.50944823 -1.7224073 -1.4617097 3.274249 1.2798555 1.7453343 -0.1536588 -0.98043466
0.37790573 1.2399098 -0.7209426 0.024035364 0.22025754 2.1360948 1.0191975 -0.4259456
0.60840225 0.9853108 -0.4318195 1.7896389 1.7737675 -1.5143919 -0.7481044 0.1484496
0.5940929 -0.52099645 0.6218536 1.4230406 0.0773063 2.1613402 0.81123924 2.0325117
1.3848441 1.7334589 -0.53549194 1.6384113 0.88040996 0.9341963 1.2339572 -0.30407745
-1.376213 2.4255743 0.89599854 -0.44201738 2.341629 -1.5078638 0.14324097 1.6085782
0.82817364 0.65204394 0.9311233 2.3833635 0.31292573 1.9750963 0.080744736 0.81794983
0.6300162 1.2171774 2.5034797 1.8958256 1.3646932 -1.0037732 -2.130765 -2.2904024
1.2244065 0.84095955 1.7361616 1.8041894 -1.0109566 0.7391619 1.9462461 1.2473608
1.3572416 2.6460836 0.79783666 1.1263099 1.7260737 1.5660219 2.3473852 2.535404
0.17495346 1.8801124 2.143794 2.0059586 0.3803798 1.5203525 -0.6031213 -0.025511503
1.0353299 0.8482621 0.9613658 0.41972625 2.0997293 2.4046159 0.6848562 2.512126
1.2743593 0.31688067 -2.12821 0.56182253 -1.0813229 0.8948704 1.8428609 -0.49314246
1.2687789 1.2387366 1.8838867 0.30261448 -0.21388663 -0.05911112 0.6628193 -1.6190463
1.1511568 1.2221657 0.70990926 0.8511135 -1.2551756 0.124723606 1.0183055 1.1479615

fc2.bias f4 [46]
00000000: 341a 843d 432f 06be 092c 8ebc 34de 0cbd
00000010: ce61 bd3c 0a27 8ebc a6f5 ea3c c5a8 dfbd
00000020: 6ef1 0bbd 4ab7 d6bd 486f 8c3c 574f 25be
00000030: 40b1 273c 3b4e 72bd be2a d2bc 336d c53c
00000040: 992f 123d 6937 13be fb19 1abd 78ff fd3c
00000050: 45f6 ac3c 1e26 263d 3ad5 a3bd 07cd 313c
00000060: d04e 013d 1f60 65bb 646c 023d 90de 2abb
00000070: 3df1 99bc 7669 8bbc cf04 a7bd 2bca df3d
00000080: b56f 283e 0a7c 1a3d 4f96 11bc fb91 d63c
00000090: a812 e3bd 3eb5 cf3c 1cb1 e53d ad80 11be
000000a0: bf17 883d b1ea f13b 21a1 6cbd 99e0 d83d
000000b0: 4311 2abd c2b4 22bd
0.0645031 -0.13103966 -0.017354982 -0.034391597 0.023117926 -0.0173526 0.028681587 -0.10920862
-0.034165792 -0.10484178 0.017142907 -0.16143547 0.010235131 -0.059156638 -0.025655147 0.024099922
0.035689924 -0.14376606 -0.037622433 0.031005606 0.021113524 0.040563695 -0.07999654 0.010852105
0.031569302 -0.003499992 0.03184165 -0.00260726 -0.01879179 -0.017018061 -0.08155214 0.10927232
0.16448863 0.03771595 -0.008885934 0.026192656 -0.11087543 0.025354978 0.112154216 -0.14209242
0.06645154 0.0073827137 -0.057770852 0.105897136 -0.04152037 -0.039723165

conv2.weight f4 [64, 32, 3, 3]
00000000: 0fdb 17bc 60f7 c9bb 85c3 b63a 4ce7 ff3c
00000010: 4532 f2bc 5784 70bc 2793 2c3d 2258 61bc
00000020: b35b 343d 7c07 b13d 1831 993d ff42 ac3d
00000030: ccdb a33d 70e9 483c a846 283d 02d0 9d3d
00000040: 6376 8d3d 0402 603c c555 77bd 13ac b7bd
00000050: fb61 98bd 7ed1 29bd bf3f a9bc 789d 6abd
00000060: f3b7 1fbd 0e18 1fbd f938 acbc ce87 c9bc
00000070: 789f 3f3d f396 193d de37 103c 2d61 923b
00000080: 826d 573d 73fe 0cbc eab1 b13d 83e6 d53c
00000090: 1788 e33c 4e62 8339 e709 e0bc dcb0 bebc
000000a0: 4250 61bd aeb0 c0bc 0b52 aabc a6f7 43bd
000000b0: 290f 70bd 8647 3e3d 2c09 263d e42a 02bd
000000c0: 618b ae3c 4348 b83c 2fe0 11bd 5621 c1bc
000000d0: 655a 84bb 274b 17bd 520d 85bd b640 01bc
000000e0: e687 41bd 9cf1 14bd afee c0bc 0494 aabd
000000f0: df9b c7bb 5c77 02bc 690c 07bd 4db3 e23c
00000100: 453b 383d 6e3e d73c 3190 0b3d b3a6 433d
00000110: ffae 8d3d f96a 92bc 8a5b 07bd e7e0 433c
00000120: efb2 303d 8511 05bd 3c2d 083a 30b8 74bb
00000130: c492 78bc a939 5b3b 56f0 603c 0a40 66bc
00000140: eaef a53c 1348 e63b 796e 67bc 0966 9bbd
00000150: ba63 983c a82c 2dbd a00c 48bc 403e a4bc
00000160: be65 a93c 7c1e 5f3c 8fbf 373d 8ef2 733d
00000170: 7d38 1f3c 8f58 333b b247 333d 8791 c8bc
00000180: c008 163d 1f73 343d a44e 24bd dfe4 673c
00000190: 9e90 17bd de83 6c3c 9942 fdbb 3fdf a73c
000001a0: 7586 2d3b aee8 59ba 0074 fc3c 4f9c 053c
000001b0: 064b 6abc c3b2 b63c b1be 50bd 9f06 d0bc
000001c0: 5b06 d13c 3f22 dc3c e8f4 36bd 3ee4 5a3d
000001d0: 1679 013d d545 b03c fe12 163d b629 af3c
000001e0: d1e2 473c 94d7 a83d cfea 653d 1675 453d
000001f0: 5a4a 993d 1e43 b6bc e35b 423c e20a 8cbc
00000200: ce27 22bd d850 8c3c 3c6d 313a 68ac f83a
00000210: 54f2 b73c 0b50 b5bc a95a 1d3c 3a9c 763d
00000220: 50ab c5bc e5ee 38bc 3f66 6d3d b754 0b3d
00000230: e5d2 113d b4a8 353d b866 203d 521c 8c3d
00000240: 85c8 3cbc 521e d13c f552 003d b9f4 afbc
00000250: 1c74 643d 8b7d 493c 9787 603d ab2c e53d
00000260: eb0b f03c 2dea c33c 4ea5 b13c 0f03 dbbb
00000270: a0c0 f33c da45 a4bc 2174 093d fcb1 b73c
00000280: eed6 9ebb 4182 d83b 53d8 b6bd 259c bebd
00000290: 932b 08be 04c5 70bd d765 c9bc 5f8c 2cbc
000002a0: daab 8bbd 053c ad3b 5cb5 cdbc e2f0 6cbd
000002b0: e028 8bbd 4915 87bd f71c 36bd 4c17 e5bc
000002c0: a285 6cbd 922e 033c f73c cf3c 4943 5ebc
000002d0: 3d44 4abd 0b5c 3e3c abd1 c1bc 234f 43bc
000002e0: a212 a3bc 0949 4ebd 172d ed3c 5cd3 ec3b
000002f0: 95ab 3bbd c067 ab3c a517 4d3d 937c 8b3d
00000300: ba92 06bc 93ee 2c3d ed37 463d 219c 843d
00000310: b698 aa3d 8fa8 0bbc af17 d33a 55ba cfbc
00000320: a8ed 173d 4a14 f6bb e41c 033d 1696 713d
00000330: 60bf fa3c cd89 9e3d 970d 703d 7b0a 853a
00000340: b969 c83d ad8d bb3d 07e6 143c 2f7a ad3d
00000350: 7679 f03c 46ff 823d 9f2c d73d 9693 fa3c
00000360: beac 003d 771c 463c 2cb8 313d 9f6b 623d
00000370: 33c5 84bb e7ed 593d 7755 0a3d 329f 1e3d
00000380: 8475 a63d c3ca afbd 1127 babd b569 91bd
00000390: 34fe 70bd 6548 afbd e51c 1dbd 160e b2bd
000003a0: 43b3 13bd 732b 0dbd cc88 51ba 70b4 b7ba
000003b0: 2d74 21bc 0485 aabb d9d7 e6bb debf ec3c
000003c0: 5809 403d 251c 8b3c 9d80 2b3d 3e38 66bc
000003d0: 2630 48bd 7d44 b6bc e0a2 aebd 28ca f3bc
000003e0: 54b5 a7bc 914a acbd 8d98 e9bc e9ba 983c
000003f0: 1f79 923c 7c0b c9bc 54b6 b7bc 4016 a2bb
-0.009268536 -0.0061635226 0.0013943767 0.03123822 -0.029564986 -0.01467999 0.042132523 -0.013753923
0.044032764 0.08644006 0.07480067 0.08411216 0.08000907 0.012262687 0.041083008 0.0770569
0.06907346 0.013672356 -0.06038453 -0.089683674 -0.07440563 -0.041459553 -0.02066028 -0.05727908
-0.038993787 -0.0388413 -0.02102326 -0.02460089 0.04678294 0.037497472 0.008802382 0.0044671507
0.05259467 -0.008605587 0.086765125 0.026110893 0.027774854 0.0002505951 -0.027348472 -0.023277692
-0.05500818 -0.023521747 -0.020791074 -0.047843598 -0.058608208 0.04645493 0.04053609 -0.031779185
0.021306695 0.022495395 -0.03561419 -0.023575466 -0.004039096 -0.036936905 -0.06496681 -0.007888963
-0.047248743 -0.03636323 -0.023551313 -0.08329013 -0.0060915793 -0.007963028 -0.03297082 0.027673388
0.0449784 0.026274886 0.03407306 0.0477664 0.069181435 -0.017873274 -0.033046283 0.011955476
0.043139394 -0.03248741 0.0005194729 -0.003734123 -0.01517171 0.0033451116 0.013729176 -0.014053354
0.020256002 0.007027635 -0.01412546 -0.07587821 0.01860224 -0.042278916 -0.012210041 -0.020049214
0.020678397 0.013618108 0.04486042 0.05955749 0.009718058 0.0027366017 0.043769546 -0.024483455
0.03662944 0.0440551 -0.04011406 0.014153688 -0.037003152 0.014435736 -0.0077288863 0.020492194
0.0026477848 -0.0008312565 0.030817032 0.008154943 -0.014300114 0.022302037 -0.050963107 -0.025393782
0.025515726 0.026871799 -0.044667155 0.053440325 0.031609617 0.021517674 0.036639206 0.021382194
0.012200073 0.08244243 0.056132134 0.048207365 0.074848846 -0.0222488 0.011862728 -0.017095033
-0.039588742 0.017128393 0.00067682914 0.001897228 0.022454418 -0.022132894 0.009604135 0.060207583
-0.02412954 -0.011287426 0.057958838 0.034016337 0.035601515 0.04435034 0.03916046 0.06841339
-0.011522417 0.025527153 0.031329114 -0.021478998 0.055774793 0.012297998 0.05481681 0.1119016
0.029302558 0.023915375 0.021685269 -0.006683714 0.029754937 -0.02005284 0.033558015 0.022423737
-0.004847399 0.0066073244 -0.08927979 -0.09307126 -0.13297872 -0.05878164 -0.024584694 -0.010531514
-0.068198875 0.005286696 -0.025110893 -0.05784691 -0.06794906 -0.06595857 -0.044461217 -0.02796521
-0.05774463 0.008006709 0.025297625 -0.013565847 -0.049381483 0.011618624 -0.023659548 -0.011920723
-0.019906346 -0.05036262 0.028952165 0.0072273444 -0.04581793 0.020923495 0.050071377 0.0681087
-0.008213693 0.04221971 0.04839318 0.06475092 0.083299085 -0.008524074 0.0016105081 -0.025357405
0.03709188 -0.007509743 0.032009974 0.058981024 0.030608833 0.07741127 0.05860671 0.0010150218
0.0978579 0.09157882 0.009088046 0.0847057 0.029354792 0.06396346 0.10506558 0.030587953
0.03141474 0.0120917475 0.04338853 0.055278417 -0.0040518283 0.053205397 0.033772912 0.03872604
0.08127883 -0.085835956 -0.090894826 -0.0710024 -0.058836177 -0.0855873 -0.038357634 -0.08694093
-0.03605963 -0.034465265 -0.00079931016 -0.0014015567 -0.009854359 -0.005203845 -0.007044774 0.028900083
0.04688391 0.016981194 0.041870702 -0.014051495 -0.048874043 -0.022249455 -0.0852716 -0.029759482
-0.020472206 -0.0841266 -0.028515125 0.018643813 0.01788002 -0.024541609 -0.022425808 -0.0049465

conv3.weight f4 [128, 64, 3, 3]
00000000: 9b79 4abd 31b8 f7bc aeaa 50bc f3fc 1cbd
00000010: 6152 b2bc cd7f 07bd 830d c2bb 65d5 08bc
00000020: db74 e6bc a3ed 2d3c 43b8 5bbc 4b2d 243d
00000030: 8c36 25bc 5c7b 8cbc cfd3 963c 44a7 d33c
00000040: aeb0 70bc 4d6d 833c 66cf 0cbd e432 79bb
00000050: a673 acbc 8ab6 07bc a9c0 adbc 5430 8ebb
00000060: c35e a2bc d7de 23bc c341 9e3a 4bbe 073c
00000070: 9527 6b3c b8ac 923c 1c64 033b 5a99 80bb
00000080: 7e11 093c b8ad c8bc 58ba 82bb 1f6e 103a
00000090: db32 53bd 01a5 e8bc 312c 2cbb 3116 7bbd
000000a0: c696 39bd eb9b 2bbd 2bb5 c03b 8dfe 1a3b
000000b0: 47f7 493c 4bbb 21bc 8c4a b23c 64c8 96bb
000000c0: 0851 6e3b 3c58 b43c 4a81 b33c 0eb9 52bc
000000d0: 9bdc 853c ddff 8739 18dd 8ebc 11c0 be3c
000000e0: b8d1 2fbc a337 1bbb 5df0 4e3b b555 77bc
000000f0: 05a1 1b3d 58ec 0a3c 40dd 393b a862 443d
00000100: d71c 4a3b 6f3c 963c a15f 423d e979 f53c
00000110: b5c1 913a 388d 483c 5156 4c3c 9bf9 0c3d
00000120: 87a8 44bc 2008 843c 24bb 9b3c 268c 1dbb
00000130: d5a3 2bbc 9ab8 04bc e236 1d3d efd7 32bc
00000140: 3cff 013d dafb e83b c005 3c3c 47ea f93c
00000150: 1241 c03c e760 84bc d8b7 1abc 15b5 abbc
00000160: f04c 903b ee84 a1bb eb98 64bd b5ac 25bd
00000170: 84c1 f1bc d228 05bd 6b84 8fbc bcb7 21bd
00000180: 1a3e 5bbc 99bc debc a1e3 72bc c981 223d
00000190: 2274 2e3c 9001 d3bc f64c 613c e769 84bc
000001a0: 4c4a 9bbc 6d3e 93bb cec0 a6bc 3026 6a3c
000001b0: de0d 893c 1ace 5a3c 787a 2c3d 30c1 9e3c
000001c0: fcc3 d23b d672 b0bc d6be a23c a591 a23c
000001d0: cd7f e63a 9b1d a5bd ec3d 8dbc 5f5e 1fbd
000001e0: 2cc4 4cbd ea30 bb3a aa4a e8bc ff85 ba3c
000001f0: cf08 fc3c 5008 b43c 8b1c 53bc e231 983b
00000200: 531b 1aba 6413 3b3c cd83 2abc 068a 863b
00000210: c134 7e3b 9fbc adbc 0183 513c d745 a73b
00000220: f4a5 10bd 8ae2 28bb 407e 63bc 2694 9ebb
00000230: 1c30 c4bb 6453 3bbc a70a 24bc a4c2 b73b
00000240: b724 f03c 3693 babc 96c5 1b3d cf1f e83c
00000250: fc96 5fbc 3187 a83a 10c0 15bc be38 bebc
00000260: b398 d53b 3791 123c 0587 563d 088e c0bc
00000270: af4b 1c3c 9f78 4c3c 6457 f53c 2a64 a33c
00000280: c4f3 8a3a abdd 343d e425 febc 0445 6ebc
00000290: ffe0 a7bc a2f0 7bba e7b6 53ba de99 adbc
000002a0: 7cbc d03c 389f b63c 9039 b339 e6ed 43bc
000002b0: cd42 7a3a eba5 cb3b 4126 5bbd b40c 39bd
000002c0: 3e37 1abd d2b3 a1bc 6117 6abc 738b 9aba
000002d0: 0a96 fa3c 3890 93bb b139 0d3b 7feb 073d
000002e0: 4344 e1bb a1bc 393b a0b8 ee3c 50df 8fba
000002f0: b9f5 533c 70aa cfbc a1f9 f8bc c0cd 2db8
00000300: d94d 12bd 6a6b e43a b13f 94bc 121b 50bd
00000310: b34a 25bd eaeb 19bc 3516 1ebd d802 f33b
00000320: 777d c93b 305e f7bc 0628 6dbc fbc6 f2bc
00000330: c2c4 95bc c203 acbc f925 95bc de00 bfbc
00000340: 4fd3 d03b e3f0 c03c b5d1 2b3c 7676 95bb
00000350: 1ec0 9cbb b3a9 943c a761 1d3d 2f8c 04ba
00000360: ba26 9bbb cc1b c63b f48d c7bc 257f 6e3b
00000370: d1a7 e4bb bbfa 1abc 32f1 fd3b f247 abbc
00000380: 1918 653c 522f c83c d4e6 b93c 6f15 093d
00000390: 3bea a63b ce7c 2b3b e336 9db8 0c4b a2bc
000003a0: 39d2 6bbc c45d 5a3b 487c 0abc ae08 72bc
000003b0: 3ab0 193c b951 483b e02c efb9 c7be c83c
000003c0: e473 853c 5cbc a53c 7086 ca3c 1a02 b0bc
000003d0: 4d31 1c3c ed81 9cba 4f84 e9bc 87ac 02bd
000003e0: daa2 8b3c 8e76 babc 9a0a babb 88db 8c3c
000003f0: 190e 7e3b 92fd 15bd 9797 fcbc 8e46 853c
-0.04943238 -0.030239196 -0.012736006 -0.03832717 -0.021767797 -0.033080865 -0.005922021 -0.0083516585
-0.028131893 0.010615739 -0.013410631 0.040082257 -0.010083806 -0.017148666 0.018411545 0.025836594
-0.014690561 0.01604333 -0.034377478 -0.0038024718 -0.02105124 -0.008283267 -0.021210032 -0.0043392573
-0.019820577 -0.01000186 0.0012074042 0.0082851155 0.014352699 0.017904624 0.0020048684 -0.003924531
0.008365987 -0.024496898 -0.003989499 0.00055095734 -0.05156217 -0.028398992 -0.0026271457 -0.06130046
-0.045309804 -0.04189674 0.005880972 0.002365026 0.012327022 -0.009871314 0.021764062 -0.004601525
0.0036364216 0.02201473 0.021912236 -0.012861503 0.016340544 0.0002593984 -0.01743941 0.023284944
-0.010731153 -0.0023684285 0.0031576373 -0.015096118 0.037995357 0.0084792 0.0028360635 0.04794565
0.0030839944 0.018339364 0.04745448 0.029965358 0.0011120351 0.0122407 0.012471751 0.03441773
-0.012003071 0.016117156 0.019010134 -0.0024039834 -0.010476072 -0.008100653 0.03838242 -0.01091574
0.03173755 0.007110101 0.01147598 0.03050722 0.023468528 -0.016159488 -0.009443246 -0.02096037
0.004403703 -0.0049291765 -0.055809896 -0.04044791 -0.02951122 -0.032509632 -0.017519196 -0.039481863
-0.013381505 -0.02718954 -0.014824779 0.039674554 0.010647805 -0.025757581 0.013751259 -0.01616378
-0.018956326 -0.0044935257 -0.020355608 0.014291331 0.016730245 0.0133548025 0.042108983 0.019379228
0.0064320546 -0.021539133 0.019866388 0.01984484 0.0017585695 -0.080622874 -0.01724144 -0.03890836
-0.04999177 0.0014281545 -0.028355915 0.022768972 0.030765919 0.02197662 -0.012885223 0.0046446184
-0.00058787054 0.011418197 -0.0104074 0.004105809 0.0038788768 -0.021208106 0.012787581 0.005104761
-0.035314515 -0.0025769793 -0.013885081 -0.004839438 -0.0059871804 -0.011433456 -0.010012305 0.00560792
0.029314382 -0.022775274 0.03803023 0.02833548 -0.013646837 0.0012857673 -0.00914003 -0.023220416
0.0065184473 0.008945755 0.05237486 -0.023505226 0.009539529 0.01247993 0.029948898 0.019945223
0.0010601212 0.04415671 -0.031023927 -0.014542822 -0.020493029 -0.0009610747 -0.0008076266 -0.021191534
0.025480501 0.022292718 0.00034184428 -0.011958575 0.0009546697 0.0062148473 -0.05350328 -0.04517813
-0.03765034 -0.019739065 -0.0142878005 -0.0011790827 0.030589122 -0.004503276 0.002154928 0.03318357
-0.0068745925 0.0028341191 0.02914077 -0.0010976586 0.012937003 -0.025349826 -0.03039247 -4.1438034e-05
-0.035718773 0.0017427031 -0.018096777 -0.050807066 -0.04035444 -0.009394625 -0.038595397 0.0074161105
0.00614899 -0.03019628 -0.014474874 -0.029635897 -0.018282298 -0.020997886 -0.018206583 -0.023315843
0.006372846 0.023552364 0.01048701 -0.004561241 -0.0047836443 0.018147325 0.038423207 -0.00050562894
-0.004734841 0.006045794 -0.02435968 0.0036391702 -0.006978013 -0.009459193 0.0077497 -0.02090833
0.013982796 0.024436627 0.022693075 0.033467706 0.0050938404 0.0026166919 -7.496567e-05 -0.019811176
-0.014393383 0.0033320049 -0.0084524825 -0.014772577 0.009380395 0.0030566289 -0.00045619067 0.024505032
0.016290613 0.020231418 0.024722308 -0.021485377 0.009533239 -0.0011940576 -0.028505472 -0.031902816
0.017045427 -0.02276161 -0.0056775333 0.017194524 0.0038765727 -0.036618777 -0.030834002 0.016268995

fc1.weight f4 [256, 128]
00000000: 0a51 5740 fe0b 86c0 8d8d 8340 4601 f2c0
00000010: 820e 4040 1c7b 5bc1 ad5a afc0 2338 1b40
00000020: 6151 7cc0 18f8 92c0 4c56 03c0 f49b f7c0
00000030: 1069 36c1 2e0b 22c0 e2e4 89c0 1cca 84c1
00000040: c245 87c0 6ddf 63c1 0f9d c540 0e3a bec0
00000050: b7aa 963f ba7c 8ac0 19e4 b2c1 1e66 6240
00000060: d3e4 02c1 2f89 1cc1 e220 a73f 84ab 9940
00000070: 271f b140 cca8 9f40 bce6 8dc0 6af5 3941
00000080: e06b 84c0 4e9d 2e41 c1c9 ea3f 7394 643f
00000090: 8f27 97c0 6409 ebc0 e445 2740 bbb5 9b40
000000a0: 7e6a 0841 e98e 99bf dde9 dbbf ff39 36c0
000000b0: a1f8 aec1 f365 83bf ae17 863f e814 67c1
000000c0: 8640 7840 5247 9b40 0ffc 5ec0 c2cb f440
000000d0: e8b8 b6c1 1bcb a640 1a2e 99c1 8e83 2ac1
000000e0: f9bc c6c0 de80 fdbe c12c 89c0 884d 0340
000000f0: 26d9 9dbf 0dd2 4fbf a057 4bc1 d93f 7340
00000100: 76d8 7dc0 05d3 8340 254e b640 92a8 04bf
00000110: cf33 28c1 032b 81c0 41a6 5b41 780b c3c0
00000120: e447 c1c0 5150 f53f 5dda 7d3f 6164 7540
00000130: a5f3 4540 e0ab ecbf b811 603f 5e6e cb40
00000140: ab65 87bf e8d6 04c1 3df9 0bc1 15cb 79c1
00000150: 0f56 013b c75f 13c0 f479 bac0 4049 5941
00000160: adbe 1fc1 7183 8d40 e6f0 9f3f aeef c9bf
00000170: 9c13 c2c0 4aa0 adbd 63e9 13be 80f7 d940
00000180: a7f0 47c0 490d a0bf 0e97 06c0 3b3a 75c0
00000190: c71f b0c0 8c42 0d40 86f2 0f3f 56da d6be
000001a0: 2e79 c83f c297 32bf 3f4e 78c0 15ec bec0
000001b0: 6212 abbf aefb 8740 7306 6bc0 9730 ccc0
000001c0: 3aa8 13c1 6f13 5941 842d 44c0 9ddc 4140
000001d0: 45ac 943e bc85 b340 d6c4 21c1 7c7f be40
000001e0: f970 3bc1 40f7 ab40 0997 c2c0 4ce4 0dc0
000001f0: 7204 153f 34f3 19c0 00ed e83e 4bfb c1c0
00000200: e261 2ec1 0de2 fe3f 9052 56c1 967e 853d
00000210: 1930 9540 86c0 6c40 d6a8 a73d d391 01c0
00000220: 7093 3041 6ec6 a3c0 9ce1 9ac0 80b1 a440
00000230: 2928 cdc0 9fb9 413f 6264 0440 5d89 49c1
00000240: f1e2 0240 4285 9440 ee30 9ec0 456a a340
00000250: a2f9 6940 761a 1dc0 001e 99be 4b55 57c0
00000260: bf0d fbc0 c033 0dc1 55d9 87bd d14c cac0
00000270: 148e c4c0 f741 1440 4def f7c0 a0d9 76c0
00000280: aa4c 9b40 0a3e 57c1 3f83 69c1 cd19 bebf
00000290: a8f4 cdbf 1428 1cc0 05e1 a040 33ad 5e3b
000002a0: bf77 843d 539d 35c1 79b6 1a40 e313 93c1
000002b0: 164d 2440 bd5e a740 87e3 e13e a122 4440
000002c0: e261 9dc0 5e2e cac0 d35d a2c0 5d22 53c0
000002d0: 3725 c1c0 7657 95c0 cb5e d1c0 c64f 69bf
000002e0: fa0d 9bc0 097c db40 2641 33c1 6713 c440
000002f0: 4872 9c40 6e86 8b40 a62a ec40 fd18 9440
00000300: 94c0 6140 58ac 2c41 5d62 64c0 2dfd 9940
00000310: 30b5 6140 53ec bf3f 4399 bbc0 384b 6440
00000320: 2ef3 0cc1 9cc4 b940 d196 4240 b083 ed40
00000330: 4a87 8bc0 4f6c ac40 168a e0bf 9ba7 e2c0
00000340: 982d 93c0 75d8 ce40 60f5 bcbf e686 cb3f
00000350: 713d 32bf b704 f1c0 849f 2f40 6354 aebf
00000360: 461e 7540 5dd0 acbe d5af af3f aeec cfbf
00000370: f80e 3340 9fd1 3cbf 7711 59bf e57c 9cc0
00000380: 3652 abc0 f2f0 90c0 8641 4340 8137 d440
00000390: aa1e 12c1 2544 4b40 8ce7 02c0 bed7 0dc1
000003a0: 1893 0040 2bcb acbe 73e5 9840 d7f3 adc0
000003b0: 77ce a1c0 17d9 bcbf c170 9e40 385a c240
000003c0: 4c69 21c1 c2ef 2bc1 1c0c 68c0 6de4 a9bf
000003d0: 22fa e83f 7330 e13f 0b57 de3e 95a9 51c1
000003e0: 4130 dfc0 6ccc f9c0 f158 5241 1108 17c0
000003f0: 29e1 0541 8222 4240 ad28 a1bf 65b3 7941
3.3643212 -4.188964 4.111029 -7.5626554 3.0008855 -13.717556 -5.479819 2.4253013
-3.942467 -4.592785 -2.0521421 -7.7377872 -11.40065 -2.5319324 -4.30919 -16.598686
-4.2272654 -14.242047 6.175422 -5.9445868 1.1770848 -4.3277254 -22.361376 3.5374827
-8.180865 -9.783492 1.305691 4.802187 5.535053 4.989355 -4.434416 11.622416
-4.1381683 10.913404 1.834282 0.89289016 -4.723579 -7.3448963 2.6136408 4.865934
8.525999 -1.1996738 -1.7180744 -2.8472898 -21.8714 -1.0265487 1.0475976 -14.442604
3.8789382 4.852456 -3.4841344 7.649873 -22.840286 5.212293 -19.14751 -10.657118
-6.210568 -0.4951238 -4.286713 2.0516071 -1.2331893 -0.8117989 -12.708893 3.800772
-3.9663367 4.119509 5.697039 -0.5181972 -10.512649 -4.0365005 13.728089 -6.09515
-6.0400257 1.9165136 0.9916132 3.8342516 3.092996 -1.8489952 0.87527037 6.3572226
-1.0577902 -8.302467 -8.748349 -15.612081 0.0019735133 -2.3027208 -5.827387 13.580383
-9.984052 4.422295 1.2495391 -1.577627 -6.0648937 -0.08477838 -0.14444499 6.8114624
-3.1240633 -1.2504054 -2.1029696 -3.831679 -5.503879 2.2071867 0.56229436 -0.41963452
1.5661981 -0.69762814 -3.8797758 -5.9663186 -1.3364985 4.2494726 -3.6722686 -6.3809314
-9.228571 13.567245 -3.065278 3.0290902 0.2903768 5.610075 -10.110556 5.953062
-11.715081 5.373932 -6.080937 -2.2170591 0.5820991 -2.405469 0.45493317 -6.0619254
-10.898897 1.9912735 -13.395157 0.06518285 4.6621213 3.6992507 0.081865 -2.0245254
11.0359955 -5.1179724 -4.84004 5.1466675 -6.4111524 0.7567386 2.0686269 -12.596036
2.0451014 4.641267 -4.943473 5.1067224 3.6558614 -2.45474 -0.299057 -3.3645809
-7.845428 -8.825134 -0.0663325 -6.321877 -6.1423435 2.3165262 -7.7479615 -3.8570328
4.8531084 -13.452646 -14.5945425 -1.4851624 -1.6090288 -2.4399462 5.027468 0.0033977746
0.06468152 -11.350909 2.4173872 -18.38471 2.567205 5.2303147 0.44118902 3.0646136
-4.9181986 -6.31816 -5.073953 -3.2989724 -6.035793 -4.6669264 -6.5428214 -0.9113735
-4.845456 6.858891 -11.203405 6.1273685 4.8889503 4.36016 7.380206 4.6280503
3.527379 10.792076 -3.5685036 4.8121552 3.5266838 1.4993995 -5.8624587 3.567091
-8.80937 5.80525 3.040455 7.422325 -4.360265 5.3882213 -1.754214 -7.0829597
-4.5993156 6.463923 -1.4762383 1.5900543 -0.69625 -7.5318255 2.744111 -1.3619503
3.8299727 -0.3375272 1.3725535 -1.6244104 2.7977886 -0.73757356 -0.84792274 -4.890246
-5.3537855 -4.5294123 3.0508742 6.6317754 -9.132486 3.1760342 -2.0453825 -8.865171
2.008978 -0.33748755 4.778009 -5.4360156 -5.056453 -1.475375 4.951264 6.073513
-10.088207 -10.746035 -3.625739 -1.3272835 1.8201334 1.759291 0.43425784 -13.103902
-6.9746404 -7.806204 13.146714 -2.3598673 8.367471 3.0333562 -1.2590538 15.6062975

fc2.weight f4 [46, 256]
00000000: 12b9 49be fbe1 033c b437 debd d800 19be
00000010: 2f31 61bd 33da ef3d 6615 53bd cddb d3bc
00000020: e069 b0bc 3acc 95be 6903 ec3d c3c4 2d3d
00000030: 2d6b 93bd f04b 933d 080c 48be 7d4a 07be
00000040: 65c1 bc3d 2ea3 e03d 941b 473c 11a8 afbd
00000050: 904d bf3d 69e1 cbbc 003c d6bd 8ba3 573d
00000060: 0be6 06be 8ed2 0bbe e46e 2c3e 25a8 ad3b
00000070: f19f 2fbe 4a8e 7a3d e066 1fbd bba4 22bd
00000080: 9944 b9bc 279b d03d a03c 13be 85af 233e
00000090: e95a 35be 2c29 a53d d390 2cbe f073 6abe
000000a0: f31b d33c 152f 333e 9f93 a7bd 579e 1bbe
000000b0: 0074 113d 6f7c e43d 45f7 ffbd 27af 0bbe
000000c0: 6196 4e3c bb73 003d 8a34 57be 6401 c7bd
000000d0: 2c44 0abc a79d 133d a863 6dbc 7e9c 573e
000000e0: 4f47 68be 715f 25be fe50 4bbd e4c5 9bbd
000000f0: f25e c8bd 89df 29bc 16ba 2bbe 83e4 863d
00000100: e449 3d39 53e8 49bd 33f1 40be 8a8e 1abd
00000110: c818 f8bd 6c89 13be 8289 53bd 24f2 e13d
00000120: bc7c 18be 0bdc b6bd 76cb 19be c1f3 e83d
00000130: b4b1 1d3d 2ee3 92bd b7f5 b63d 1853 0e3e
00000140: 3d98 1cbd 78cd 393e d795 d9bd a73a 31be
00000150: 053e 89bd e51c c03c 6501 cfbd 5047 a3bd
00000160: a46f 56bd 574f 8cbd f5fe 27be 728a 4dbb
00000170: 2642 0ebe 7517 f6bc 1e02 8f3c 0e99 8a3d
00000180: c35a 14bd ad60 453e 63cd e33c e152 2e3e
00000190: 02da afbd f0e3 6b3e 2b52 af3c ccf2 2bbe
000001a0: 34bf f43b 8139 be3d 4f5b 59be 186c e43c
000001b0: 1009 b7bb dfbb 6a3e 66b4 0a3d f657 b1bd
000001c0: 1709 303d d5be eb3d fd1d e6bd 9b5f 77bd
000001d0: 9660 a93d 20e7 9c3d c1b1 9d3d 8516 9cbc
000001e0: f161 95bb 71e0 d43d 35fb 25be caf3 193e
000001f0: b512 b93a b19b 62be 2f5f 3cbe b9d3 23bc
00000200: d709 ab3d 3751 5bbd c29a 293d 0762 7ebd
00000210: ad7f 1d3e 39ce 9cbb 90b5 0fbe 0113 0ebe
00000220: 75ed 88be 7a40 8c3d f63f d1bd 5e2d d0bd
00000230: da71 533d 15c7 8f3d 785a aebd f32b 3c3e
00000240: 8d50 41bd c77c 4ebe 14ef 15be b414 abbb
00000250: 877e d93d 4f8d 2ebd 351c 013e 244d c83d
00000260: ce9a 99bb b104 2dbe 6267 cabd 7341 d0bd
00000270: 77fc 1f3e 2187 a73c 1748 ea3d 5249 5d3d
00000280: 4fa2 17be 1242 1b3e 9678 cebd b2e5 ccbd
00000290: 1a2c 41bc e195 3dbe 1433 11be 4411 913b
000002a0: c211 03be 75db 41be 2a72 0ebd a95a 23be
000002b0: 5de9 26be 4213 39be ebbb a8bd b6a2 23bc
000002c0: 73b2 2b3e 0fe3 babd 9bba 60bb 661a ccbd
000002d0: 6936 c0bd 2ab8 3f3d b06e 79be fc6f 8c3d
000002e0: 0474 debd 3529 54be e165 76bd 449e fdbd
000002f0: d069 f6bd f569 133e 76e0 d1bd 9a06 b03d
00000300: 5608 62bc d04d 07be 6f34 a4bd 246f b3bd
00000310: 71e1 2f3e 0efe 65bb 5fd9 8cbb 34f0 2e3e
00000320: 75a1 a6bc bda9 0ebe 6670 b2bd f2c1 03bd
00000330: e1f7 e33d f311 6d3b be5b 413d 6854 2e3e
00000340: 7566 03be 463b 24bd 92b6 c23c 93ef 3a3c
00000350: 8eab 1bbe 5739 b83d d314 b0bd 17ba 21be
00000360: 08d5 ea3d bb01 c83d 2732 6ebe 2ac5 f9bc
00000370: 1bd0 debc 0ded 053e e27e d83d e684 d4bc
00000380: f6f1 0dbe 248f d53d a924 08bd e423 163e
00000390: 9984 20be a677 d1bd 4e27 e5bc 855b 893c
000003a0: 5879 dcbd e983 c53d b20a 1f3e 9512 27be
000003b0: 0021 083e b68d 4dbe 6865 27be 8c1e f53d
000003c0: 726f b8bd e64e afbd 1b11 c63d a987 f6bc
000003d0: e338 00be 7f70 003e 2e82 bfbd 90a6 093d
000003e0: f0d7 58bd cf43 edbd 9478 3cbd e228 5bbd
000003f0: 4edb 093e 0492 c73d dda1 9cbd 15e0 bfbd
-0.19699505 0.008049483 -0.10850468 -0.14941728 -0.054978546 0.1171154 -0.05153408 -0.025861645
-0.02153486 -0.29257375 0.11524088 0.042423975 -0.071981765 0.07192218 -0.1953584 -0.13212009
0.092165746 0.10968624 0.012152571 -0.08576978 0.09340966 -0.024887757 -0.10460663 0.0526462
-0.13173692 -0.13654539 0.16839176 0.0052995854 -0.17150857 0.061170854 -0.03891647 -0.03970788
-0.022615718 0.10185843 -0.14378595 0.15984924 -0.1771046 0.080644935 -0.16852121 -0.22895789
0.025770163 0.17498429 -0.08182453 -0.1519712 0.035511017 0.11156546 -0.12498335 -0.13641034
0.012609095 0.03136037 -0.21016136 -0.09717062 -0.008439105 0.03603902 -0.014489092 0.21055791
-0.22683452 -0.1614969 -0.049637787 -0.07606104 -0.097837344 -0.010368236 -0.16770205 0.06586554
0.00018051971 -0.049293827 -0.1884201 -0.037733592 -0.12114102 -0.14407891 -0.05164481 0.11032513
-0.14891332 -0.089286886 -0.1501902 0.11374617 0.03849955 -0.07172237 0.08933585 0.13898885
-0.038231123 0.18144786 -0.10624283 -0.1730753 -0.067012824 0.023451278 -0.10107688 -0.07972586
-0.052352563 -0.068510704 -0.16405852 -0.0031363037 -0.13892421 -0.030040482 0.017457064 0.06767474
-0.03621937 0.1927516 0.027807897 0.17023803 -0.085865036 0.2303617 0.021401485 -0.16791838
0.0074690823 0.09288312 -0.21226238 0.027883574 -0.005585797 0.2292323 0.033863448 -0.08659355
0.04297742 0.11511008 -0.112361886 -0.06039391 0.082703754 0.07661271 0.076999195 -0.019053707
-0.0045587947 0.10394371 -0.16209109 0.15034404 0.0014119955 -0.22129704 -0.18395685 -0.009999209
0.08351486 -0.05354425 0.041407354 -0.062105205 0.15380736 -0.004785326 -0.14034104 -0.13874437
-0.26743665 0.068482354 -0.10217278 -0.10164903 0.05162225 0.07020394 -0.08513349 0.1837614
-0.04719596 -0.20164786 -0.14641982 -0.005220974 0.10619836 -0.04261523 0.12608416 0.097803384
-0.0046876436 -0.16896321 -0.09883 -0.101687334 0.15623651 0.020450177 0.11439531 0.054025
-0.1480801 0.15161923 -0.10081594 -0.100047484 -0.0117903 -0.18514206 -0.14179641 0.004427107
-0.12799743 -0.18931372 -0.034776844 -0.15952553 -0.16299959 -0.18073753 -0.082389675 -0.009987524
0.16767292 -0.09125339 -0.0034290913 -0.099659726 -0.09385378 0.046806492 -0.2435863 0.06857297
-0.10861972 -0.20718844 -0.060155753 -0.123837024 -0.12031901 0.14395888 -0.10247891 0.08595009
-0.013795933 -0.13213277 -0.080178134 -0.08761433 0.17175843 -0.0035094055 -0.0042983736 0.17083818
-0.02034066 -0.13931938 -0.087128446 -0.032167383 0.111312635 0.0036174029 0.047206633 0.17024386
-0.12832053 -0.04009559 0.023768697 0.011409658 -0.15202162 0.08995312 -0.08597722 -0.15793644
0.11466414 0.09765955 -0.23261319 -0.030489523 -0.027198842 0.13078709 0.10571076 -0.025942277
-0.13861832 0.104276925 -0.033238087 0.14662129 -0.15675582 -0.10227899 -0.027972843 0.016767273
-0.10765332 0.096443005 0.15531424 -0.16315682 0.13293839 -0.2007359 -0.16347277 0.11968717
-0.090056315 -0.085599706 0.09671231 -0.030093985 -0.125217 0.12542914 -0.09351002 0.033606112
-0.05294031 -0.11585199 -0.04601343 -0.053505786 0.13462564 0.09744647 -0.076480605 -0.09368912
