onnx_model/hiragana.onnx (onnx, 564196 bytes, 10 tensors)

conv1.weight f4 [32, 3, 3, 3]
0.67808807 1.0374552 1.3092327 -0.9766562 0.98774153 0.95156777 -0.11380072 -0.75980866
0.7731808 -0.9292824 1.5258614 -0.8468571 -0.47394672 0.10551699 -0.28711697 -0.66222435
-1.4694316 -0.6291244 -0.620222 -0.2985489 1.5611274 -0.6815 0.022840189 0.57521486
-0.78397346 -0.45970103 -0.60279083 0.7562541 0.2593266 -0.15915637 -1.8022189 0.19135757
0.9416055 0.16044712 1.3388777 0.18846886 -1.2407203 -0.9177979 1.5634875 0.74587846
-1.8922957 0.5903775 0.8150751 -1.2857227 0.4343063 -0.6807931 1.152147 1.9739021
-1.6735529 0.5735646 0.5773639 -2.325194 -0.720348 0.44529456 1.8881902 -1.6745462
-2.159013 1.2855071 -0.17259794 -0.33687818 -0.72054845 1.2542299 0.5053642 -0.60309714
0.76020235 -0.9181546 0.4565479 0.96838945 -0.21826982 1.9556043 -1.5124959 -1.054081
0.30322897 -0.81313276 -0.038101327 0.6492707 -0.9894313 0.20987497 1.8582896 -0.6910496
-0.34412932 1.0271677 1.0840452 0.43676826 -1.0167538 -0.695187 1.076255 -2.0514727
0.18368426 -0.70929563 1.3192798 1.9046059 -2.526256 0.4423404 1.2560216 -0.8041493
1.0342281 2.1373947 -0.63413864 -1.6692245 -0.060393292 -1.3557324 0.9189218 0.14473249
-1.4641535 -2.2135751 2.3234282 1.8443193 -1.2376596 -0.1281527 -1.4793506 -0.8483165
1.0237372 0.29329357 0.03645734 -1.8286217 0.6903394 1.7676877 1.3652009 1.8312193
-0.14451157 0.10355239 0.5107288 -0.98000234 0.88975644 -1.3424051 1.1365851 0.6965152
1.8764259 1.5052439 -1.6685756 -0.4788099 -0.48545545 -1.5472965 -0.98101723 -1.9693384
-0.3263299 0.9501621 0.26899144 -0.07675572 0.5984032 -0.5289479 1.7930593 1.4920495
0.56838155 -1.0800132 -0.99057996 -1.6270553 0.22358638 0.3710586 1.3523961 0.091664255
1.088588 0.46622956 -0.84301454 -1.7113733 0.60850906 -1.0377004 -0.9203558 0.92625433
0.44712228 -0.17255984 2.8247278 -0.8738199 1.4692011 2.1208282 -0.006779479 1.2383978
-1.0841044 -2.291165 -1.3711016 -0.4586991 -2.3008962 -0.912031 0.95810467 -2.2673619
-0.28737956 0.43201086 -2.2847962 0.59422547 -2.246701 -1.2915453 0.37010977 0.16296169
0.7101429 2.0864422 0.13740124 0.7927707 1.2709091 0.64760286 -0.8554197 -0.24717063
0.74283785 0.70743793 0.79535526 0.28925303 -0.31003645 -0.117480956 1.1358957 -1.0866948
-1.5621619 1.4367777 0.29741976 0.59302217 0.500666 -0.17335488 -1.246705 0.7469479
-1.0796772 0.104403295 0.18868785 -0.44958606 -1.2528545 -0.44438276 -1.1921995 -0.29425666
1.3338451 1.5324022 0.820979 -1.3935004 0.41128856 1.1193614 -1.6413057 -0.9101767
0.7190716 1.0827258 1.2347335 1.989741 -1.4000213 -1.1087555 -0.6122211 -1.433216
1.2538542 -0.49291706 -1.210287 -0.93654704 -0.6844287 1.3974801 0.21147706 0.120398775
0.2027098 -0.89771014 1.0658278 -0.27423462 -0.41794935 -1.0656977 0.20497829 -1.5323223
-0.20001999 -1.0851823 1.9796517 1.5810863 0.6539389 -0.42055494 -0.8159941 0.8265416
00000000: 2e97 2d3f 55cb 843f f094 a73f 2406 7abf
00000010: a1dc 7c3f f299 733f 5a10 e9bd d282 42bf
00000020: 2def 453f 74e5 6dbf 6d4f c33f a0cb 58bf
00000030: 25a9 f2be 4b19 d83d ff00 93be 8987 29bf
00000040: 5616 bcbf 4c0e 21bf dec6 1ebf 67db 98be
00000050: 06d3 c73f c976 2ebf 591b bb3c 4841 133f
00000060: 7cb2 48bf ef5d ebbe 8050 1abf de99 413f
00000070: 75c6 843e e3f9 22be 1caf e6bf 3df3 433e
00000080: 0f0d 713f 404c 243e 5860 ab3f fbfd 403e
00000090: eccf 9ebf cef4 6abf 5c20 c83f e4f1 3e3f
000000a0: bf36 f2bf fb22 173f c3a8 503f 9092 a4bf
000000b0: 655d de3e 7548 2ebf 8e79 933f d3a8 fc3f
000000c0: fb36 d6bf 21d5 123f 1fce 133f facf 14c0
000000d0: ba68 38bf a6fd e33e 37b0 f13f 8857 d6bf
000000e0: 452d 0ac0 7f8b a43f 84bd 30be 4c7b acbe
000000f0: dd75 38bf 9b8a a03f 8c5f 013f 9364 1abf
00000100: 9f9c 423f 2e0c 6bbf a5c0 e93e 5fe8 773f
00000110: 2082 5fbe 3e51 fa3f 7799 c1bf 20ec 86bf
00000120: d440 9b3e 7829 50bf 2310 1cbd 9b36 263f
00000130: 5f4b 7dbf 77e9 563e 6fdc ed3f a0e8 30bf
00000140: b831 b0be 3b7a 833f fec1 8a3f 17a0 df3e
00000150: fd24 82bf c6f7 31bf b9c2 893f 544b 03c0
00000160: ba17 3c3e 6694 35bf 29de a83f 20ca f33f
00000170: 2eae 21c0 717a e23e 51c5 a03f bbdc 4dbf
00000180: 9661 843f 13cb 0840 e956 22bf 26a9 d5bf
00000190: f55e 77bd a488 adbf 763e 6b3f c134 143e
000001a0: 6269 bbbf 37ab 0dc0 0cb3 1440 a812 ec3f
000001b0: a16b 9ebf 763a 03be 5c5b bdbf 452b 59bf
000001c0: d209 833f 932a 963e 4b54 153d 4710 eabf
000001d0: 15ba 303f 9743 e23f e7be ae3f 6565 ea3f
000001e0: d7fa 13be 4713 d43d 1fbf 023f 6fe1 7abf
000001f0: 14c7 633f eed3 abbf 9f7b 913f d24e 323f
00000200: b92e f03f d5ab c03f e393 d5bf 9226 f5be
00000210: 9e8d f8be d00d c6bf f223 7bbf 4813 fcbf
00000220: b614 a7be d33d 733f 3fb9 893e 1a32 9dbd
00000230: f430 193f 2169 07bf f882 e53f 7afb be3f
00000240: 7481 113f df3d 8abf a696 7dbf 5943 d0bf
00000250: d4f3 643e 65fb bd3e 511b ad3f 78ba bb3d
00000260: da56 8b3f a4b5 ee3e cdcf 57bf 480e dbbf
00000270: 40c7 1b3f 5ed3 84bf 709c 6bbf 011f 6d3f
00000280: 36ed e43e 87b3 30be 57c8 3440 a9b2 5fbf
00000290: c80e bc3f a6bb 0740 6426 debb d283 9e3f
000002a0: efc3 8abf 73a2 12c0 4280 afbf 9cda eabe
000002b0: e241 13c0 dd7a 69bf 5946 753f 751c 11c0
000002c0: 6a23 93be 8730 dd3e 1a3a 12c0 291f 183f
000002d0: f3c9 0fc0 5b51 a5bf 077f bd3e 6edf 263e
000002e0: edcb 353f 4588 0540 e9b2 0c3e 05f3 4a3f
000002f0: 26ad a23f 4dc9 253f c9fc 5abf 4c1a 7dbe
00000300: 9f2a 3e3f a71a 353f 679c 4b3f f918 943e
00000310: 19bd 9ebe db99 f0bd 0865 913f d118 8bbf
00000320: ecf4 c7bf 55e8 b73f 6747 983e 4dd0 173f
00000330: a62b 003f f183 31be 0894 9fbf fa37 3f3f
00000340: dd32 8abf 65d1 d53d 6337 413e 2530 e6be
00000350: 895d a0bf 2386 e3be fe99 98bf cfa8 96be
00000360: 70bb aa3f c125 c43f ae2b 523f 395e b2bf
00000370: 6a94 d23e 3c47 8f3f 4e16 d2bf 5701 69bf
00000380: 1415 383f c296 8a3f bf0b 9e3f d5af fe3f
00000390: e633 b3bf b3eb 8dbf 86ba 1cbf 9f73 b7bf
000003a0: 4b7e a03f a05f fcbe afea 9abf 8cc1 6fbf
000003b0: b836 2fbf a1e0 b23f 718d 583e a293 f63d
000003c0: 2893 4f3e 55d0 65bf 0c6d 883f 7b68 8cbe
000003d0: 75fd d5be c868 88bf d4e5 513e 2323 c4bf
000003e0: 0ad2 4cbe 41e7 8abf 3a65 fd3f 0961 ca3f
000003f0: 8a68 273f fa52 d7be fde4 50bf 3b98 533f

conv1.bias f4 [32]
-0.09175643 -0.13286546 -0.1024471 -0.5203434 -0.32321674 -0.25219235 0.3752584 0.26615447
-0.37003988 -0.10433399 -0.37584198 -0.9592301 0.22138868 0.47495958 -0.10213941 0.39067066
-0.091359235 -0.14233123 0.38410708 0.31261882 -1.0808902 -0.26775607 -0.02582337 -0.14789096
0.46554625 -0.094984025 0.27505955 -0.5726155 -0.9376935 -1.0175272 0.57762915 -0.31195492
00000000: ccea bbbd e20d 08be c9cf d1bd 3a35 05bf
00000010: aa7c a5be 5b1f 81be de21 c03e 6645 883e
00000020: de75 bdbe 0fad d5bd 5c6e c0be 1b90 75bf
00000030: b7b3 623e e72d f33e 782e d1bd fc05 c83e
00000040: 8d1a bbbd 47bf 11be afa9 c43e 930f a03e
00000050: 9c5a 8abf 5317 89be 888b d3bc ba70 17be
00000060: 145c ee3e fc86 c2bd 9bd4 8c3e ee96 12bf
00000070: ae0c 70bf 553e 82bf 81df 133f 8eb8 9fbe

conv2.bias f4 [64]
0.5474783 0.52983975 0.8722373 0.69963217 0.8126544 0.5979761 0.14448406 0.74956006
0.40145123 0.3355788 0.37705892 0.36720854 0.54087955 0.6119902 0.18943784 0.3904822
-0.3335185 0.20531917 -0.54966724 0.7325524 0.056894302 1.2365776 0.5377502 0.39902622
0.45014232 0.5807182 -0.5853184 0.21893653 0.46042448 0.3288131 0.16920632 0.56962657
0.5741166 -1.164314 0.29033265 0.03883195 0.24833566 0.46923178 0.5056525 0.7327633
0.904944 0.6157008 0.5437712 0.2969596 0.3200218 0.6874138 -0.38444063 0.7609756
-0.57279974 0.24195087 -0.8236894 0.24615255 0.7072786 0.5823996 0.35380363 0.5484532
0.62740564 0.46782923 0.6522595 0.32090092 0.57254857 0.61473316 0.35685128 0.23838511
00000000: 8a27 0c3f 94a3 073f f24a 5f3f 181b 333f
00000010: 1e0a 503f f614 193f a1f3 133e 2be3 3f3f
00000020: 048b cd3e fcd0 ab3e de0d c13e c202 bc3e
00000030: 1577 0a3f 64ab 1c3f fefb 413e 48ed c73e
00000040: f0c2 aabe 303f 523e feb6 0cbf 8e88 3b3f
00000050: 000a 693d 2d48 9e3f ffa9 093f 2a4d cc3e
00000060: 0e79 e63e f3a9 143f 6dd7 15bf e630 603e
00000070: c2bc eb3e 315a a83e 6c44 2d3e 0cd3 113f
00000080: 4ef9 123f 3e08 95bf 7ba6 943e 400e 1f3d
00000090: b44b 7e3e 263f f03e 7172 013f 6096 3b3f
000000a0: 69aa 673f 919e 1d3f 9734 0b3f 170b 983e
000000b0: e6d9 a33e 5afa 2f3f 67d5 c4be 4ccf 423f
000000c0: 01a3 12bf f8c1 773e 4fdd 52bf 6a0f 7c3e
000000d0: 3610 353f 2418 153f c025 b53e 6e67 0c3f
000000e0: a89d 203f 5087 ef3e 7bfa 263f 204d a43e
000000f0: 8b92 123f 275f 1d3f 36b5 b63e 3a1b 743e

conv3.bias f4 [128]
-0.004280269 -0.193338 0.06182176 -0.06661987 0.13192034 -0.0053001046 -0.1755195 0.117336035
0.067153096 -0.18649241 -0.22472286 -0.03948587 0.0705536 0.18071878 0.08443189 -0.13857949
-0.02848792 -0.43907455 -0.16990423 0.009352624 -0.035235584 -0.0065714717 -0.08213037 0.07266599
-0.19889802 -0.12203938 -0.08454335 -0.06354672 -0.15142518 0.36971873 -0.014509499 -0.11186385
-0.09647429 -0.1848886 0.015617907 -0.020416975 -0.01408273 -0.30894268 -0.2758338 0.096368074
0.13662851 -0.18539059 -0.12290901 0.18902606 -0.20573065 -0.3027165 -0.026321411 -0.025870204
-0.032051086 -0.024467468 -0.02068618 0.057644784 0.20677984 0.1117087 -0.09198904 -0.028628767
-0.03195983 0.039177954 0.2171455 -0.03888923 -0.3122452 -0.03787881 -0.28318852 -0.122465074
0.10329378 -0.14227897 0.05837953 -0.063762784 -0.04599166 -0.17636284 -0.026432991 0.074098825
0.0813036 0.19068915 0.14847898 -0.12758729 -0.16070592 0.014831185 -0.10337216 0.044781983
0.09763074 0.07894361 -0.16171914 0.0460124 0.030385017 0.00082343817 -0.021037877 -0.038837373
-0.16645849 -0.14221781 0.052665353 0.16098136 -0.15750498 0.041363597 -0.0070307255 0.078251064
0.112119436 -0.15689015 -0.0487386 -0.17991209 -0.131325 0.04981029 -0.15507904 -0.19068485
-0.035807848 -0.10919228 0.11366463 -0.16546428 -0.16632968 -0.23155516 -0.1330541 -0.022348762
-0.04952067 -0.13219607 0.053446233 0.16487873 -0.21016374 -0.032708228 -0.22495878 -0.18173227
-0.1133582 0.090920985 -0.053800702 -0.13025159 -0.16748211 -0.28438178 -0.040008485 0.052491248
00000000: 8041 8cbb 66fa 45be d038 7d3d 0070 88bd
00000010: 2016 073e 80ac adbb 62bb 33be e04d f03d
00000020: 9087 893d def7 3ebe c01d 66be f0bb 21bd
00000030: 687e 903d 580e 393e a0ea ac3d c8e7 0dbe
00000040: 805f e9bc 61ce e0be 60fb 2dbe c03b 193c
00000050: 3053 10bd 8055 d7bb f833 a8bd e8d1 943d
00000060: ecab 4bbe c8ef f9bd 1025 adbd c824 82bd
00000070: 340f 1bbe c64b bd3e 40b9 6dbc e018 e5bd
00000080: 5094 c5bd 7053 3dbe 40e2 7f3c 8041 a7bc
00000090: 40bb 66bc bc2d 9ebe 163a 8dbe a05c c53d
000000a0: 58e8 0b3e 08d7 3dbe b8b7 fbbd 0c90 413e
000000b0: 0eab 52be a8fd 9abe 00a0 d7bc c0ed d3bc
000000c0: 0048 03bd 0070 c8bc 1076 a9bc f01c 6c3d
000000d0: 18be 533e 88c7 e43d c064 bcbd e086 eabc
000000e0: 50e8 02bd 1079 203d 645b 5e3e 504a 1fbd
000000f0: 9ade 9fbe d026 1bbd 16fe 90be f8ce fabd
00000100: b08b d33d 94b1 11be 601f 6f3d 1096 82bd
00000110: c061 3cbd 7698 34be 008a d8bc 20c1 973d
00000120: 8082 a63d 0444 433e e00a 183e 3ea6 02be
00000130: 1890 24be 80fe 723c c8b4 d3bd 506d 373d
00000140: a0f2 c73d 30ad a13d b499 25be 8077 3c3d
00000150: 00ea f83c 00dc 573a a057 acbc f013 1fbd
00000160: 1874 2abe 8ca1 11be a0b7 573d 4cd8 243e
00000170: fc48 21be e06c 293d 0062 e6bb 1842 a03d
00000180: e09e e53d d0a7 20be 20a2 47bd e03a 38be
00000190: 107a 06be e005 4c3d 0acd 1ebe e442 43be
000001a0: 40ab 12bd 34a0 dfbd 00c9 e83d 786f 29be
000001b0: 5452 2abe cc1c 6dbe 563f 08be c014 b7bc
000001c0: 30d6 4abd 685e 07be 70ea 5a3d f8d5 283e
000001d0: 2a35 57be 10f9 05bd 985b 66be 0618 3abe
000001e0: 5828 e8bd c834 ba3d 205e 5cbd ac60 05be
000001f0: 6e80 2bbe 7d9a 91be f0df 23bd 1001 573d

fc1.bias f4 [256]
1.8946517 -2.6289053 1.6914078 -0.9030427 1.1589944 0.6714872 0.3533268 0.5547002
0.046323597 -1.1004455 0.066023886 0.2984101 1.1180779 1.0836248 -1.2337103 -0.3002798
2.0167463 2.191065 2.270322 1.812207 1.7393595 -1.781211 -0.2375885 -0.028524071
-0.39536223 -0.6858381 1.5459569 -0.26073647 0.3204312 0.8377435 0.714301 2.9595118
0.49868768 1.6148934 2.065896 0.33161145 2.222415 1.7798697 0.5762632 1.255655
0.40246698 0.7399876 1.0827475 2.1897628 0.6199514 -2.285524 0.7309269 0.9522325
1.9152477 1.3167014 1.8030691 0.5341785 0.41650128 0.5373159 -2.0180151 1.2971603
0.20791228 1.0460739 -0.24613768 -0.4186041 -0.41480362 1.3911991 0.6349767 1.1243145
0.2538259 2.224057 2.7872634 2.5140476 2.4280133 -0.23505643 1.0760406 1.2095895
-1.5530552 1.7639558 1.281876 1.1584125 0.115444645 -0.7464574 1.1790019 1.842389
-0.36719155 1.0205455 1.337581 0.89683735 1.1305767 0.8742952 2.7262435 -0.9581763
-0.37038663 0.85297143 2.6628308 0.5735932 2.1423936 1.8525586 1.2948234 1.4570122
1.0662073 0.2818154 2.877172 1.5370315 -0.52116585 0.62500703 -0.5813878 0.26939666
1.9558797 1.4765753 0.96881074 -1.4144684 0.32835633 0.63004947 0.35134116 1.6400037
0.7598677 0.22156826 -0.5984668 2.4079244 1.1739585 -3.0703297 1.3568532 2.4235554
1.2361555 0.22046377 0.08830392 1.6424948 0.4042161 1.3626175 -1.1051005 0.050432548
1.0531137 0.7179585 0.93636096 1.657979 -0.28081024 1.5549102 2.0977347 1.4544168
1.6043991 -0.10358764 0.5887745 1.3152077 2.3559022 1.5267977 1.5259403 -0.22971302
1.898049 1.5468183 2.5612004 -0.4030032 0.70934945 -2.9941595 1.8984715 0.40067562
2.3669257 0.30470204 -2.7133892 0.4072066 2.1206806 -2.9720092 2.6679454 0.020311594
-0.53736323 1.8217839 2.173011 2.2152498 2.0651517 -0.9119797 1.00725 0.3356929
-0.0027446449 1.0138751 1.5488931 1.1808243 0.3168974 1.9498658 -0.8416629 1.7299026
0.9188194 -0.8436291 2.5677996 2.4579904 1.9347342 0.18010674 1.1484511 1.1840144
1.9736867 1.1761386 0.2780994 1.589812 1.3525895 -2.2178123 1.3358972 1.5666629
2.2627976 0.8210793 0.70754874 -0.58776516 1.5740759 1.2089597 1.4399103 2.4041104
0.95255613 1.2242055 2.6248875 0.08060334 1.9341631 -0.1166514 0.54161495 0.70947146
-0.14284393 2.0607417 2.1572518 2.012709 -0.019445628 0.42895746 1.2945386 0.7327874
2.3895063 1.486992 1.4825832 1.4405911 0.68782854 0.55778825 0.21440639 1.0641048
-0.16923687 -0.17337091 1.6210222 1.3920165 2.673517 1.0203674 1.9261571 1.1041293
1.8588068 0.37222296 -0.5066471 -1.3026844 0.1783317 0.76229775 1.2476652 0.68914807
2.4374413 1.5343009 1.7748711 1.8625989 -2.0833137 2.0935872 0.22855084 1.7039568
3.1928236 1.5313793 0.10447201 0.08819395 1.1218603 1.6446536 -0.40097654 -1.2052152
00000000: f283 f23f fc3f 28c0 0d80 d83f ce2d 67bf
00000010: ee59 943f 96e6 2b3f 40e7 b43e d500 0e3f
00000020: d0bd 3d3d 66db 8cbf 8837 873d 35c9 983e
00000030: 2d1d 8f3f 38b4 8a3f 38ea 9dbf 46be 99be
00000040: 5f12 0140 693a 0c40 f54c 1140 66f6 e73f
00000050: 55a3 de3f b9fe e3bf 664a 73be 50ab e9bc
00000060: eb6c cabe 1693 2fbf eae1 c53f 407f 85be
00000070: 8f0f a43e 5c76 563f 6edc 363f a468 3d40
00000080: fe53 ff3e d4b4 ce3f a437 0440 fac8 a93e
00000090: 0c3c 0e40 c5d2 e33f fc85 133f 4eb9 a03f
000000a0: 2710 ce3e d46f 3d3f 7897 8a3f 1325 0c40
000000b0: 23b5 1e3f 0646 12c0 061e 3b3f 82c5 733f
000000c0: d626 f53f ac89 a83f f8ca e63f ecbf 083f
000000d0: a83f d53e 898d 093f 2927 01c0 5909 a63f
000000e0: f5e6 543e c0e5 853f 840b 7cbe 4753 d6be
000000f0: 2461 d4be d012 b23f d58d 223f 8ae9 8f3f
00000100: 78f5 813e f356 0e40 8662 3240 28e6 2040
00000110: 9264 1b40 a2b2 70be b3bb 893f d4d3 9a3f
00000120: 83ca c6bf 4ec9 e13f 8314 a43f dc46 943f
00000130: 3e6e ec3d d517 3fbf 89e9 963f 67d3 eb3f
00000140: 8800 bcbe 3ca1 823f db35 ab3f 2297 653f
00000150: bdb6 903f cfd1 5f3f c67a 2e40 0b4b 75bf
00000160: 51a3 bdbe 565c 5a3f d26b 2a40 01d7 123f
00000170: fa1c 0940 a420 ed3f c6bc a53f 607f ba3f
00000180: 7b79 883f 1c4a 903e 9623 3840 73bd c43f
00000190: 206b 05bf 7600 203f d5d5 14bf 5cee 893e
000001a0: 445a fa3f 6b00 bd3f fb03 783f 4d0d b5bf
000001b0: 521e a83e ec4a 213f fde2 b33e a4eb d13f
000001c0: b186 423f cae2 623e 1f35 19bf 6f1b 1a40
000001d0: 4644 963f 4880 44c0 5ead ad3f 881b 1b40
000001e0: 583a 9e3f 41c1 613e b0d8 b43d 453d d23f
000001f0: 6af5 ce3e 406a ae3f ef73 8dbf 5c92 4e3d
00000200: 6ecc 863f 21cc 373f 5ab5 6f3f a838 d43f
00000210: 5cc6 8fbe 4c07 c73f 4941 0640 542a ba3f
00000220: f35c cd3f c225 d4bd edb9 163f ba58 a83f
00000230: 1ac7 1640 1b6e c33f 0352 c33f e439 6bbe
00000240: 45f3 f23f 24fe c53f b5ea 2340 6f56 cebe
00000250: ed97 353f 4fa0 3fc0 1d01 f33f 5b25 cd3e
00000260: b67b 1740 e801 9c3e 2ba8 2dc0 627d d03e
00000270: 3bb9 0740 6635 3ec0 9ebf 2a40 8064 a63c
00000280: a390 09bf 3730 e93f 9d12 0b40 a7c6 0d40
00000290: 722b 0440 8077 69bf 91ed 803f f1df ab3e
000002a0: 80df 33bb a9c6 813f 2142 c63f 4025 973f
000002b0: 6040 a23e 3495 f93f 3877 57bf 736d dd3f
000002c0: c037 6b3f 14f8 57bf d456 2440 b74f 1d40
000002d0: 5fa5 f73f e76d 383e 7200 933f c98d 973f
000002e0: c4a1 fc3f b68b 963f 0b63 8e3e f67e cb3f
000002f0: a721 ad3f a3f0 0dc0 aefe aa3f 6988 c83f
00000300: add1 1040 4132 523f ea21 353f c777 16bf
00000310: 527b c93f 31bf 9a3f fb4e b83f f2dc 1940
00000320: b8da 733f c4b2 9c3f 28fe 2740 5d13 a53d
00000330: a892 f73f eee6 eebd 47a7 0a3f ec9f 353f
00000340: ae45 12be 31e3 0340 6a10 0a40 39d0 0040
00000350: 704c 9fbc 50a0 db3e 71b3 a53f f497 3b3f
00000360: aced 1840 c155 be3f 49c5 bd3f 4a65 b83f
00000370: 8815 303f 36cb 0e3f 598d 5b3e 9634 883f
00000380: 6e4c 2dbe 2588 31be a87d cf3f 992d b23f
00000390: e71a 2b40 669b 823f 518c f63f 1c54 8d3f
000003a0: 62ed ed3f 0294 be3e a0b3 01bf 5dbe a6bf
000003b0: 969c 363e f225 433f 7eb3 9f3f 026c 303f
000003c0: 0aff 1b40 f963 c43f fa2e e33f a469 ee3f
000003d0: 0355 05c0 55fd 0540 3b09 6a3e 421b da3f
000003e0: 3957 4c40 3d04 c43f 6cf5 d53d 089f b43d
000003f0: 1e99 8f3f 0284 d23f cc4c cdbe 7e44 9abf

fc2.bias f4 [46]
0.060715456 -0.07461475 -0.09956183 -0.027446546 0.11112607 0.009830929 -0.008017677 -0.07430652
0.0030305965 -0.117176495 0.008461522 -0.079756044 0.0065214424 0.018230783 0.009856897 -0.006155422
0.00679516 -0.1272514 0.0024409913 0.087441 0.05807091 -0.044144984 -0.08165942 -0.007188523
-0.030049818 -0.0066178143 0.018468032 0.085533604 -0.0075712316 -0.048059497 -0.0613349 0.012286889
0.05306602 0.069890425 0.03860421 0.0912694 -0.11323021 0.045377742 0.031382553 -0.13443959
0.03468105 0.02324948 -0.035865903 0.060247164 -0.07189218 -0.014347133
00000000: c5b0 783d 9ecf 98bd 13e7 cbbd 94d7 e0bc
00000010: 1196 e33d e811 213c 935c 03bc 042e 98bd
00000020: f99c 463b 3bfa efbd 32a2 0a3c 2357 a3bd
00000030: d3b1 d53b b958 953c d37e 213c 6cb3 c9bb
00000040: efa9 de3b 314e 02be 0af9 1f3b 4414 b33d
00000050: c3db 6d3d 5fd1 34bd 0e3d a7bd b48d ebbb
00000060: 092b f6bc 40da d8bb 454a 973c 3e2c af3d
00000070: 1818 f8bb 09da 44bd 4e3a 7bbd f34e 493c
00000080: c15b 593d b622 8f3d 731f 1e3d 74eb ba3d
00000090: 3ee5 e7bd 03de 393d fe8a 003d 88aa 09be
000000a0: b70d 0e3d b275 be3c 20e8 12bd bbc5 763d
000000b0: 353c 93bd 3d10 6bbc

conv2.weight f4 [64, 32, 3, 3]
0.00795425 -0.0041436167 -0.0016809767 -0.019445162 0.0072623417 0.002238652 -0.0052061738 -0.003297638
0.03309952 -0.01886094 -0.02480257 -0.03469934 -0.011198286 -0.024441307 -0.0097197415 -0.0022992766
-0.010375145 -0.016907122 -0.01013372 -0.015258941 -0.010400432 0.0019044079 -0.011594692 -0.0065345964
-0.015056039 -0.04748647 -0.01669245 -0.0222724 -0.0009070403 -0.016260052 -0.018784344 -0.00750313
-0.025266057 -0.020696215 -0.040898453 -0.0074040582 -0.020069152 0.027858283 0.0019896266 0.0036437802
0.017073952 0.0029259706 -0.0033838917 0.016556976 0.015276774 0.024044713 0.00563646 -0.0015382675
0.014199909 0.008761604 0.018288413 -0.03598763 -0.024836747 -0.008443523 -0.0012395722 -0.0022745703
-0.017882533 -0.0049331198 0.005600245 -0.003449484 0.00605058 -0.019048218 -0.017149912 0.00022340333
-0.012356837 -0.0065685143 0.0005965865 -0.02921879 -0.020884646 0.016687308 -0.03574383 -0.02110841
-0.03633992 -0.017217167 -0.0053289225 -0.00120269 -0.009176764 0.014198159 -0.014386071 -0.0022411929
0.0036293208 -0.0047709756 0.0011889949 0.012149227 0.019338828 0.0017101746 0.015111575 -0.015176127
-0.034846906 -0.0035844368 -0.003893628 -0.034316562 -0.028712334 -0.010051208 -0.023910897 -0.02829509
-0.013658978 -0.048212085 -0.0369072 0.0067105102 -0.026090115 -0.021710545 -0.034615304 -0.045094892
-0.008371506 -0.018438565 -0.041125003 -0.0201716 0.000215009 -0.007926848 0.014415493 -0.011619277
-0.0040472993 0.0018847834 -0.008134389 -0.023757195 0.012867233 -0.0111622205 0.032548662 0.009340359
-0.01062966 0.006425203 -0.0021195689 -0.015300523 -0.004740437 -0.0038799278 -0.00092906406 -0.013062999
0.010269556 0.008370449 -0.032638904 0.010727845 -0.016922511 -0.03634688 -0.030067632 -0.007870435
0.029981362 0.026611188 0.013085049 0.019041741 0.043043897 0.019738507 0.035509497 0.039136466
0.0061830566 0.0119231725 0.021743748 -0.0018352699 0.021039955 0.033116486 -0.015095897 -0.00871482
0.010065035 -0.038647078 0.0128865065 0.003028315 -0.010156364 -0.0078740055 -0.005538199 -0.0114542805
0.009837112 0.023027364 -0.016602121 -0.009112088 -0.011104208 0.00015518138 -0.02337297 -0.012653193
-0.021446815 -0.0074379877 0.00639829 -0.002335438 0.0018812934 -7.0147915e-05 -0.022649424 0.0022877455
-0.0031423182 0.0061563957 -0.014161023 0.016326224 -0.020762708 -0.029987419 -0.030169977 -0.04197465
-0.030094266 -0.016383823 -0.040881246 -0.022638537 -0.02287362 -0.013746695 -0.026296165 -0.01953043
0.022918038 -0.013296106 -0.035639457 0.0017374083 -0.037890412 -0.021627976 -0.015099687 -0.0039660856
-0.021733943 -0.00058033876 -0.021929657 -0.005653647 0.031724554 0.010758092 0.010699135 -0.0005000755
0.014506968 -0.010809322 0.011454335 -0.0066382247 0.005798032 -0.005733845 -0.014897069 -0.0011235394
-0.002066755 0.034588277 0.014673106 0.009517763 0.021390356 0.02804695 0.006392324 0.014105826
0.032979783 0.0026281956 -0.0075683673 0.0038183334 -0.017965635 0.002717354 0.0086172335 0.0031916513
-0.02507483 0.007470561 0.019389136 0.028113509 0.023842134 -0.01240419 0.0070773517 0.011078927
0.006511256 -0.022137702 0.004861668 -0.014632863 -0.01948322 -0.03909518 -0.014682689 -0.030575838
-0.005845102 -0.01090962 -0.01976944 -0.008941444 -0.014000585 -0.02570503 -0.008036002 -0.013369955
00000000: 8b52 023c 2dc7 87bb 3854 dcba 764b 9fbc
00000010: f0f8 ed3b 59b6 123b 8d98 aabb 2f1d 58bb
00000020: 5d93 073d 4282 9abc c22e cbbc e520 0ebd
00000030: 0479 37bc 2339 c8bc 8d3f 1fbc 76af 16bb
00000040: 83fc 29bc ce80 8abc e707 26bc a300 7abc
00000050: 9366 2abc 539d f93a aaf7 3dbc 2b20 d6bb
00000060: 9bad 76bc 2c81 42bd 9bbe 88bc 9c74 b6bc
00000070: 72c6 6dba cd33 85bc a0e1 99bc d1dc f5bb
00000080: c3fa cebc 1c8b a9bc 2385 27bd be9d f2bb
00000090: 1068 a4bc 0e37 e43c 6564 023b 7dcc 6e3b
000000a0: acde 8b3c a4c1 3f3b 48c4 5dbb 7fa2 873c
000000b0: 6f4b 7a3c 6bf9 c43c 0eb2 b83b b19f c9ba
000000c0: bca6 683c d58c 0f3c 95d1 953c c467 13bd
000000d0: 6f76 cbbc b456 0abc 2479 a2ba f510 15bb
000000e0: 647e 92bc 02a6 a1bb 4382 b73b bd10 62bb
000000f0: f243 c63b 020b 9cbc f97d 8cbc 6041 6a39
00000100: 5574 4abc b13c d7bb 3e64 1c3a 3e5c efbc
00000110: 4716 abbc d2b3 883c 1f68 12bd 8beb acbc
00000120: 2bd9 14bd 040b 8dbc 3e9e aebb 94a3 9dba
00000130: 235a 16bc 659f 683c 8eb3 6bbc fae0 12bb
00000140: e6d9 6d3b d855 9cbb 0cd8 9b3a 8d0d 473c
00000150: 766c 9e3c f027 e03a 8a96 773c 4aa5 78bc
00000160: a1bb 0ebd dfe8 6abb 3d2c 7fbb 868f 0cbd
00000170: 2136 ebbc d2ad 24bc c9e0 c3bc 1bcb e7bc
00000180: e8c9 5fbc 097a 45bd 012c 17bd d7e3 db3b
00000190: f0ba d5bc 50da b1bc c7c8 0dbd 6cb5 38bd
000001a0: a428 09bc 790c 97bc b172 28bd e93e a5bc
000001b0: 0a74 6139 9cdf 01bc f62e 6c3c c85e 3ebc
000001c0: 359f 84bb d60a f73a 1a46 05bc 739e c2bc
000001d0: 16d1 523c bfe1 36bc bf51 053d 4e08 193c
000001e0: 0728 2ebc 828a d23b 77e8 0abb 0baf 7abc
000001f0: ab55 9bbb 6346 7ebb 6f8c 73ba 3006 56bc
00000200: a441 283c 3524 093c 5fb0 05bd d8c3 2f3c
00000210: 14a1 8abc 77e0 14bd 6550 f6bc fff2 00bc
00000220: 799b f53c b5ff d93c ac62 563c 6dfd 9b3c
00000230: cc4e 303d a6b2 a13c 6872 113d 8f4d 203d
00000240: 3d9b ca3b 6959 433c f21f b23c 708d f0ba
00000250: fc5b ac3c 27a5 073d c854 77bc 9bc8 0ebc
00000260: d1e7 243c 664c 1ebd ed21 533c b276 463b
00000270: e166 26bc f901 01bc c879 b5bb bcaa 3bbc
00000280: d72b 213c e2a3 bc3c 2c01 88bc de4a 15bc
00000290: 6dee 35bc 2fb8 2239 ac78 bfbc 574f 4fbc
000002a0: 3bb1 afbc 5dba f3bb bfa8 d13b 260e 19bb
000002b0: bb95 f63a 601c 93b8 498b b9bc 00ee 153b
000002c0: 5aef 4dbb 97bb c93b a303 68bc 93be 853c
000002d0: 8e16 aabc 2da8 f5bc 0727 f7bc 9ced 2bbd
000002e0: 4088 f6bc 5e37 86bc 1873 27bd 7474 b9bc
000002f0: 7561 bbbc d139 61bc 0e6b d7bc 48fe 9fbc
00000300: 9cbe bb3c e9d7 59bc aefa 11bd c0b9 e33a
00000310: fa32 1bbd 272d b1bc ad64 77bc f0f5 81bb
00000320: 620b b2bc e021 18ba d3a5 b3bc 3a42 b9bb
00000330: 9bf1 013d b542 303c 6d4b 2f3c 8017 03ba
00000340: a2ae 6d3c 9519 31bc f7aa 3b3c 7785 d9bb
00000350: 6bfd bd3b fae2 bbbb d612 74bc ba43 93ba
00000360: 6572 07bb 70ac 0d3d 7867 703c 64f0 1b3c
00000370: d43a af3c b8c2 e53c b376 d13b 1f1c 673c
00000380: cf15 073d ce3d 2c3b 1100 f8bb 013d 7a3b
00000390: ab2c 93bc a315 323b 4c2f 0d3c 062b 513b
000003a0: bb69 cdbc 9ccb f43b f7d5 9e3c 4d4e e63c
000003b0: 9450 c33c f23a 4bbc 21e9 e73b 6384 353c
000003c0: 605c d53b 205a b5bc a14e 9f3b adbe 6fbc
000003d0: 469b 9fbc 4422 20bd a98f 70bc 2e7a fabc
000003e0: 4588 bfbb 43be 32bc 85f3 a1bc 227f 12bc
000003f0: b662 65bc 5b93 d2bc 6fa9 03bc a80d 5bbc

conv3.weight f4 [128, 64, 3, 3]
0.062177025 0.054012377 0.025742985 0.022532055 0.026589165 -0.008272591 0.052046154 0.032493245
0.002895728 0.010399597 0.015531667 0.016705856 -0.010851753 0.015766928 0.0054627727 0.018969353
0.031757534 0.045267444 0.049225397 0.021530317 -0.024235606 0.076118425 0.033264298 -0.0124024395
0.03205408 0.037719052 -7.095436e-05 -0.022596804 0.0074762125 0.019747641 -0.00984348 0.0021132773
0.016214265 -0.019983767 0.041192163 0.028772952 -0.0021491393 0.028018625 0.00020299226 0.0055408212
0.0108081885 0.010183154 -0.0012990808 0.022856094 0.032086667 -0.04504953 0.045502517 0.00052517676
-0.01454505 0.026066856 -0.0025899094 0.052698907 0.056601085 0.02466808 -0.026092565 -0.065822706
-0.029480623 0.014731624 -0.048597906 -0.059052072 -0.025159732 -0.035861857 -0.04047203 -0.022150755
-0.03564691 0.0026941579 -0.06074214 -0.059668113 -0.004793768 -0.054251347 -0.027692573 -0.0022822653
-0.06015793 -0.03048914 0.001463541 0.008432916 -0.04158221 0.021474041 -0.021405097 0.047553618
0.033223327 -0.027450008 -0.020012258 -0.007891975 -0.035272427 -0.045381535 -0.024412517 -0.050759193
-0.044458758 -0.0034376204 -0.034479022 -0.048736095 -0.021053705 0.017715778 -0.0251528 -0.02295528
-0.02185127 -0.05416057 -0.032699924 0.012167023 0.033342056 0.015923748 0.007949814 0.0005642769
-0.004771191 -0.027032126 -0.016104689 -0.011214985 -0.0023592976 -0.01848316 -0.022127792 0.043901667
0.019595452 0.0074125575 0.05066873 0.05647124 0.0072295438 -0.07425758 -0.06168246 -0.003256837
-0.026363065 -0.00010480424 0.029879192 -0.0029195377 -0.008477816 0.015619807 -0.04783962 -0.0052439314
-0.001079635 0.0033823245 -0.017425587 0.034085285 0.022133157 0.026655285 0.014768773 -0.0017404397
-0.04264577 -0.011007581 -0.004814236 0.0053608855 -0.011065102 -0.0009635981 0.02922683 -0.02118336
0.012198475 0.018592829 0.02993026 -0.0020734805 0.0021001569 0.016776362 -0.046147395 -0.046673737
-0.011475195 -0.019287093 -0.036837086 0.017912703 -0.029087508 -0.033496544 0.013164456 0.04639773
-0.008924816 0.010933959 -0.07919912 -0.04874719 -0.03466792 -0.04803732 -0.015270543 -0.030224772
-0.028413996 -0.0015439092 -0.018756967 0.0030176945 -0.01790298 0.03390794 -0.011409676 -0.010604345
0.030694846 -0.008725302 -0.011593951 0.026228713 0.000527714 0.018909328 -0.011599736 0.037844796
0.030694036 0.014016382 0.06870065 0.045204982 0.046998594 0.020177912 0.043729622 0.02932268
-0.0027541893 -0.009174864 0.023751017 -0.038988803 -0.03494941 -0.019444486 -0.030482195 -0.045779087
-0.047317278 -0.00059038104 -0.03003619 -0.039553255 0.00833251 -0.011405984 -0.03514818 -0.022935223
-0.047469113 -0.0007407996 -0.016749725 -0.007942885 -0.021458024 0.009492167 -0.004641121 -0.019889131
-0.056624264 -0.080728635 -0.0052926424 -0.080694266 -0.069011495 -0.026045434 -0.0689215 -0.025380347
-0.0146789625 -0.009217606 -0.005413098 0.017504377 -0.030891532 -0.013910767 -0.020087432 0.0054288525
0.011663224 0.0012624799 -0.00692782 0.018574651 0.031909786 0.018578252 -0.015438636 0.020776244
0.026108729 0.004276434 0.04466715 0.019701876 -0.00065175496 0.021653825 -0.0015143654 -0.02986843
-0.041220438 -0.048474975 -0.03475323 -0.032956526 0.010845184 0.03614978 0.008370768 -0.014436281
00000000: 56ad 7e3d 153c 5d3d f4e2 d23c 2595 b83c
00000010: 85d1 d93c c389 07bc 592e 553d a317 053d
00000020: 41c6 3d3b 1263 2a3c 8878 7e3c b8da 883c
00000030: 8dcb 31bc a529 813c 0f01 b33b 9e65 9b3c
00000040: 3014 023d 5b6a 393d 92a0 493d 5960 b03c
00000050: c089 c6bc fae3 9b3d 2540 083d 9a33 4bbc
00000060: 244b 033d 4b7f 1a3d 55cd 94b8 ef1c b9bc
00000070: 04fb f43b cec5 a13c 8c46 21bc e97e 0a3b
00000080: c7d3 843c ffb4 a3bc 1db9 283d 41b5 eb3c
00000090: 93d8 0cbb 5187 e53c 52da 5439 c78f b53b
000000a0: d414 313c 3ed7 263c eb45 aaba b43c bb3c
000000b0: 4f6d 033d db85 38bd d960 3a3d 04ac 093a
000000c0: 5d4e 6ebc 298a d53c 78bb 29bb cfda 573d
000000d0: 8ad6 673d b714 ca3c 13c0 d5bc 0ece 86bd
000000e0: 5981 f1bc e95c 713c 990e 47bd 96e0 71bd
000000f0: c81b cebc e2e3 12bd 00c6 25bd 8075 b5bc
00000100: 7f02 12bd 7890 303b c0cc 78bd 8d66 74bd
00000110: 0a15 9dbb a936 5ebd 89db e2bc 0f92 15bb
00000120: 2968 76bd 5cc4 f9bc 49d4 bf3a 372a 0a3c
00000130: 1c52 2abd 54ea af3c be59 afbc 95c7 423d
00000140: 2f15 083d d7de e0bc bff0 a3bc 584d 01bc
00000150: d279 10bd fde1 39bd c2fc c7bc dfe8 4fbd
00000160: 631a 36bd b349 61bb e039 0dbd 809f 47bd
00000170: d278 acbc ae20 913c 3f0d cebc b60c bcbc
00000180: 6f01 b3bc 79d7 5dbd 5bf0 05bd 3158 473c
00000190: ae91 083d 8572 823c f03f 023c fbeb 133a
000001a0: a757 9cbb 7a72 ddbc fbed 83bc 0ebf 37bc
000001b0: 729e 1abb ff69 97bc 5845 b5bc 3cd2 333d
000001c0: a486 a03c 0ae5 f23b 048a 4f3d 634e 673d
000001d0: cfe5 ec3b 5c14 98bd bfa6 7cbd a870 55bb
000001e0: 5bf7 d7bc 59ca dbb8 35c5 f43c b755 3fbb
000001f0: 8ae6 0abc 38ea 7f3c 7af3 43bd 49d5 abbb
00000200: 8a82 8dba fda9 5d3b 1bc0 8ebc 039d 0b3d
00000210: 9850 b53c 2f5c da3c b9f8 713c 771f e4ba
00000220: 55ad 2ebd 2459 34bc bdc0 9dbb 5eaa af3b
00000230: 674a 35bc f999 7cba 1b6d ef3c ba88 adbc
00000240: 1ddc 473c fd4f 983c 4e30 f53c 3be3 07bb
00000250: c9a2 093b 956e 893c 0d05 3dbd f62c 3fbd
00000260: 7502 3cbc f7ff 9dbc 7ce2 16bd a9bd 923c
00000270: ed48 eebc ac33 09bd bbaf 573c 8c0b 3e3d
00000280: 6439 12bc 5924 333c 2633 a2bd 22ab 47bd
00000290: f3ff 0dbd c8c2 44bd 4d31 7abc f199 f7bc
000002a0: 78c4 e8bc ff5c caba 36a8 99bc 83c4 453b
000002b0: 45a9 92bc 0de3 0a3d a6ef 3abc d9bd 2dbc
000002c0: c273 fb3c 92f4 0ebc 8ef4 3dbc 99dd d63c
000002d0: 4956 0a3a bce7 9a3c d20c 3ebc 2503 1b3d
000002e0: 0f72 fb3c f8a4 653c edb2 8c3d dc28 393d
000002f0: 9981 403d 264c a53c d51d 333d 1e36 f03c
00000300: a17f 34bb 2b52 16bc 7e91 c23c b9b2 1fbd
00000310: 1d27 0fbd 0b4a 9fbc ccb5 f9bc da82 3bbd
00000320: c3cf 41bd cdc3 1aba 750e f6bc 9802 22bd
00000330: 1485 083c 2ae0 3abc 8af7 0fbd a6e2 bbbc
00000340: f96e 42bd 3832 42ba b836 89bc e022 02bc
00000350: bdc8 afbc 0985 1b3c 8b14 98bb 88ee a2bc
00000360: d8ee 67bd 0e55 a5bd e76d adbb 0943 a5bd
00000370: e655 8dbd 3c5d d5bc b726 8dbd 72ea cfbc
00000380: 0880 70bc 7105 17bc 5b60 b1bb 5765 8f3c
00000390: 3d10 fdbc fce9 63bc 668e a4bc 84e4 b13b
000003a0: 1b17 3f3c cc79 a53a c402 e3bb de29 983c
000003b0: d6b3 023d 6b31 983c 55f2 7cbc f132 aa3c
000003c0: f9e1 d53c 5421 8c3b e7f4 363d d465 a13c
000003d0: 89da 2aba 5d63 b13c ac7d c6ba a3ae f4bc
000003e0: c3d6 28bd b28d 46bd 6759 0ebd 6cfd 06bd
000003f0: 00b0 313c cb11 143d 8c25 093c 2786 6cbc

fc1.weight f4 [256, 128]
-20.1193 -1.1980293 -8.925883 -7.1629314 0.8265058 -4.4862976 -9.650595 -1.6713862
-7.7311964 -12.862313 -5.1796165 3.5489428 -6.830579 -5.778346 -2.529241 -1.9085306
4.4427686 -1.3544376 -5.8743114 -14.341383 4.2772093 4.0230417 0.7276113 0.30551988
0.07837203 3.5390806 -0.117794305 -0.26381817 -0.5873073 -1.5844245 -3.149478 -15.949158
-3.5305784 -8.510301 -0.67333716 -0.10811968 -10.147293 3.3943787 16.589712 -1.2551037
3.472598 0.708637 4.3827534 -4.1749496 -0.91928244 9.50012 -9.084405 4.0145583
5.934936 10.109003 -6.4360332 -3.6230874 -3.33989 -11.148276 -7.9746003 -6.2957706
-0.6016368 -5.915783 -0.92191786 1.8097731 1.2961512 7.955689 5.0807843 -5.6826367
-8.903068 1.4616488 -12.055762 -7.9309835 1.4454755 -1.616813 -0.49075112 -5.767527
6.3725085 -6.7713203 1.2239614 8.109186 -9.335565 5.072377 -2.805396 -12.498916
4.278045 -0.98624504 1.6732926 -2.3729193 -1.2483819 6.970779 -5.460804 -7.893173
-3.7226312 -12.000235 -3.6411226 -10.109952 1.5670106 -7.1793513 5.0253215 4.584809
-1.1679118 -2.9336884 -0.8847369 8.978521 6.254075 -3.9588358 2.7371655 -2.6921852
1.8213108 5.301654 0.028550407 0.6086779 -1.2431766 4.286391 -16.462559 -4.7520623
6.2292466 4.187773 6.963871 0.5579472 -2.3771937 2.1866832 -5.006676 7.143388
-0.8383432 -2.8294835 -8.354644 -4.1327295 -1.9124092 8.121582 -12.379772 -3.337567
-3.8912575 0.43728533 -7.3872175 14.3368435 -0.8150083 7.161413 3.1760037 -4.428555
2.3353698 -1.9590609 -1.8630462 10.778225 3.3777983 3.279614 0.13908954 -9.137436
-1.6347672 -1.4674456 -0.5395558 12.344962 -2.9761636 -1.3336701 4.1159267 2.2601423
-3.9342315 2.2742262 -6.371291 -0.6401909 -4.9291744 -0.42134488 12.71481 13.492624
9.79182 4.201944 7.9688287 14.376364 -4.5322247 3.0724006 -6.6512465 -0.09100301
-1.5166532 4.58727 4.594027 0.7087069 8.008151 -1.0763918 4.8262706 10.485186
2.1512702 1.7764939 -6.2766194 2.907371 5.323864 13.299717 4.4289703 -1.4068704
-1.3688548 1.4897925 6.5967455 -3.82372 5.428102 -9.6227665 -0.9123509 5.2836437
3.5960753 4.3716865 1.4467807 -2.292803 4.4539814 6.8716617 4.04867 -5.0052066
-0.6693023 1.7288742 -0.8564626 -5.7726274 13.395331 -5.9698925 7.958857 -10.28632
4.4678 6.573878 2.668358 1.6367025 9.753959 7.0642433 -4.261928 8.975715
1.6203281 1.9142582 10.425816 2.0064926 -4.589501 11.325023 10.960135 12.422002
0.66450316 2.9720619 8.850727 0.97300625 -3.72228 0.4196371 2.195252 2.0820732
9.6374655 9.380568 -7.5451884 -6.071622 -2.2118032 1.912852 0.27939904 4.546603
1.0405586 -0.41393992 -2.6455185 -3.9807224 4.4295764 2.139931 -13.806426 -9.459564
1.9585955 -8.16192 13.932799 1.8100618 0.5021433 10.943533 -0.010198485 -3.591872
00000000: 54f4 a0c1 0659 99bf 6bd0 0ec1 bc36 e5c0
00000010: e295 533f c08f 8fc0 d668 1ac1 fcef d5bf
00000020: f665 f7c0 09cc 4dc1 6bbf a5c0 e121 6340
00000030: 1a94 dac0 36e8 b8c0 16df 21c0 bb4a f4bf
00000040: 292b 8e40 365e adbf 5cfa bbc0 4e76 65c1
00000050: e6de 8840 c2bc 8040 bc44 3a3f 1a6d 9c3e
00000060: 8481 a03d 4c80 6240 243e f1bd 2d13 87be
00000070: c559 16bf 6cce cabf 0c91 49c0 c02f 7fc1
00000080: fff4 61c0 312a 08c1 d35f 2cbf da6d ddbd
00000090: 505b 22c1 803d 5940 bbb7 8441 3da7 a0bf
000000a0: 0c3f 5e40 3c69 353f 843f 8c40 3099 85c0
000000b0: 1856 6bbf 7e00 1841 b959 11c1 4377 8040
000000c0: ffea bd40 7abe 2141 fcf3 cdc0 aae0 67c0
000000d0: c2c0 55c0 575f 32c1 ed2f ffc0 f476 c9c0
000000e0: df04 1abf 184e bdc0 cf02 6cbf a5a6 e73f
000000f0: 48e8 a53f 0195 fe40 c995 a240 29d8 b5c0
00000100: f772 0ec1 4f17 bb3f 67e4 40c1 9eca fdc0
00000110: 5705 b93f baf3 cebf bb43 fbbe 958f b8c0
00000120: 97eb cb40 a8ae d8c0 c4aa 9c3f 3abf 0141
00000130: 795e 15c1 ea50 a240 9c8b 33c0 8ffb 47c1
00000140: bfe5 8840 8e7a 7cbf 742e d63f e9dd 17c0
00000150: faca 9fbf 9f10 df40 e8be aec0 e094 fcc0
00000160: 973f 6ec0 f600 40c1 2708 69c0 5dc2 21c1
00000170: ce93 c83f 3fbd e5c0 6fcf a040 c1b6 9240
00000180: 227e 95bf 8dc1 3bc0 1e7e 62bf 06a8 0f41
00000190: 6221 c840 915d 7dc0 b82d 2f40 c34c 2cc0
000001a0: b620 e93f 26a7 a940 8be2 e93c 51d2 1b3f
000001b0: 6920 9fbf 1d2a 8940 52b3 83c1 e510 98c0
000001c0: fd55 c740 3d02 8640 08d8 de40 a1d5 0e3f
000001d0: f123 18c0 9ef2 0b40 b136 a0c0 a296 e440
000001e0: a99d 56bf 4216 35c0 9fac 05c1 523f 84c0
000001f0: d3c9 f4bf 00f2 0141 8c13 46c1 b39a 55c0
00000200: 5d0a 79c0 dde3 df3e 1664 ecc0 b663 6541
00000210: 62a4 50bf 4c2a e540 a543 4b40 b9b6 8dc0
00000220: b376 1540 82c2 fabf 4c78 eebf 9c73 2c41
00000230: d92d 5840 32e5 5140 7d6d 0e3e f032 12c1
00000240: 0d40 d1bf 42d5 bbbf 5420 0abf f784 4541
00000250: 7779 3ec0 b4b5 aabf acb5 8340 2ca6 1040
00000260: 73ca 7bc0 ec8c 1140 9ee1 cbc0 8de3 23bf
00000270: ccbb 9dc0 84ba d7be dd6f 4b41 cae1 5741
00000280: 4bab 1c41 5376 8640 a500 ff40 9605 6641
00000290: fc07 91c0 36a2 4440 03d7 d4c0 c95f babd
000002a0: b121 c2bf eaca 9240 4502 9340 d16d 353f
000002b0: 6321 0041 35c7 89bf cf70 9a40 52c3 2741
000002c0: 69ae 0940 2764 e33f 11da c8c0 5e12 3a40
000002d0: 185d aa40 a4cb 5441 20ba 8d40 5414 b4bf
000002e0: a236 afbf 85b1 be3f 8a18 d340 d4b7 74c0
000002f0: 03b3 ad40 daf6 19c1 d48f 69bf 9c13 a940
00000300: 1926 6640 dbe4 8b40 1c30 b93f 49bd 12c0
00000310: 0487 8e40 a7e4 db40 b48e 8140 a72a a0c0
00000320: 6557 2bbf c04b dd3f 2241 5bbf 5db9 b8c0
00000330: 4753 5641 5c09 bfc0 f5ae fe40 c494 24c1
00000340: 38f8 8e40 355d d240 61c6 2a40 787f d13f
00000350: 3710 1c41 480e e240 b761 88c0 879c 0f41
00000360: e966 cf3f 6a06 f53f 24d0 2641 606a 0040
00000370: 31dd 92c0 4b33 3541 b75c 2f41 85c0 4641
00000380: e11c 2a3f 4336 3e40 949c 0d41 f016 793f
00000390: d639 6ec0 adda d63e 027f 0c40 b040 0540
000003a0: 0f33 1a41 ce16 1641 2f72 f1c0 ba4a c2c0
000003b0: 2f8e 0dc0 56d8 f43f 640d 8f3e c67d 9140
000003c0: 0631 853f efef d3be 2d50 29c0 28c4 7ec0
000003d0: 17bf 8d40 a1f4 0840 1fe7 5cc1 605a 17c1
000003e0: 42b3 fa3f 3997 02c1 bfec 5e41 1bb0 e73f
000003f0: 778c 003f b618 2f41 8c17 27bc 3be1 65c0

fc2.weight f4 [46, 256]
-0.13531722 0.09561017 -0.13707364 -0.21453251 0.117140844 0.17171171 -0.045661326 0.11237702
-0.14325601 0.0987439 0.0880627 0.06995343 0.032644756 -0.15880151 0.18646333 -0.12373354
0.2018943 -0.1932725 -0.005660504 0.09029696 -0.010135307 0.08580243 -0.114138804 0.10027715
0.05435985 -0.050288588 -0.068738796 0.15982223 -0.11806513 -0.055024847 0.0776714 -0.07846607
0.09245725 -0.20120172 0.011228571 0.02856939 -0.14049862 -0.1116382 -0.050937302 -0.009438138
0.16831185 -0.14884165 -0.014276841 -0.15888266 -0.10963561 0.11983986 0.03514817 -0.146525
-0.068579055 0.014314347 -0.13782573 0.0019092045 -0.10763915 0.01826887 0.06956716 0.09007213
-0.10874855 -0.012533393 0.22287375 0.12832105 0.13311402 -0.12837057 -0.00014747097 0.058772612
-0.12506828 -0.16431576 -0.08166887 -0.13257018 -0.1193258 -0.104769826 0.020485615 0.09456556
-0.01924539 -0.1273341 0.030557625 -0.14347331 0.02177937 0.22670984 -0.15603787 -0.22421433
-0.0060745813 0.056366615 -0.20755477 -0.095099784 0.01744182 -0.14790282 0.04367067 0.12791404
-0.018904481 -0.061651185 -0.09353112 0.054892454 -0.020703109 -0.1382084 0.04178597 0.0006251991
-0.03585925 -0.10392278 -0.17763337 -0.055225383 -0.21630529 0.17341177 0.12089053 0.06426169
-0.03502404 -0.13619192 -0.064228244 0.12957898 -0.005610307 0.12671128 -0.0657472 0.10649783
-0.19876534 0.046402734 -0.20101109 -0.13283844 -0.22387199 0.08331116 0.13794917 -0.08624836
-0.10471814 -0.0812811 0.17899345 -0.13703944 0.086073294 -0.1444152 -0.12781438 -0.19288805
0.11743912 0.06936681 -0.12310382 -0.03558836 0.03569989 -0.0058122734 -0.217528 0.08406322
0.035759892 -0.14590858 -0.20914373 -0.18772776 -0.060962226 -0.059582822 -0.0603004 0.17265023
-0.09462139 0.00033503052 -0.1150097 -0.006927299 0.13647667 0.103162445 -0.14251313 -0.19820051
-0.12739235 -0.05906918 -0.06570778 0.122109845 -0.12105732 0.08022254 -0.12591262 0.15059902
0.11108993 -0.03890273 -0.054261416 -0.15748684 -0.07179474 -0.1336618 0.110158116 -0.087316155
0.006063027 -0.20589666 -0.090324335 -0.18908243 0.15385754 -0.057987627 -0.24406242 -0.16102931
-0.0821403 0.13399154 -0.17713416 -0.007757068 -0.052566398 0.1873187 0.058681693 0.13598906
-0.08334397 0.082475275 -0.1100047 -0.028157601 0.01666875 -0.008270857 -0.17096497 -0.14399421
-0.19737189 -0.05644613 -0.018833358 0.0360581 -0.054590568 -0.09786951 0.1005734 -0.10325081
0.11515645 -0.067069314 -0.07735842 -0.20855856 -0.044120014 -0.012127736 0.054932516 -0.1715852
0.15551233 -0.15418132 -0.019711837 -0.26498598 0.10090039 -0.0702315 -0.029917633 0.02303813
-0.10937721 0.023519179 -0.12331008 -0.14902708 0.10828602 -0.16941248 0.13579138 0.023421554
0.15802406 -0.08998084 -0.05038542 -0.19048296 -0.22045287 0.09152106 -0.1214328 -0.0049141543
-0.06014075 -0.06026878 0.079688735 -0.07609123 -0.066186115 0.11108604 0.12829009 0.0667203
-0.123159714 -0.056614794 -0.05387348 -0.08217163 -0.05723151 -0.08989474 0.1422664 0.10657715
-0.01077442 -0.17096184 -0.0049948716 0.044371467 -0.15377484 0.019566935 0.084991835 0.04551308
00000000: 9990 0abe 44cf c33d 085d 0cbe 69ae 5bbe
00000010: 8ae7 ef3d 32d5 2f3e 5f07 3bbd ec25 e63d
00000020: b4b1 12be 3e3a ca3d 385a b43d be43 8f3d
00000030: 82b6 053d dd9c 22be 3ef0 3e3e 0368 fdbd
00000040: 61bd 4e3e 3ae9 45be c07b b9bb 9ded b83d
00000050: 8f0e 26bc 2fb9 af3d 9bc1 e9bd 1b5e cd3d
00000060: 6fa8 5e3d 68fb 4dbd edc6 8cbd 70a8 233e
00000070: 22cc f1bd bc61 61bd 2f12 9f3d d2b2 a0bd
00000080: 3a5a bd3d d307 4ebe 0af8 373c 5a0a ea3c
00000090: dfde 0fbe 92a2 e4bd a2a3 50bd 6ca2 1abc
000000a0: f159 2c3e f269 18be 69e9 69bc 23b2 22be
000000b0: a288 e0bd 9a6e f53d 87f7 0f3d a60a 16be
000000c0: 2d73 8cbd b986 6a3c 3022 0dbe 463e fa3a
000000d0: ea71 dcbd 99a8 953c 3a79 8e3d bd77 b83d
000000e0: 8fb7 debd dc58 4dbc 0439 643e 9866 033e
000000f0: 0b4f 083e 9373 03be 70a2 1ab9 8dbb 703d
00000100: e611 00be 6442 28be 0242 a7bd 7ac0 07be
00000110: 1661 f4bd 9091 d6bd 73d1 a73c 97ab c13d
00000120: 82a8 9dbc df63 02be fc53 fa3c abea 12be
00000130: a66a b23c a026 683e 64c8 1fbe 7198 65be
00000140: 480d c7bb aee0 663d 3d89 54be adc3 c2bd
00000150: 26e2 8e3c d673 17be 04e0 323d e6fb 023e
00000160: 92dd 9abc f485 7cbd 3e8d bfbd e9d6 603d
00000170: 9199 a9bc 8186 0dbe c427 2b3d 67e4 233a
00000180: 26e1 12bd 77d5 d4bd 86e5 35be 0334 62bd
00000190: 227f 5dbe db92 313e 7495 f73d a29b 833d
000001a0: 5e75 0fbd e575 0bbe 198a 83bd 5ab0 043e
000001b0: abd6 b7bb 9ac0 013e 78a6 86bd 891b da3d
000001c0: 2489 4bbe cb10 3e3d dad5 4dbe cd06 08be
000001d0: b33e 65be 0b9f aa3d 8c42 0d3e fba2 b0bd
000001e0: 7776 d6bd b576 a6bd 0f4a 373e 1154 0cbe
000001f0: 3247 b03d 94e1 13be c6e1 02be 7284 45be
00000200: ec83 f03d 3010 8e3d db1d fcbd 1ac5 11bd
00000210: 0c3a 123d e274 bebb a9bf 5ebe 5629 ac3d
00000220: f778 123d 0f69 15be c629 56be b53b 40be
00000230: 87b3 79bd 1e0d 74bd 8dfd 76bd 39cb 303e
00000240: dcc8 c1bd 09a7 af39 358a ebbd 65fe e2bb
00000250: 8ac0 0b3e d546 d33d f6ee 11be 13f5 4abe
00000260: 2473 02be 86f2 71bd cd91 86bd ba14 fa3d
00000270: e6ec f7bd b74b a43d 3def 00be a136 1a3e
00000280: 1e83 e33d 7858 1fbd 3841 5ebd 3b44 21be
00000290: 1f09 93bd a4de 08be 949a e13d d0d2 b2bd
000002a0: 5bac c63b 93d6 52be f7fb b8bd d39e 41be
000002b0: d58c 1d3e 6f84 6dbd 80eb 79be dee4 24be
000002c0: 2c39 a8bd 1435 093e a862 35be 012f febb
000002d0: dd4f 57bd 79d0 3f3e 375c 703d b740 0b3e
000002e0: 3eb0 aabd cce8 a83d 254a e1bd c5aa e6bc
000002f0: e78c 883c 7d82 07bc 7111 2fbe 3873 13be
00000300: db1b 4abe 0f34 67bd 6a48 9abc a9b1 133d
00000310: 5c9a 5fbd cf6f c8bd 6df9 cd3d 2975 d3bd
00000320: 25d7 eb3d a35b 89bd 176e 9ebd 6090 55be
00000330: 30b7 34bd 69b3 46bc eb00 613d 08b4 2fbe
00000340: a03e 1f3e b5e1 1dbe b87a a1bc 3eac 87be
00000350: dda4 ce3d 88d5 8fbd d315 f5bc 76ba bc3c
00000360: 2901 e0bd 4bab c03c ff89 fcbd 8e9a 18be
00000370: 10c5 dd3d 777a 2dbe e50c 0b3e 8fde bf3c
00000380: 0fd1 213e e047 b8bd f160 4ebd f70d 43be
00000390: 66be 61be 656f bb3d c3b1 f8bd ea06 a1bb
000003a0: 2656 76bd 65dc 76bd d933 a33d b8d5 9bbd
000003b0: 968c 87bd 1481 e33d 7a5e 033e a7a4 883d
000003c0: 293b fcbd eae4 67bd 70aa 5cbd 9949 a8bd
000003d0: 966b 6abd bc1a b8bd 48ae 113e 1f45 da3d
000003e0: 3187 30bc 9f10 2fbe 05ac a3bb dbbe 353d
000003f0: 2777 1dbe d64a a03c 3310 ae3d ec6b 3a3d
